models/model_crazy.pth (torch, 417150 bytes, 16 tensors)

weight f4 [4, 1, 3, 3]
-0.55634654 -0.12844391 -0.3755748 -0.05224776 0.15539269 0.06814007 -0.20955694 -0.144585
-0.21880002 0.83699024 1.0810657 0.82885176 0.81149584 0.5554159 0.39817092 0.70752996
0.26996216 -0.0204802 0.34478933 0.4370922 0.7045697 -0.8115397 -0.29842272 -0.21262729
-1.2156792 -0.52212614 -0.63876796 0.6469823 0.91199124 0.557948 0.26913884 0.12319092
0.094563134 -0.24921204 -0.3226138 0.59375966
00000000: ba6c 0ebf cd86 03be 574b c0be bf01 56bd
00000010: 431f 1f3e 058d 8b3d 1896 56be 170e 14be
00000020: 1d0d 60be fe44 563f 5c60 8a3f a12f 543f
00000030: 31be 4f3f bd2f 0e3f 0fdd cb3e af20 353f
00000040: 7b38 8a3e 18c6 a7bc 3a88 b03e 8dca df3e
00000050: ae5e 343f 11c1 4fbf ddca 98be f8ba 59be
00000060: 609b 9bbf 0faa 05bf 4c86 23bf a2a0 253f
00000070: 4278 693f aed5 0e3f 91cc 893e 854b fc3d
00000080: 51aa c13d 7131 7fbe a32d a5be a200 183f

bias f4 [4]
0.3730026 0.028182248 -0.102132834 0.021771055
00000000: 32fa be3e 75de e63c 052b d1bd 3659 b23c

weight f4 [2, 4, 3, 3]
-0.119977586 -0.13325268 -0.14311942 -0.14866118 -0.03277636 -0.118331924 -0.054064963 -0.059432093
-0.021254959 -0.11878615 0.036902465 -0.007865749 -0.121781185 -0.20120278 -0.030137986 -0.051674977
-0.10320966 0.08054553 -0.027967593 0.12590538 0.049015503 0.063493714 -0.071792684 0.00648131
0.054485463 -0.03709213 0.054362837 -0.057440776 -0.017661514 -0.17413807 -0.14927404 0.08109361
-0.10822786 -0.162056 -0.1320981 0.011682364 0.19057134 -0.17456225 0.12475636 -0.083574094
-0.2614483 -0.1390437 -0.12736392 -0.014257734 -0.1362821 -0.19263566 0.74620694 0.8459346
-0.06840057 0.4494164 0.60173005 0.28541973 0.41391402 0.5436471 0.06333388 0.14289413
-0.25766122 -0.8748159 -0.93490463 -0.5956553 -0.90242517 -0.58831316 -0.53705025 0.118207134
0.6452062 0.57516754 -0.27391642 0.3061405 0.18859328 0.0642727 0.55627966 0.42869052
00000000: cfb6 f5bd 6473 08be e68d 12be a33a 18be
00000010: 8140 06bd 0258 f2bd 3973 5dbd 116f 73bd
00000020: e11e aebc 2746 f3bd 0a27 173d 58df 00bc
00000030: 6a68 f9bd 1a08 4ebe f0e3 f6bc 24a9 53bd
00000040: 965f d3bd 0ef5 a43d 4b1c e5bc 57ed 003e
00000050: 7bc4 483d fe08 823d 0b08 93bd 2b61 d43b
00000060: 262c 5f3d ebed 17bd 91ab 5e3d 0547 6bbd
00000070: e1ae 90bc 4051 32be 4bdb 18be 6814 a63d
00000080: 91a6 ddbd 02f2 25be b944 07be 6367 3f3c
00000090: 2225 433e 72c0 32be 4380 ff3d e528 abbd
000000a0: 8ddc 85be 7961 0ebe b06b 02be 4599 69bc
000000b0: 898d 0bbe 4842 45be 6b07 3f3f 2c8f 583f
000000c0: 9915 8cbd e819 e63e fb0a 1a3f 8922 923e
000000d0: 8aec d33e 752c 0b3f 31b5 813d d752 123e
000000e0: 2cec 83be eff3 5fbf e955 6fbf de7c 18bf
000000f0: 5605 67bf b19b 16bf 207c 09bf 9516 f23d
00000100: 3c2c 253f 2e3e 133f c63e 8cbe 73be 9c3e
00000110: 991e 413e 68a1 833d 5868 0e3f 537d db3e

bias f4 [2]
-0.15902413 0.11445125
00000000: 39d7 22be 6b65 ea3d

weight f4 [2, 2, 3, 3]
0.21601859 0.13279697 0.15939496 0.1256716 -0.07328085 -0.10025565 0.026533386 0.18914817
-0.09940668 -0.20556942 -0.2780017 0.0854145 -0.2932075 0.009431474 0.25518778 0.1906952
0.009391606 0.03066909 0.21968463 0.018241156 -0.079814166 0.13754684 -0.00043316762 0.105603755
-0.08989662 0.005166831 -0.07524573 -0.22371301 -0.46373478 0.50739294 0.10945522 -0.65764606
-0.12819837 0.16812485 0.10380004 -0.1472062
00000000: fa33 5d3e eefb 073e 6f38 233e 0eb0 003e
00000010: 4514 96bd d652 cdbd 8b5c d93c 0fb0 413e
00000020: bb95 cbbd ca80 52be 3d56 8ebe cced ae3d
00000030: 4b1f 96be 7886 1a3c f9a7 823e 9a45 433e
00000040: 40df 193c be3d fb3c 02f5 603e 7a6e 953c
00000050: 9c75 a3bd 14d9 0c3e c61a e3b9 c846 d83d
00000060: b81b b8bd 854e a93b 6f1a 9abd 0615 65be
00000070: a56e edbe 81e4 013f 0f2a e03d 7e5b 28bf
00000080: 6f46 03be ec28 2c3e 1e95 d43d 39bd 16be

bias f4 [2]
-0.36795226 0.6099153
00000000: 3d64 bcbe 6923 1c3f

weight f4 [242, 242]
0.02558014 0.015338643 0.0029828367 3.9356022e-05 -0.07891794 -0.004800091 -0.03218058 0.0057169246
0.03612146 -0.071911134 -0.0037736194 0.0048795445 -0.021514704 -0.026753865 -0.035923533 0.033434022
-0.018967671 -0.06567978 -0.062085625 -0.065549426 -0.002329181 -0.059074726 -0.06380187 0.008048449
-0.025422506 0.047515903 0.020315386 0.012891361 -0.018380864 0.044690765 -0.015462991 -0.0021913568
-0.04014559 -0.027888637 -0.06462642 -0.014393562 0.00041403438 -0.035671856 -0.048510436 -0.063039586
0.0038012664 -0.050596166 -0.012287429 0.031114182 -0.06140703 0.0158812 0.010710271 -0.017975744
-0.057756692 -0.01799395 0.0547445 -0.075622015 -0.02469245 0.007499234 -0.0020921752 0.015876638
-0.020312682 -0.047432974 -0.074110724 -0.059274875 -0.04636846 0.019545965 0.045815427 -0.027235702
0.03524005 0.027360046 0.001968979 0.038109437 0.014119356 0.049659263 -0.02933057 0.011542852
-0.01826396 0.016581476 0.04213824 0.017751673 -0.05065592 -0.052479904 -0.0063860505 0.017469758
-0.025671367 0.03646621 -0.014617022 -0.025693813 0.024870334 -0.020472284 0.020985631 -0.038519274
0.009052694 0.028449878 0.035602957 0.053235557 0.039628495 -0.015715994 0.015179063 -0.020896925
0.003084003 0.0005002058 -0.023308124 -0.0019391215 0.029829726 -0.07246134 -0.03875764 0.035982504
0.009669806 -0.039805297 0.01684466 -0.026139356 -0.019603813 0.02243986 -0.035266247 -0.063714065
0.0011553271 0.03399599 -0.019796235 0.055467866 -0.015764546 -0.011889493 -0.0021475784 -0.0369472
0.019496039 -0.024314798 -0.0076728035 -0.07400042 -0.0750557 -0.04068291 -0.048981432 0.001173894
-0.0074752243 -0.05861524 0.0006758647 -0.05146526 0.044009402 0.03221239 -0.048301544 -0.03315365
-0.036490757 0.013666047 0.034885503 0.012139325 0.041502547 -0.0672634 -0.025002323 -0.037851196
0.0034818754 0.032641843 -0.027334074 -0.003654904 0.04913023 -0.0347587 0.017618557 -0.025196755
-0.027972532 -0.050025906 -0.054259263 -0.04687712 -0.044898476 0.021880645 -0.056457113 -0.023705002
-0.047970746 -0.03712102 -0.068453796 0.051336434 0.034568164 0.029398452 -0.0097668 -0.0066763884
-0.020308962 -0.060689796 0.040686954 -0.043049823 0.045356955 0.013463476 -0.02292254 0.038789377
-0.05864168 0.02630791 -0.046471052 -0.05167771 -0.018090006 0.034426548 0.035061 -0.037570883
-0.045668982 -0.0625852 0.038590916 -0.03275004 -0.06356195 -0.010089702 -0.016082495 -0.039072327
0.03791964 -0.07146714 -0.051682044 -0.037405267 -0.041061826 -0.05279648 -0.010776294 -0.017194778
-0.06638898 -0.03598218 0.0077818027 -0.013343727 -0.022276642 0.0364906 0.004320253 0.04358736
-0.013818881 -0.009271224 -0.017215928 -0.008628797 -0.0007972926 0.027658219 -0.058193445 -0.03572517
-0.04066601 -0.004370789 -0.069035515 -0.02582829 -0.023417523 -0.02562712 -0.058035094 -0.03043111
-0.014275859 0.04979792 0.027153153 0.0014259483 -0.05931501 0.0067590377 0.022599837 0.041602913
0.046504147 0.030109663 0.0021344763 0.03621932 0.0174219 -0.0678955 0.0043193134 -0.052697167
-0.039126378 -0.058818243 -0.29857433 -0.1540826 0.10851073 0.40568125 0.046620116 0.05249582
0.15410718 0.058516033 -0.09735344 -0.09876377 0.08345469 -0.3064632 0.17736496 0.084020056
00000000: 718d d13c ef4e 7b3c b27b 433b 3512 2538
00000010: bb9f a1bd 154a 9dbb c9cf 03bd 0a55 bb3b
00000020: 19f4 133d 2546 93bd d44e 77bb 96e4 9f3b
00000030: 9b3f b0bc ec2a dbbc 8e24 13bd 1df2 083d
00000040: 1762 9bbc 1f83 86bd 7f4d 7ebd c73e 86bd
00000050: 2ca5 18bb 57f8 71bd 8eaa 82bd a4dd 033c
00000060: dc42 d0bc 09a0 423d 746c a63c 4936 533c
00000070: 7793 96bc aa0d 373d 7c58 7dbc de9c 0fbb
00000080: b46f 24bd b676 e4bc db5a 84bd fad2 6bbc
00000090: c112 d939 a71c 12bd e1b2 46bd e61a 81bd
000000a0: ab1e 793b ed3d 4fbd 3651 49bc 2be3 fe3c
000000b0: f085 7bbd 4a19 823c 227a 2f3c de41 93bc
000000c0: 4892 6cbd 0c68 93bc c53b 603d b7df 9abd
000000d0: d247 cabc 22bc f53b e01c 09bb b90f 823c
000000e0: c866 a6bc 1449 42bd 5dc7 97bd 36ca 72bd
000000f0: dbec 3dbd dc1e a03c f5a8 3b3d 681d dfbc
00000100: df57 103d 2d22 e03c fc09 013b a418 1c3d
00000110: df54 673c 8367 4b3d aa46 f0bc 3b1e 3d3c
00000120: 4d9e 95bc e0d5 873c 2699 2c3d f56b 913c
00000130: 957c 4fbd 2bf5 56bd 1342 d1bb bd1c 8f3c
00000140: c24c d2bc 985d 153d 3c7c 6fbc d57b d2bc
00000150: dfbc cb3c 7eb5 a7bc 0fea ab3c 63c6 1dbd
00000160: c051 143c b80f e93c 68d4 113d 870d 5a3d
00000170: 7d51 223d d4be 80bc 9bb1 783c 0730 abbc
00000180: fc1c 4a3b 3e20 033a aef0 bebc 1f2a feba
00000190: 785d f43c 9c66 94bd 55c0 1ebd 6462 133d
000001a0: 1b6e 1e3c e10a 23bd d0fd 893c 3422 d6bc
000001b0: 2d98 a0bc ccd3 b73c 5773 10bd 857c 82bd
000001c0: 586e 973a 613f 0b3d b72b a2bc 4632 633d
000001d0: a624 81bc 26cc 42bc 63be 0cbb f255 17bd
000001e0: 28b6 9f3c d42f c7bc 246c fbbb 888d 97bd
000001f0: ceb6 99bd 1fa3 26bd c1a0 48bd 59dd 993a
00000200: baf2 f4bb 8916 70bd 832c 313a 3dcd 52bd
00000210: 3443 343d 24f1 033d d7d7 45bd 1fcc 07bd
00000220: 5577 15bd 8ee7 5f3c 1ae4 0e3d 05e4 463c
00000230: 93fe 293d 65c1 89bd acd1 ccbc db09 1bbd
00000240: 2d30 643b 74b3 053d b5eb dfbc 1d87 6fbb
00000250: c83c 493d 235f 0ebd cb54 903c 6d69 cebc
00000260: a726 e5bc f7e7 4cbd f63e 5ebd 3902 40bd
00000270: 77e7 37bd 0a3f b33c 933f 67bd fe30 c2bc
00000280: f97c 44bd 360c 18bd 8131 8cbd 2746 523d
00000290: 5997 0d3d 06d5 f03c ee04 20bc 9bc5 dabb
000002a0: fb5e a6bc dd95 78bd 5da7 263d 0355 30bd
000002b0: 37c8 393d e995 5c3c 0dc8 bbbc 9ce1 1e3d
000002c0: 4232 70bd b083 d73c 6e58 3ebd 02ac 53bd
000002d0: 7e31 94bc da02 0d3d 209c 0f3d ede3 19bd
000002e0: 660f 3bbd ab2c 80bd 8211 1e3d e824 06bd
000002f0: c52c 82bd 474f 25bc 70bf 83bc 4e0a 20bd
00000300: a051 1b3d 5d5d 92bd 8db0 53bd 4436 19bd
00000310: 7230 28bd 1f41 58bd 0e8f 30bc 10dc 8cbc
00000320: f2f6 87bd 0d62 13bd 7efe fe3b a69f 5abc
00000330: 817d b6bc 2b77 153d e990 8d3b a988 323d
00000340: 9668 62bc 55e6 17bc 6b08 8dbc cc5f 0dbc
00000350: 6701 51ba 7d93 e23c 405c 6ebd 8e54 12bd
00000360: 6791 26bd d638 8fbb 7e62 8dbd da95 d3bc
00000370: 1bd6 bfbc f7ef d1bc 35b6 6dbd aa4a f9bc
00000380: 4be5 69bc e7f8 4b3d 4a70 de3c e3e6 ba3a
00000390: 4cf4 72bd eb7a dd3b 4b23 b93c d167 2a3d
000003a0: 227b 3e3d 8aa8 f63c 92e2 0b3b b65a 143d
000003b0: 5fb8 8e3c cc0c 8bbd 0789 8d3b fcd8 57bd
000003c0: fb42 20bd 66eb 70bd bcde 98be d4c7 1dbe
000003d0: e03a de3d 74b5 cf3e bcf4 3e3d db05 573d
000003e0: 46ce 1d3e 82ae 6f3d 3e61 c7bd a944 cabd
000003f0: 4bea aa3d bfe8 9cbe 299f 353e b512 ac3d

bias f4 [242]
0.0075949053 -0.02145962 0.0060464614 -0.03464367 0.07791442 0.08137459 0.1186407 0.0011993959
-0.031373776 0.0264789 -0.0052269786 -0.08052616 0.13216175 0.09449709 -0.05114501 -0.07875781
-0.09276996 -0.060644127 0.040030412 -0.04515343 -0.031693377 0.020754261 0.015788767 -0.009291168
0.007432146 0.0055686487 -0.070446596 -0.083305724 -0.121316776 0.07239581 0.030869702 -0.056031935
0.099384815 0.0001549942 -0.015888583 -0.031173246 -0.0031284636 0.020018432 -0.0425846 0.0017092351
0.081083395 -0.000624143 0.017630521 0.023594357 0.053493284 -0.06676147 0.014107782 0.037721626
-0.077244535 -0.038943466 0.16490932 -0.035999052 -0.08224596 -0.06347156 0.036258455 0.0021807258
-0.12751456 -0.054548252 0.013447401 -0.0037545795 0.0035311186 -0.02189324 -0.17161143 -0.055086415
-0.034593765 -0.016287563 0.026529714 0.018203022 -0.07505824 0.10718249 0.025481664 -0.010175147
-0.09784036 0.026028506 -0.00020326047 -0.047003485 0.0009940928 -0.0026993798 -0.005283041 0.049902555
0.030948024 0.006389852 0.040929783 -0.0015930377 -0.0044259904 -0.017836235 -0.030758727 0.112765536
-0.018828996 -0.11123709 -0.011586783 -0.06704393 0.037178323 0.07674036 -0.033376187 0.014931568
0.05790929 -0.017517276 -0.02545219 -0.06993529 -0.016313627 0.14078555 -0.0033627881 -0.027408265
0.037754826 -0.021202505 -0.063342646 -0.022056388 -0.02438889 0.028823279 -0.01946453 0.039733388
0.032044347 0.054333337 0.0063994094 0.011924479 -0.07962887 -0.0407477 -0.068615966 -0.011022215
0.011828567 -0.020579869 0.12343844 -0.050959196 0.010623394 0.08663231 -0.03363818 -0.003596591
0.009247134 -0.003515113 0.040139653 -0.03793588 -0.04986979 -0.037821762 0.16265501 0.0343591
0.12083229 0.1366898 -0.007606699 -0.17342351 0.16699529 -0.0010733997 0.0960942 -0.045033827
-0.061633177 0.050410204 -0.05064173 0.09336204 0.007366721 -0.04518953 0.09678346 -0.017901106
-0.08257233 0.08884886 -0.080843486 -0.036312915 0.009037059 -0.016953971 0.012732027 0.11749547
0.029046763 0.02231638 -0.019720921 0.043141834 -0.087729335 -0.088290066 0.002661563 -0.012276302
-0.05579291 -0.07314018 -0.067856245 0.06105844 -0.14940898 -0.0063218605 -0.068358384 0.07805904
-0.058347408 -0.0060667465 0.0051320205 -0.0015836151 -0.009638949 -0.0824371 -0.042621836 -0.05160926
-0.032391638 0.016100084 -0.05174819 -0.038872447 -0.026156377 -0.061813783 0.053058363 -0.079396956
-0.029177178 -0.066649176 0.038535524 -0.024254082 0.0023457245 -0.03205001 0.014424695 -0.06692753
-0.07559095 0.014677742 0.07166596 -0.062438816 -0.039397486 0.100618504 0.1528134 -0.029900458
0.0648054 0.25882807 0.09356599 -0.05910422 -0.009180967 0.012084369 0.03340743 0.00546979
-0.026966572 0.032828093 -0.05906644 0.10643396 0.11775155 -0.048923817 0.11361847 -0.0012911651
-0.0017165514 -0.0015036723 0.10806938 -0.004832853 -0.032152865 -0.03952848 -0.026147945 0.054452587
-0.080153115 0.10088179 -0.056934614 -0.0018525489 0.024960965 -0.010718555 0.04505574 -0.013092877
-0.01847303 -0.0045806593
00000000: afde f83b 16cc afbc 6521 c63b 85e6 0dbd
00000010: 9891 9f3d b9a7 a63d e5f9 f23d 0c35 9d3a
00000020: ca81 00bd 47ea d83c 1347 abbb e6ea a4bd
00000030: 6955 073e b187 c13d 6e7d 51bd c64b a1bd
00000040: 2dfe bdbd fa65 78bd eef6 233d cef2 38bd
00000050: ead0 01bd d704 aa3c 7257 813c fc39 18bc
00000060: 5c89 f33b 3679 b63b 4e46 90bd 319c aabd
00000070: ee74 f8bd 4144 943d 75e2 fc3c be81 65bd
00000080: 448a cb3d f085 2239 c628 82bc 095f ffbc
00000090: e906 4dbb b2fd a33c 316d 2ebd 6a08 e03a
000000a0: 0d0f a63d 879d 23ba e26d 903c f448 c13c
000000b0: c61b 5b3d 3dba 88bd 5424 673c fe81 1a3d
000000c0: 6232 9ebd 2f83 1fbd fddd 283e be73 13bd
000000d0: 9270 a8bd 61fd 81bd bf83 143d 82ea 0e3b
000000e0: 2d93 02be fd6d 5fbd 7d52 5c3c 640f 76bb
000000f0: 576a 673b 7459 b3bc e8ba 2fbe 4ba2 61bd
00000100: 31b2 0dbd 7f6d 85bc d854 d93c 811e 953c
00000110: 22b8 99bd 7e82 db3d ecbe d03c a9b5 26bc
00000120: 8760 c8bd bc39 d53c 5122 55b9 ba86 40bd
00000130: 384c 823a 14e8 30bb 5c1d adbb 9f66 4c3d
00000140: b686 fd3c f761 d13b fda5 273d 7acd d0ba
00000150: e607 91bb 4c1d 92bc baf9 fbbc 9ef1 e63d
00000160: 443f 9abc 45d0 e3bd 7ed6 3dbc 544e 89bd
00000170: 4c48 183d 0d2a 9d3d 78b5 08bd 89a3 743c
00000180: 4b32 6d3d 6480 8fbc 1c81 d0bc 3c3a 8fbd
00000190: 28a4 85bc 162a 103e 3962 5cbb 4c87 e0bc
000001a0: cea4 1a3d e0b0 adbc cab9 81bd 99af b4bc
000001b0: 36cb c7bc cc1e ec3c 1474 9fbc 7abf 223d
000001c0: ef40 033d a28c 5e3d 23b2 d13b e45e 433c
000001d0: 7614 a3bd 0fe7 26bd 8786 8cbd 8596 34bc
000001e0: 9bcc 413c 1d97 a8bc 4bcd fc3d 97ba 50bd
000001f0: be0d 2e3c 486c b13d 30c8 09bd c9b4 6bbb
00000200: 4b81 173c cf5d 66bb 7a69 243d a762 1bbd
00000210: 4444 4cbd feea 1abd 098f 263e 21bc 0c3d
00000220: eb76 f73d 69f8 0b3e 9e41 f9bb ef95 31be
00000230: d000 2b3e 51b1 8cba 09cd c43d 6475 38bd
00000240: 1273 7cbd ee7a 4e3d b46d 4fbd 9934 bf3d
00000250: 8964 f13b a818 39bd 6836 c63d 57a5 92bc
00000260: af1b a9bd 64f6 b53d 4591 a5bd dabc 14bd
00000270: 2c10 143c 0ee3 8abc fe99 503c 77a1 f03d
00000280: 7af3 ed3c d7d0 b63c c58d a1bc 7eb5 303d
00000290: 70ab b3bd 6cd1 b4bd 9e6d 2e3b 8b22 49bc
000002a0: 1b87 64bd 85ca 95bd 37f8 8abd 6a18 7a3d
000002b0: abfe 18be 9c27 cfbb 7bff 8bbd 6bdd 9f3d
000002c0: b1fd 6ebd 8fcb c6bb 822a a83b 4e91 cfba
000002d0: afec 1dbc c8d4 a8bd 3c94 2ebd 3b64 53bd
000002e0: 18ad 04bd 53e4 833c e9f5 53bd b738 1fbd
000002f0: e645 d6bc 7330 7dbd ba53 593d df9a a2bd
00000300: fa04 efbc 5d7f 88bd 6dd7 1d3d 7fb0 c6bc
00000310: baba 193b df46 03bd 8e55 6c3c 4d11 89bd
00000320: 6ecf 9abd e97a 703c 9ac5 923d d8bf 7fbd
00000330: 425f 21bd 1311 ce3d 1e7b 1c3e cef1 f4bc
00000340: b2b8 843d 1d85 843e 879f bf3d 4417 72bd
00000350: c46b 16bc 84fd 453c 3bd6 083d ed3b b33b
00000360: 00e9 dcbc c076 063d a7ef 71bd 0cfa d93d
00000370: ba27 f13d 5764 48bd cdb0 e83d 503c a9ba
00000380: e8fd e0ba df16 c5ba 7b53 dd3d e95c 9ebb
00000390: b9b2 03bd 9ee8 21bd 3734 d6bc ad09 5f3d
000003a0: 5127 a4bd 1d9b ce3d 4534 69bd 3ad1 f2ba
000003b0: f07a cc3c e19c 2fbc 5e8c 383d 8283 56bc
000003c0: c054 97bc 5b19 96bb

weight f4 [120, 242]
0.031755645 0.062235832 -0.279201 -0.029922295 0.045902286 0.19753218 -0.15684932 0.03393011
-0.407607 0.2785765 0.042992737 -0.0026854384 0.026852291 -0.16139212 -0.02697646 0.085097566
-0.044755172 0.19735931 -0.11629237 0.022462029 -0.015529161 0.0094267735 0.00015743666 0.028719246
0.17038196 0.10554658 -0.016683549 0.27074915 -0.09156322 -0.027834851 -0.223898 0.0013961712
-0.30627385 -0.0037788746 0.065175645 0.048352152 0.036297843 0.0011049736 0.0066960524 0.044167437
0.02008561 -0.11316351 -0.027446903 -0.2560728 0.07794114 0.031619277 -0.059402324 0.26643035
-0.04484116 0.19429804 0.011139344 -0.07887507 -0.10283904 0.037536398 -0.07436649 0.040751483
-0.028192617 0.048440013 -0.027270278 0.043301787 0.020760966 -0.15253422 -0.029899113 -0.008157574
0.0136860255 -0.53455514 -0.020874916 0.062380575 0.00314819 -0.1051165 0.29643092 0.020070558
-0.0037243243 -0.015332668 -0.16633387 -0.038882434 0.03824208 -0.04091645 -0.2130468 -0.020135744
0.027060602 -0.0210109 -0.036392532 0.11464583 -0.048833705 -0.06605129 -0.08696334 -0.08916168
0.051707983 -0.020821666 0.19505396 -0.0059146285 0.07467092 -0.20200701 0.019021582 0.061290734
0.16410936 -0.026848163 0.049496967 0.14704034 0.08696699 -0.20351546 -0.03437805 -0.020246796
-0.010530344 -0.051294576 0.012973941 -0.099897124 0.30170733 -0.042462304 -0.04487562 -0.0032501647
0.055233326 -0.17179249 -0.14393024 0.047533542 -0.022594957 -0.018344603 0.0811603 0.030806657
-0.020718714 -0.013468372 -0.07625251 0.021222942 -0.04019518 -0.044571675 -0.017234249 0.12088744
-0.07971586 -0.07871886 0.09819188 0.011044837 0.027860023 0.014596436 0.012422007 0.100458704
-0.03292817 -0.037386857 0.01863154 -0.07010468 -0.052726023 -0.014369558 0.2682855 0.006416942
-0.06275528 0.14553973 -0.024823455 -0.05842606 -0.058719352 0.003853043 -0.09412551 -0.0068715652
0.018706454 0.12282802 0.092997484 0.013486163 -0.033655256 -0.41353914 -0.006653988 0.07924893
-0.07472402 -0.046261415 0.08012644 0.03752354 0.03665802 -0.032577246 -0.000605049 -0.021995088
-0.06437886 0.056956813 -0.0008730509 0.21363029 0.23226207 0.07696298 -0.037680198 -0.15794916
0.02196863 0.06592975 -0.034416404 -0.04771713 -0.03114097 -0.052104518 0.04900555 0.011140026
0.15279679 0.08323908 0.055752736 0.2411124 -0.01269437 0.06129822 -0.16517061 0.4203227
-0.057587516 0.013322745 0.11781654 0.01940901 -0.05824188 -0.026642622 -0.09397775 -0.06647231
-0.002978382 -0.1542752 0.12100828 -0.03699643 0.1682649 0.1607771 -0.29697493 0.0672628
0.38439685 -0.030134954 0.04463789 -0.047757383 0.026594795 0.010575084 0.03047668 -0.05581779
-0.039522 0.15629828 -0.03705478 -0.18307161 0.031675305 -0.33397242 0.18103021 -0.0011580581
0.029333185 0.045881305 -0.21164 -0.01653769 0.21702966 0.21926615 0.110800944 -0.051484227
-0.0061235167 0.13265572 -0.006104594 0.04270107 -0.033724435 0.1957713 0.02615471 -0.008070545
-0.06127641 0.13245602 0.037616964 0.16544463 0.21944478 -0.055656873 0.27312416 0.2745644
-0.33970067 -0.03939627 -0.07319614 -0.13101314 -0.017824119 0.03795798 -0.09955253 0.13292263
00000000: 3512 023d 00eb 7e3d 6ff3 8ebe 9a1f f5bc
00000010: 0904 3c3d e045 4a3e 1c9d 20be 4dfa 0a3d
00000020: ddb1 d0be 94a1 8e3e 2719 303d 2efe 2fbb
00000030: 56f9 db3c fa43 25be bdfd dcbc a247 ae3d
00000040: 3351 37bd 8f18 4a3e b22a eebd 4a02 b83c
00000050: 066e 7ebc c172 1a3c 9515 2539 a044 eb3c
00000060: 9c78 2e3e ce28 d83d f0ab 88bc a29f 8a3e
00000070: 7f85 bbbd ea05 e4bc 8445 65be bbff b63a
00000080: edcf 9cbe ffa6 77bb cf7a 853d e80c 463d
00000090: 0cad 143d c3d4 903a 8f6a db3b eae8 343d
000000a0: 948a a43c 45c2 e7bd 54d8 e0bc f91b 83be
000000b0: 9b9f 9f3d 3783 013d da4f 73bd 8f69 883e
000000c0: 5dab 37bd 11f6 463e cc81 363c 4189 a1bd
000000d0: 469d d2bd c4bf 193d 754d 98bd 07eb 263d
000000e0: 34f4 e6bc 0969 463d eb65 dfbc 375d 313d
000000f0: e712 aa3c ee31 1cbe fcee f4bc 58a7 05bc
00000100: 5a3b 603c 9bd8 08bf df01 abbc c682 7f3d
00000110: dd51 4e3b 5247 d7bd cbc5 973e 036b a43c
00000120: cb13 74bb df35 7bbc 6d53 2abe 3043 1fbd
00000130: baa3 1c3d 0298 27bd f128 5abe b7f3 a4bc
00000140: 32ae dd3c 0d1f acbc 5610 15bd 6fcb ea3d
00000150: da05 48bd e645 87bd d619 b2bd 669a b6bd
00000160: c0cb 533d 3392 aabc 3abc 473e 80cf c1bb
00000170: 11ed 983d edda 4ebe 26d3 9b3c fe0b 7b3d
00000180: 490c 283e aef0 dbbc 55bd 4a3d be91 163e
00000190: c01b b23d 5b66 50be 00d0 0cbd 9cdc a5bc
000001a0: 7787 2cbc 431a 52bd a790 543c dd96 ccbd
000001b0: 6279 9a3e f4ec 2dbd 80cf 37bd b700 55bb
000001c0: 573c 623d 5fea 2fbe 7362 13be 88b2 423d
000001d0: 0f19 b9bc 6c47 96bc 5f37 a63d 3e5e fc3c
000001e0: 4bba a9bc 72aa 5cbc 472a 9cbd bcdb ad3c
000001f0: b3a3 24bd ca90 36bd d72e 8dbc d693 f73d
00000200: 1242 a3bd 5b37 a1bd d318 c93d 67f5 343c
00000210: b43a e43c e425 6f3c ac85 4b3c 4bbd cd3d
00000220: b0df 06bd f622 19bd 2ca1 983c 0b93 8fbd
00000230: 3ef7 57bd 4b6e 6bbc b85c 893e 3645 d23b
00000240: d785 80bd 5e08 153e 8f5a cbbc 2a50 6fbd
00000250: b483 70bd 5683 7c3b e0c4 c0bd de2a e1bb
00000260: 473e 993c 428d fb3d 7775 be3d 11f5 5c3c
00000270: 18da 09bd 67bb d3be b209 dabb 434d a23d
00000280: e808 99bd 9c7c 3dbd 5519 a43d 49b2 193d
00000290: b826 163d b86f 05bd 279c 1eba 0b2f b4bc
000002a0: 10d9 83bd 8c4b 693d 74dd 64ba e6c1 5a3e
000002b0: 1cd6 6d3e c49e 9d3d 8d56 1abd 6dbd 21be
000002c0: 8ef7 b33c 2d06 873d 37f8 0cbd 0a73 43bd
000002d0: 591b ffbc 8c6b 55bd 0bba 483d a884 363c
000002e0: c376 1c3e 4079 aa3d fb5c 643d 2be6 763e
000002f0: 0cfc 4fbc d813 7b3d 7c22 29be 8934 d73e
00000300: e3e0 6bbd a547 5a3c cc49 f13d a5ff 9e3c
00000310: 0a8f 6ebd a141 dabc 6877 c0bd a222 88bd
00000320: f530 43bb 51fa 1dbe 30d3 f73d 9289 17bd
00000330: a24d 2c3e c1a2 243e 190d 98be 14c1 893d
00000340: aacf c43e 94dd f6bc 38d6 363d 3f9d 43bd
00000350: 54dd d93c 1e43 2d3c 3baa f93c 32a1 64bd
00000360: d2e1 21bd a80c 203e c1c6 17bd 2077 3bbe
00000370: f7bd 013d 6ffe aabe fc5f 393e fbc9 97ba
00000380: 264c f03c 09ee 3b3d 28b8 58be 0d7a 87bc
00000390: 063d 5e3e 4e87 603e 9beb e23d 20e1 52bd
000003a0: c8a7 c8bb e7d6 073e 0c09 c8bb 51e7 2e3d
000003b0: a222 0abd 4678 483e 6742 d63c 523a 04bc
000003c0: f9fc 7abd 8da2 073e 3f14 1a3d 516a 293e
000003d0: 22b6 603e 76f8 63bd eed6 8b3e b493 8c3e
000003e0: 3fed adbe fc5d 21bd dce7 95bd 4f28 06be
000003f0: e303 92bc d479 1b3d 32e2 cbbd df1c 083e

bias f4 [120]
0.058136232 0.03845972 -0.0075494098 -0.17728068 0.13455422 -0.07917447 0.02245443 0.20795417
-0.006836434 0.06971085 -0.08818595 0.13444404 0.18073072 0.044813618 0.040712755 -0.041134533
-0.05581759 0.06322663 -0.07410218 0.25813937 -0.09485211 0.107161336 0.082335815 -0.037537985
-0.050570946 0.080333665 -0.008482 0.26115665 -0.012262618 0.17311037 -0.20210473 0.08163093
0.21120884 0.13520028 0.020634746 -0.0696184 0.03868518 0.011671678 0.22733384 0.019622091
0.18390943 0.06403947 -0.10258409 0.05167143 -0.09866767 0.097478166 0.16778356 -0.04184364
-0.07017991 0.2787242 0.07485068 0.18868029 -0.11991446 -0.04787937 0.2585833 -0.030844303
0.021712227 -0.094748035 0.07050125 -0.025837272 -0.049680516 0.29580837 -0.054583434 0.03544122
-0.12990142 0.32185593 -0.008684792 0.15885554 0.1630314 0.001827698 0.102507316 -0.12038607
0.031451974 -0.09113179 -0.12521186 -0.114957005 -0.053835157 -0.024687422 0.0050646523 -0.08690223
0.014744246 -0.08124436 0.012609261 0.098283395 -0.025131704 -0.10145931 -0.10452352 0.32269114
-0.09479824 0.016541082 0.13987382 -0.014684816 -0.032732524 -0.09218558 0.0250385 0.10031837
-0.123881094 -0.11082595 0.13992812 0.03171312 0.0984943 0.044769753 0.17673989 0.040656235
-0.009130155 -0.17137915 -0.10090939 -0.004235804 0.14230388 0.03686487 0.11843514 0.058367148
-0.09448429 0.10109413 -0.083467595 -0.08043452 -0.01779102 0.3312192 0.010264346 -0.08402488
00000000: 4220 6e3d f087 1d3d 0a61 f7bb 1189 35be
00000010: 95c8 093e 3926 a2bd 5af2 b73c f0f1 543e
00000020: 2a04 e0bb 90c4 8e3d d69a b4bd b3ab 093e
00000030: 7911 393e 7c8e 373d 6bc2 263d af7c 28bd
00000040: fca0 64bd f77c 813d e2c2 97bd d82a 843e
00000050: d341 c2bd 6777 db3d ae9f a83d 6ec1 19bd
00000060: 7b23 4fbd fa85 a43d 16f8 0abc 53b6 853e
00000070: 26e9 48bc d843 313e 8bf4 4ebe 1e2e a73d
00000080: 2147 583e f171 0a3e 330a a93c 1794 8ebd
00000090: 5a74 1e3d 913a 3f3c 34ca 683e 82be a03c
000000a0: c152 3c3e 2027 833d 9b17 d2bd 6ca5 533d
000000b0: 4612 cabd a2a2 c73d 74cf 2b3e 3d64 2bbd
000000c0: 7cba 8fbd f0b4 8e3e 504b 993d 6835 413e
000000d0: b695 f5bd 291d 44bd 0865 843e 31ad fcbc
000000e0: d7dd b13c 420b c2bd f662 903d b0a8 d3bc
000000f0: cc7d 4bbd 3274 973e e192 5fbd d02a 113d
00000100: e104 05be 4dca a43e a84a 0ebc 07ab 223e
00000110: b4f1 263e 5e8f ef3a 5bef d13d f98c f6bd
00000120: c9d3 003d 4ea3 babd 8a37 00be 946e ebbd
00000130: 4182 5cbd 473d cabc 62f5 a53b ccf9 b1bd
00000140: da91 713c 7163 a6bd 1397 4e3c ce48 c93d
00000150: 01e1 cdbc e6c9 cfbd 6d10 d6bd c637 a53e
00000160: 9425 c2bd 2a81 873c 153b 0f3e 9598 70bc
00000170: 8a12 06bd cbcb bcbd 8a1d cd3c b873 cd3d
00000180: 5fb5 fdbd b7f8 e2bd 5149 0f3e 9ee5 013d
00000190: 61b7 c93d 7d60 373d 4dfb 343e 2787 263d
000001a0: a596 15bc 047e 2fbe 95a9 cebd 80cc 8abb
000001b0: 1cb8 113e 9eff 163d 1f8e f23d 6412 6f3d
000001c0: fb80 c1bd 700a cf3d 0ff1 aabd dbba a4bd
000001d0: 79be 91bc 9095 a93e ca2b 283c 3c15 acbd

weight f4 [84, 120]
-0.15690857 0.030946795 -0.09506724 0.011969474 -0.038399052 -0.028157428 -0.10732251 -0.018239446
0.08869266 0.014973809 -0.07290161 -0.032926183 -0.115134895 0.017021054 -0.12657142 -0.062375933
0.08295185 -0.08084584 -0.07993105 -0.012142559 0.047451284 0.0005882941 -0.035740804 -0.030252362
0.027157344 -0.13339102 -0.08856749 -0.1580752 0.022628438 0.01733935 0.08400272 0.031498805
-0.084531456 -0.097001866 -0.052476227 0.005492216 -0.032578103 0.04119167 -0.0953006 0.087038524
0.0546704 -0.010962318 -0.038787074 -0.046335105 0.058720607 0.0407581 -0.0229399 0.0031314678
-0.06642255 -0.13431686 -0.106144175 -0.060317416 0.010655587 -0.028998919 -0.06646229 -0.1577528
-0.1494032 0.06883015 -0.033188023 -0.07159041 -0.042762592 -0.018268332 -0.054018714 -0.15711689
0.024557699 -0.08747872 -0.09784295 -0.0390956 -0.064859875 -0.013392187 -0.14995818 0.016055875
-0.072412945 0.017303059 -0.016798023 -0.04496976 -0.031479005 0.048937455 0.036421247 0.017533697
-0.09893085 0.025212027 0.043670017 -0.1446889 -0.00790981 -0.040487733 0.023196798 -0.05154385
-0.06473214 -0.14363468 0.03505428 0.043727033 0.00051731046 0.02869267 -0.0077293115 -0.0018659149
-0.027713176 -0.03101574 0.048435733 0.04383833 -0.07645776 -0.030028762 0.07009504 -0.033668183
-0.039842516 -0.087585844 -0.08847286 -0.015970511 -0.040685773 0.05613792 -0.07001975 -0.08410604
-0.0013337067 -0.052299842 0.056512725 0.052495323 0.04526042 -0.022721428 -0.110081285 -0.08060724
-0.04936737 -0.02246136 0.023407973 -0.082376964 -0.06832107 -0.036819033 0.0017024894 -0.037066277
-0.022596724 -0.006190692 -0.070656896 -0.09712066 -0.105263166 -0.047632717 -0.05623975 0.0048940904
-0.0049284124 -0.0090835765 -0.024246948 -0.13211739 0.04436797 0.026318524 -0.08990441 -0.0061057745
0.03791089 -0.059593786 -0.12364972 -0.03046796 -0.09427588 0.0054152682 0.0065556713 -0.035839334
-0.07185608 -0.02460299 -0.018802969 -0.049156245 -0.13454227 -0.00095434923 -0.022293689 -0.08359814
0.026155356 -0.010382522 -0.057612073 -0.010209782 -0.03874671 -0.111064285 -0.06044803 0.07695285
-0.028735459 0.006988824 -0.110630505 -0.018926617 -0.06647395 -0.08094376 0.03304106 -0.0125330305
0.008901895 -0.09014782 -0.017364949 -0.037212543 -0.04748075 0.044883016 -0.0857402 -0.07081277
-0.11265774 0.0142968735 0.03529171 -0.04215945 -0.050410338 -0.043527048 -0.06275727 0.07170499
-0.063521944 0.012214166 -0.05058725 -0.058506664 -0.11447219 -0.05727371 0.00016331914 -0.08725069
0.049376223 -0.07994969 0.08009181 -0.16755053 -0.078190245 -0.051813062 0.067572735 -0.0039601605
-0.07831424 -0.11740061 -0.115126766 -0.006606209 -0.004210328 0.018135976 -0.003322912 0.050082307
0.03175762 0.0012349961 0.0038782593 0.002012802 0.019179665 -0.0071869227 0.012672578 0.05306269
-0.08943638 -0.024336802 0.07940548 0.0678712 0.055485066 -0.08256148 -0.060317274 -0.13093875
-0.06868608 -0.036062445 -0.078315765 -0.021161882 -0.07559932 -0.06217076 -0.0056283562 0.015402238
-0.13992162 0.19403064 -0.02147004 -0.2160121 0.07609588 0.17757404 0.27585763 -0.30843136
-0.07157685 -0.1339344 0.035617907 0.42670777 0.2630539 -0.14571118 -0.097954966 0.016482351
00000000: a4ac 20be 2284 fd3c 9db2 c2bd 9d1b 443c
00000010: 5348 1dbd 68aa e6bc e7cb dbbd e46a 95bc
00000020: 7fa4 b53d b554 753c 704d 95bd 9bdd 06bd
00000030: d8cb ebbd bd6f 8b3c f09b 01be e87d 7fbd
00000040: a9e2 a93d 8192 a5bd e4b2 a3bd 95f1 46bc
00000050: 475c 423d c037 1a3a f364 12bd cdd3 f7bc
00000060: 1479 de3c a897 08be df62 b5bd 77de 21be
00000070: 465f b93c 410b 8e3c 9e09 ac3d e404 013d
00000080: d41e adbd eaa8 c6bd 50f1 56bd 0cf8 b33b
00000090: 9e70 05bd 99b8 283d f62c c3bd 4141 b23d
000000a0: 12ee 5f3d 4b9b 33bc 32df 1ebd e1c9 3dbd
000000b0: 0585 703d f7f1 263d 75ec bbbc 5039 4d3b
000000c0: 8c08 88bd 5c8a 09be 1e62 d9bd 650f 77bd
000000d0: c594 2e3c 248f edbc 621d 88bd f389 21be
000000e0: 27fd 18be d2f6 8c3d 2af0 07bd fe9d 92bd
000000f0: d427 2fbd 78a7 95bc ba42 5dbd 40e3 20be
00000100: 3a2d c93c 0b28 b3bd e261 c8bd b522 20bd
00000110: 41d5 84bd e76a 5bbc a38e 19be 9c87 833c
00000120: 3d4d 94bd 25bf 8d3c 029c 89bc 3632 38bd
00000130: 21f0 00bd a472 483d 722e 153d d4a2 8f3c
00000140: 429c cabd 7489 ce3c 55df 323d 5429 14be
00000150: 2698 01bc 77d6 25bd 3607 be3c a51f 53bd
00000160: 4992 84bd f814 13be 1495 0f3d 1e1b 333d
00000170: 1e9c 073a e40c eb3c 2a46 fdbb b791 f4ba
00000180: be06 e3bc b914 febc 8c64 463d d28f 333d
00000190: e395 9cbd e1fe f5bc fd8d 8f3d a6e7 09bd
000001a0: e831 23bd 3560 b3bd 4231 b5bd 97d4 82bc
000001b0: 20a6 26bd e0f0 653d 8466 8fbd ca3f acbd
000001c0: c5cf aeba 5c38 56bd e379 673d 5605 573d
000001d0: fd62 393d 4a22 babc 4c72 e1bd 6915 a5bd
000001e0: 7035 4abd e300 b8bc 14c2 bf3c 41b5 a8bd
000001f0: ebeb 8bbd 8ecf 16bd 1126 df3a cfd2 17bd
00000200: c41c b9bc 4adb cabb 90b4 90bd 32e7 c6bd
00000210: 3794 d7bd 861a 43bd a75b 66bd 9b5e a03b
00000220: 857e a1bb 48d3 14bc 89a1 c6bc c849 07be
00000230: 30bb 353d f299 d73c ce1f b8bd f312 c8bb
00000240: 7348 1b3d 9d18 74bd 103c fdbd f197 f9bc
00000250: b613 c1bd 9072 b13b f5d0 d63b 44cc 12bd
00000260: 4829 93bd 368c c9bc af08 9abc 0f58 49bd
00000270: 73c5 09be 4b2d 7aba 41a1 b6bc 8035 abbd
00000280: c243 d63c 741b 2abc a3fa 6bbd ee46 27bc
00000290: dfb4 1ebd ac75 e3bd 5a98 77bd 7599 9d3d
000002a0: a066 ebbc 8102 e53b 3f92 e2bd fe0b 9bbc
000002b0: 7f23 88bd d8c5 a5bd 1056 073d 5757 4dbc
000002c0: 41d9 113c 6c9f b8bd f040 8ebc 2e6c 18bd
000002d0: 2d7b 42bd 41d7 373d 8f98 afbd 4906 91bd
000002e0: 1ab9 e6bd 6f3d 6a3c 0a8e 103d 63af 2cbd
000002f0: 127b 4ebd 6b49 32bd e286 80bd 11da 923d
00000300: cb17 82bd ed1d 483c 9434 4fbd afa4 6fbd
00000310: 6570 eabd d697 6abd a640 2b39 7db0 b2bd
00000320: b93e 4a3d aabc a3bd 2d07 a43d 5e92 2bbe
00000330: 3522 a0bd ef39 54bd 9363 8a3d 3cc4 81bb
00000340: 3763 a0bd bb6f f0bd 95c7 ebbd e678 d8bb
00000350: cbf6 89bb e691 943c 36c5 59bb 1b23 4d3d
00000360: 4714 023d 98df a13a 652a 7e3b 37e9 033b
00000370: ac1e 9d3c 4780 ebbb a5a0 4f3c 4358 593d
00000380: 6c2a b7bd f95d c7bc 579f a23d 0e00 8b3d
00000390: 4f44 633d fe15 a9bd 3f0f 77bd cf14 06be
000003a0: 4aab 8cbd 37b6 13bd 0464 a0bd af5b adbc
000003b0: d1d3 9abd c4a6 7ebd 136e b8bb ab59 7c3c
000003c0: 9d47 0fbe f8af 463e f0e1 afbc 4732 5dbe
000003d0: 28d8 9b3d f8d5 353e 363d 8d3e b7ea 9dbe
000003e0: e296 92bd 1926 09be 15e4 113d 7179 da3e
000003f0: 00af 863e 5035 15be 9d9c c8bd ff05 873c

bias f4 [84]
0.031517275 0.04135792 0.13475002 -0.13437635 0.16653839 0.3557781 0.21165103 0.13651133
-0.15970947 0.19870062 -0.08874315 -0.07553853 0.0074728252 -0.09479978 0.06294265 0.32019958
-0.04556835 0.2962506 0.022854125 0.21496503 -0.07300553 0.0073071085 -0.22586694 0.113303624
0.0019708315 -0.046659425 0.028607583 -0.023621028 -0.12079084 0.21891649 0.23289213 0.00286918
-0.023064567 -0.04863893 0.048072554 0.0035631408 -0.064953655 0.03120039 -0.11023901 -0.08457694
0.09687028 0.3001356 -0.04042086 0.17094558 0.15241416 0.1920147 -0.09927802 -0.14133479
-0.1158561 0.09969061 -0.014369633 0.3454521 0.17837358 0.2360297 0.3295538 0.043557145
-0.13760692 0.26414794 -0.07163052 0.19857275 0.18705024 0.3325856 0.069001906 0.0982189
0.0083498005 0.008958781 -0.059084985 0.042029694 0.037495527 0.26721582 0.063783444 -0.16237941
0.047410205 -0.08209552 0.039324433 -0.057448406 -0.12197238 -0.18440785 0.21761742 0.17273559
-0.13548775 0.033278327 0.16707136 0.06511896
00000000: 4218 013d ec66 293d e9fb 093e f499 09be
00000010: 0a89 2a3e 8c28 b63e 0cbb 583e a0c9 0b3e
00000020: e18a 23be 2d78 4b3e f8be b5bd f2b3 9abd
00000030: 9ade f43b 6326 c2bd 13e8 803d 33f1 a33e
00000040: e1a5 3abd 29ae 973e 9338 bb3c cb1f 5c3e
00000050: ec83 95bd 7870 ef3b aa49 67be bb0b e83d
00000060: 1129 013b f41d 3fbd 735a ea3c e380 c1bc
00000070: 3061 f7bd a52b 603e 467b 6e3e da08 3c3b
00000080: e7f1 bcbc 9d39 47bd bae7 443d 9583 693b
00000090: 6c06 85bd f697 ff3c fdc4 e1bd ad36 adbd
000000a0: ed63 c63d 60ab 993e 5890 25bd 5c0c 2f3e
000000b0: 7512 1c3e 809f 443e 4652 cbbd 11ba 10be
000000c0: f745 edbd 972a cc3d 9c6e 6bbc 19df b03e
000000d0: 90a7 363e c5b1 713e 47bb a83e fa68 323d
000000e0: d4e8 0cbe 663e 873e 06b3 92bd a856 4b3e
000000f0: 198a 3f3e a948 aa3e df50 8d3d fe26 c93d
00000100: 9acd 083c dac7 123c 1903 72bd 5427 2c3d
00000110: e994 193d 83d0 883e e5a0 823d ca46 26be
00000120: 3431 423d b221 a8bd a812 213d 054f 6bbd
00000130: a8cc f9bd 69d5 3cbe 1ad7 5e3e 99e1 303e
00000140: 4dbd 0abe db4e 083d c114 2b3e 175d 853d

weight f4 [42, 84]
-0.07503743 0.078442104 0.03597133 0.1098359 0.098983385 -0.119837336 -0.104349576 0.2306317
0.27836072 -0.11076179 0.16963671 -0.032178193 -0.14768699 -0.20410272 -0.19685921 -0.19145177
0.21488085 0.28857946 -0.11081187 0.15271102 0.08051715 -0.007468023 -0.14377709 0.018727863
0.12709494 0.050684676 0.034461405 -0.0688076 0.040063553 -0.033070374 0.078244805 0.12626381
0.18360263 -0.035188884 0.02311144 0.04070189 0.09564421 0.08918704 -0.102780774 0.09106672
0.014086911 0.23802648 -0.003990692 0.030929321 -0.33822772 -0.16981927 0.080632 -0.03772175
-0.05315666 0.010015685 -0.37014237 -0.0807111 -0.073275514 0.15759787 0.1146501 0.044831242
-0.017493809 -0.47338143 0.07251607 -0.0059400955 0.25483072 -0.10914191 -0.01614715 -0.06272782
0.1995407 -0.015694756 -0.18689266 -0.19903047 -0.24435724 -0.09023476 -0.20123641 -0.059019033
-0.15676709 0.08844144 -0.077543795 0.06550676 0.13626014 -0.15888193 0.29148257 -0.084723644
-0.05709374 -0.16198021 0.19851243 -0.026044648 0.085256584 0.01959014 -0.20833273 0.04542855
-0.26010188 0.015188621 0.08907621 -0.14099284 0.025135307 -0.23149139 -0.07974382 -0.014491196
-0.22995903 0.008621059 -0.07936232 0.11533583 -0.13966255 0.10213735 -0.10773453 0.23730901
0.108262934 0.10351963 0.06201942 -0.03006599 -0.063831516 -0.07097902 -0.090218656 0.079417564
-0.10914346 -0.04106481 -0.1849048 -0.14736739 -0.07944485 -0.0048613045 0.069691196 -0.049242377
-0.13762547 -0.06952599 -0.30627754 -0.001646817 0.038885742 -0.07634124 -0.06377614 -0.0331481
0.2971377 -0.31291652 -0.055511825 0.08386209 0.058924757 0.2680022 0.13054927 -0.010185713
-0.27610892 -0.100874245 0.08105356 0.067686714 0.03671777 -0.25168374 -0.06467546 -0.079433195
0.13171834 0.013342213 -0.19894981 -0.18560022 -0.0038441329 0.02903988 -0.0060485154 -0.10973823
-0.121560976 0.05779557 -0.13202897 -0.04888767 0.088642955 -0.074435405 -0.08476446 -0.09222559
-0.09894499 -0.21540663 -0.17225274 0.13623863 0.060237795 -0.03692438 -0.18644577 -0.017055659
0.045019373 -0.09082904 0.026682088 0.041168425 0.056794684 -0.017374327 -0.30062807 -0.15904218
0.071221635 -0.027426708 0.12566434 0.31594306 0.11242187 0.23771499 -0.02469969 -0.063606285
0.057404246 -0.37370887 -0.002921116 -0.49342707 0.044100754 -0.18814258 0.29320446 -0.09364933
0.2697364 0.014406453 -0.045828566 -0.17309947 0.23417169 0.13492881 -0.31557757 -0.2628935
0.019470297 -0.08531425 -0.04172774 0.021253338 0.099132 -0.042280715 0.06400067 -0.04395811
0.15776081 -0.07389592 -0.040749867 -0.02578757 -0.0016501183 -0.23760045 0.110145785 0.004204411
-0.002963868 -0.42904833 -0.10851425 0.045144636 0.076892264 0.2125157 0.051494215 -0.042371154
-0.014819417 0.14960478 0.036342863 -0.14993788 -0.23765734 0.09016071 0.27347687 -0.0018543494
0.024675716 -0.049681585 -0.040505383 0.026380401 0.09174076 -0.1377611 0.014235102 -0.07225493
-0.028573137 -0.039268173 -0.006957108 -0.2993769 -0.0152575355 0.32262662 -0.5168969 -0.072108805
-0.07083342 -0.2658388 0.09696673 -0.046538983 -0.097648196 0.059728105 -0.15864976 0.10499455
00000000: 39ad 99bd 41a6 a03d ac56 133d a5f1 e03d
00000010: cdb7 ca3d 476d f5bd 3bb5 d5bd b72a 6c3e
00000020: 4c85 8e3e 14d7 e2bd 3fb5 2d3e 48cd 03bd
00000030: 423b 17be 4e00 51be 7695 49be ef0b 44be
00000040: ba09 5c3e b0c0 933e 55f1 e2bd 4760 1c3e
00000050: 2de6 a43d 51b6 f4bb 4d3a 13be 2d6b 993c
00000060: 2d25 023e bc9a 4f3d 6727 0d3d 00eb 8cbd
00000070: ae19 243d cd74 07bd d03e a03d 4d4b 013e
00000080: 5402 3c3e 3822 10bd 3454 bd3c 06b7 263d
00000090: 1de1 c33d b2a7 b63d ba7e d2bd 3081 ba3d
000000a0: cacc 663c 37bd 733e 5ac4 82bb 7d5f fd3c
000000b0: 2f2c adbe 1ae5 2dbe 6422 a53d 1f82 1abd
000000c0: ccba 59bd d418 243c 4d83 bdbe dc4b a5bd
000000d0: 7911 96bd 5661 213e accd ea3d f7a0 373d
000000e0: 2d4f 8fbc 0d5f f2be 4e83 943d 22a5 c2bb
000000f0: 2c79 823e cb85 dfbd 0747 84bc 7177 80bd
00000100: 6654 4c3e 4a92 80bc ca60 3fbe a5ce 4bbe
00000110: c938 7abe 00cd b8bd eb10 4ebe f1bd 71bd
00000120: 8d87 20be c920 b53d 48cf 9ebd 6828 863d
00000130: c787 0b3e f2b1 22be 343d 953e 9783 adbd
00000140: 20db 69bd 24de 25be d846 4b3e 965b d5bc
00000150: 019b ae3d 807b a03c 2d55 55be 4a13 3a3d
00000160: 132c 85be b2d9 783c 976d b63d 6d60 10be
00000170: 8fe8 cd3c 140c 6dbe ba50 a3bd 7b6c 6dbc
00000180: 617a 6bbe 583f 0d3c b688 a2bd 3135 ec3d
00000190: b303 0fbe 632d d13d eca3 dcbd 2201 733e
000001a0: f5b8 dd3d 1a02 d43d 1308 7e3d f34c f6bc
000001b0: 19ba 82bd 735d 91bd 8fc4 b8bd ada5 a23d
000001c0: 9b86 dfbd 9333 28bd af57 3dbe 7ae7 16be
000001d0: fbb3 a2bd 944b 9fbb 42ba 8e3d 60b2 49bd
000001e0: b1ed 0cbe a463 8ebd 69d0 9cbe 02da d7ba
000001f0: a846 1f3d cc58 9cbd 119d 82bd 4dc6 07bd
00000200: 6f22 983e 9836 a0be 5e60 63bd e3bf ab3d
00000210: 165b 713d 9637 893e b5ae 053e fae1 26bc
00000220: 265e 8dbe 2897 cebd 69ff a53d 559f 8a3d
00000230: 5f65 163d b1dc 80be 9174 84bd dfad a2bd
00000240: 2ce1 063e 4c99 5a3c 80b9 4bbe fc0d 3ebe
00000250: d9ed 7bbb 0be5 ed3c a032 c6bb 70be e0bd
00000260: f6f4 f8bd 0cbb 6c3d 9a32 07be 703e 48bd
00000270: 708a b53d 9771 98bd fd98 adbd c5e0 bcbd
00000280: aca3 cabd 8e93 5cbe 0663 30be 2482 0b3e
00000290: e8bb 763d 053e 17bd a4eb 3ebe 4fb8 8bbc
000002a0: 3c66 383d 9304 babd 6594 da3c 39a0 283d
000002b0: 8ba1 683d 9b54 8ebc eceb 99be f4db 22be
000002c0: a6dc 913d faad e0bc 27ae 003e 4ac3 a13e
000002d0: 703d e63d 8f6b 733e 0157 cabc 0344 82bd
000002e0: b720 6b3d c556 bfbe 3270 3fbb 79a2 fcbe
000002f0: fea2 343d 73a8 40be e51e 963e 38cb bfbd
00000300: e41a 8a3e 0b09 6c3c bcb6 3bbd fd40 31be
00000310: b4ca 6f3e c72a 0a3e 6293 a1be fa99 86be
00000320: 2c80 9f3c 3db9 aebd b5ea 2abd 7b1b ae3c
00000330: b805 cb3d 8b2e 2dbd c912 833d 6b0d 34bd
00000340: 0d8c 213e be56 97bd 55e9 26bd 7440 d3bc
00000350: c848 d8ba 884d 73be 1d94 e13d 28c5 893b
00000360: 743d 42bb 39ac dbbe b83c debd 95e9 383d
00000370: b179 9d3d b79d 593e 99eb 523d 608d 2dbd
00000380: 24cd 72bc ff31 193e 41dc 143d 5189 19be
00000390: 725c 73be 2ea6 b83d 2905 8c3e a40d f3ba
000003a0: ba24 ca3c eb7e 4bbd f9e8 25bd b61b d83c
000003b0: 94e2 bb3d 3f11 0dbe 583a 693c 65fa 93bd
000003c0: 3612 eabc aad7 20bd 74f8 e3bb ee47 99be
000003d0: befa 79bc 512f a53e 5b53 04bf c8ad 93bd
000003e0: 1d11 91bd 061c 88be 7e96 c63d a99f 3ebd
000003f0: c7fb c7bd 75a5 743d 1575 22be 6207 d73d

bias f4 [42]
0.03157641 0.0034869984 -0.2215822 0.15063743 0.16316907 -0.040541753 -0.048230086 -0.04213845
-0.119854026 0.07937997 -0.16364512 -0.12699337 0.33225238 -0.08848771 0.17225853 -0.21166171
-0.0099841915 -0.10087224 0.29017693 -0.043727215 0.028584462 0.29810616 0.35773128 -0.2545195
0.38503996 -0.088408135 0.110974126 0.059862725 -0.11192263 0.12448326 0.005045328 0.09409549
-0.22219421 -0.007192616 -0.042114515 -0.11529485 -0.14940016 0.024449797 0.21239734 0.03470669
0.31653807 -0.050662503
00000000: 4456 013d 2086 643b 72e6 62be b340 1a3e
00000010: cb15 273e 1c0f 26bd e98c 45bd 5e99 2cbd
00000020: 0776 f5bd f791 a23d 9692 27be 8d0a 02be
00000030: fc1c aa3e 0b39 b5bd 8a64 303e d9bd 58be
00000040: bc94 23bc 1b96 cebd 1292 943e 4f1b 33bd
00000050: f629 ea3c 5fa1 983e 8e28 b73e 6150 82be
00000060: f523 c53e 530f b5bd 6746 e33d 9e32 753d
00000070: b137 e5bd 14f1 fe3d 4753 a53b 23b5 c03d
00000080: e186 63be 09b0 ebbb 4580 2cbd b51f ecbd
00000090: 5bfc 18be f14a c83c b07e 593e 9a28 0e3d
000000a0: 4711 a23e 7c83 4fbd

weight f4 [10, 42]
-0.085217535 -0.02694319 -0.0032322223 0.10784015 -0.15302023 -0.11557708 -0.0733287 -0.12182525
-0.23470405 -0.07695487 0.0058449046 0.076504864 -0.07424699 0.035767425 -0.03457921 0.14389135
-0.35889858 0.42507103 0.1853948 0.018022219 -0.18724418 0.09571805 -0.10040378 -0.03311145
-0.1322801 0.101814024 0.17890629 -0.043774527 0.11403676 0.336316 0.50906676 -0.049680565
-0.09466454 -0.3036512 0.19229063 -0.08278661 0.022074359 -0.21071397 0.019979771 0.3720634
-0.23895058 -0.03481044 -0.02750792 0.09651133 -0.120968804 -0.13476406 0.011709923 -0.029707152
-0.16796367 -0.22550783 0.31184393 -0.3360652 -0.17673196 -0.06581635 0.33008364 0.059601713
0.038704533 0.08262075 -0.21224762 -0.3947163 0.03429812 -0.085103855 0.26105452 0.08516751
0.02038016 -0.1984511 -0.024471305 -0.048809204 0.14741908 -0.018185424 -0.023273865 -0.058497302
-0.39027643 0.5238243 -0.06884149 0.052623417 -0.057537317 -0.3891842 -0.020542145 -0.100534596
0.107724704 -0.19092715 -0.2171968 0.07139039 0.29052076 0.20988949 -0.11676875 0.50249076
-0.16271871 0.067162536 -0.3591701 0.39140707 -0.39774126 -0.16086835 -0.36903673 0.042889595
0.14963855 0.11699632 -0.06773852 -0.28095517 0.23142938 -0.06617551 -0.12215797 -0.17985708
0.15111919 -0.087869495 -0.19111668 -0.22214122 -0.117150694 0.04385248 0.07655285 0.09795318
0.102418855 0.31976095 -0.25310317 -0.3040173 -0.24944909 0.21033907 -0.08025997 -0.1187811
-0.14261167 0.2297835 0.3121747 -0.19958785 0.06968507 0.003110662 -0.2043237 0.056552563
-0.3137538 -0.01767999 -0.056925207 0.003838802 0.29707807 -0.17643067 -0.22200331 -0.3898222
-0.06869816 -0.19662757 0.021903357 -0.04697823 -0.031762376 -0.12698564 -0.105225325 0.09437882
-0.4665043 -0.16836534 -0.20317836 0.13594556 -0.059740078 0.31879348 0.013370937 0.04722997
-0.018029042 -3.831015e-05 -0.12685291 0.38257918 0.18068269 0.18419433 -0.16635576 -0.3551225
-0.029015178 0.32523763 0.07167746 -0.13009548 0.0003617447 -0.032960683 0.17227156 -0.020515343
-0.0069833 -0.20836255 -0.14947814 0.17592093 -0.09109558 -0.13700873 0.29857928 -0.243169
0.2013378 -0.11801143 -0.03381967 0.05315241 -0.3788652 -0.062128656 0.00052773266 -0.13394299
0.06559448 -0.44869575 0.010517853 0.009626579 -0.7013411 -0.19072686 -0.16125539 -0.35341114
0.216751 -0.18512195 0.46537304 0.075986795 -0.04597974 -0.08117485 -0.27424854 -0.23094404
-0.07838268 0.20200641 0.13741545 -0.110748015 0.04607837 -0.11491363 0.39048317 -0.4015937
-0.04867405 -0.15818572 0.050560214 0.08703178 0.12257669 0.22286506 -0.14547142 -0.10832199
-0.04789022 0.08737121 0.06954887 -0.2982401 0.7336126 0.18728611 -0.12332506 0.021588245
-0.25427863 -0.2870196 0.20757405 -0.056058645 -0.1159921 0.089459114 0.16240357 -0.14299232
-0.21378534 0.13643637 -0.13030262 -0.054841865 -0.20410314 -0.07328422 0.09168688 0.044958707
0.021031976 0.21239038 0.1629245 0.099011846 -0.021038767 -0.03114927 0.03514163 -0.29350093
0.08989477 0.022708734 -0.25881717 -0.03177242 0.07292049 -0.29506016 -0.048562374 0.057009824
00000000: 8886 aebd f7b7 dcbc b1d3 53bb 4cdb dc3d
00000010: 56b1 1cbe adb3 ecbd 5c2d 96bd 847f f9bd
00000020: 4256 70be 849a 9dbd 9d86 bf3b 95ae 9c3d
00000030: ce0e 98bd dd80 123d eea2 0dbd 4158 133e
00000040: 8ec1 b7be e9a2 d93e 22d8 3d3e 55a3 933c
00000050: f0bc 3fbe d307 c43d 7fa0 cdbd df9f 07bd
00000060: 6f74 07be df83 d03d 3633 373e eb4c 33bd
00000070: 1b8c e93d 9c31 ac3e 3352 023f d97d 4bbd
00000080: 7bdf c1bd 2c78 9bbe d6e7 443e 078c a9bd
00000090: 49d5 b43c 67c5 57be 9eac a33c 187f be3e
000000a0: 76af 74be 6495 0ebd 4a58 e1bc bba7 c53d
000000b0: 7ebe f7bd 97ff 09be fada 3f3c 6a5c f3bc
000000c0: abfe 2bbe 86eb 66be 02aa 9f3e bd10 acbe
000000d0: 39f9 34be b9ca 86bd b900 a93e ed20 743d
000000e0: a588 1e3d 1135 a93d 7157 59be 4118 cabe
000000f0: 2f7c 0c3d ee4a aebd f0a8 853e 4e6c ae3d
00000100: 4bf4 a63c c436 4bbe 0c78 c8bc 29ec 47bd
00000110: 07f5 163e 99f9 94bc d5a8 bebc de9a 6fbd
00000120: 50d2 c7be 5919 063f c4fc 8cbd a78b 573d
00000130: 40ac 6bbd 2743 c7be 0048 a8bc 15e5 cdbd
00000140: c59e dc3d 6882 43be d768 5ebe 2035 923d
00000150: 23bf 943e 45ed 563e 7424 efbd 3ca3 003f
00000160: bc9f 26be 838c 893d 25e5 b7be 8266 c83e
00000170: bea4 cbbe acba 24be 62f2 bcbe 00ad 2f3d
00000180: d93a 193e c49b ef3d 7eba 8abd 5bd9 8fbe
00000190: d3fb 6c3e 0787 87bd f52d fabd 742c 38be
000001a0: fdbe 1a3e ecf4 b3bd 17b4 43be fd78 63be
000001b0: b4ec efbd a89e 333d bec7 9c3d ad9b c83d
000001c0: fac0 d13d b5b7 a33e bd96 81be 28a8 9bbe
000001d0: 956f 7fbe 2063 573e 575f a4bd 8143 f3bd
000001e0: cb08 12be 5e4c 6b3e 5dd5 9f3e c260 4cbe
000001f0: 0cb7 8e3d 40dc 4b3b 3b3a 51be a9a3 673d
00000200: 57a4 a0be a0d5 90bc 682a 69bd 6994 7b3b
00000210: 9e1a 983e 3eaa 34be d654 63be c796 c7be
00000220: 9fb1 8cbd bd58 49be ab6e b33c 3f6c 40bd
00000230: 4419 02bd 8608 02be 6080 d7bd af49 c13d
00000240: a7d9 eebe f767 2cbe fd0d 50be 5035 0b3e
00000250: 03b2 74bd e638 a33e c611 5b3c 3774 413d
00000260: a4b1 93bc 36af 20b8 bbe5 01be 6be1 c33e
00000270: e204 393e 709d 3c3e 2a59 2abe 9ed2 b5be
00000280: 3db1 edbc 8c85 a63e a2cb 923d c037 05be
00000290: 8da8 bd39 c801 07bd f567 303e cb0f a8bc
000002a0: 2bd4 e4bb fe5c 55be cc10 19be 9e24 343e
000002b0: 5290 babd 044c 0cbe 62df 983e 4b01 79be
000002c0: 7f2b 4e3e faaf f1bd 7f86 0abd 57b6 593d
000002d0: 9ffa c1be 9e7a 7ebd 8a57 0a3a 5a28 09be
000002e0: 6656 863d 73bb e5be 1353 2c3c ccb8 1d3c
000002f0: 178b 33bf e74d 43be 2220 25be 4ef2 b4be
00000300: f9f3 5d3e 9c90 3dbe 6045 ee3e f79e 9b3d
00000310: 4055 3cbd 003f a6bd 4e6a 8cbe 987c 6cbe
00000320: 1987 a0bd c5da 4e3e a3b6 0c3e dbcf e2bd
00000330: acbc 3c3d d657 ebbd 69ed c73e b09d cdbe
00000340: 715e 47bd 70fb 21be 3a18 4f3d b83d b23d
00000350: 7d09 fb3d bd36 643e 76f6 14be ebd7 ddbd
00000360: 8928 44bd adef b23d a36f 8e3d edb2 98be
00000370: 09ce 3b3f eec7 3f3e d991 fcbd d5d9 b03c
00000380: cf30 82be 3cf4 92be 4b8e 543e c09d 65bd
00000390: 448d edbd 5736 b73d 1f4d 263e 946c 12be
000003a0: 8bea 5abe fab5 0b3e 0d6e 05be dda1 60bd
000003b0: 6a00 51be 0a16 96bd 55c6 bb3d 9f26 383d
000003c0: 404b ac3c dd7c 593e aed5 263e b9c6 ca3d
000003d0: 7e59 acbc c12c ffbc abf0 0f3d c145 96be
000003e0: c01a b83d ab07 ba3c af83 84be cc23 02bd
000003f0: 5657 953d 2012 97be 57e9 46bd 2283 693d

bias f4 [10]
0.29040095 -0.010439806 -0.013829963 0.10756731 0.17024542 0.09152383 -0.2449354 0.23181617
-0.12686576 -0.26530412
00000000: 6faf 943e b80b 2bbc 1297 62bc 404c dc3d
00000010: d154 2e3e d970 bb3d 58d0 7abe 3861 6d3e
00000020: 19e9 01be f1d5 87be
