models/model.pth (torch, 249598 bytes, 16 tensors)

weight f4 [6, 1, 3, 3]
0	0xbeac7f34	-0.33690798
1	0xbdb69490	-0.08915055
2	0xbf38cd50	-0.7218828
3	0x3f118255	0.56839496
4	0x3e58fa40	0.21189213
5	0xbe8138da	-0.25238687
6	0x3e9d65d6	0.30741757
7	0x3eedbea4	0.4643451
8	0xbc21fe72	-0.009887325
9	0x3e36e7e1	0.17861892
10	0xbc2be51a	-0.010491634
11	0xbdccca40	-0.099995136
12	0x3ea1fc08	0.31637597
13	0x3d6ca7fe	0.057777397
14	0x3dd00beb	0.10158523
15	0x3eb4b550	0.3529458
16	0xbe5e0375	-0.21681006
17	0x3e6800b0	0.22656512
18	0xbf0dda70	-0.55411434
19	0x3e946f75	0.28991285
20	0x3e8e29d7	0.27766296
21	0x3ea5816c	0.32325304
22	0x3e02355b	0.12715666
23	0xbf009bf9	-0.50237995
24	0x3e831691	0.25603154
25	0x3e2acb6c	0.16679162
26	0xbdad5cc0	-0.08464956
27	0x3d16b206	0.03679087
28	0x3e06dbf4	0.13169843
29	0xbcb84a81	-0.022496464
30	0xbee3f541	-0.4452305
31	0xbc9cb0bf	-0.019127248
32	0x3f157564	0.5838225
33	0xbf302cb6	-0.68818223
34	0xbe74907a	-0.23883238
35	0x3f0a790b	0.54090947
36	0x3e761ad2	0.24033669
37	0x3efedb52	0.49776703
38	0x3f176b0b	0.5914771
39	0x3decbf70	0.11559951
40	0x3e0acfc9	0.13555826
41	0xbf04493b	-0.5167424
42	0xbd2135a6	-0.039357804
43	0xbf20f959	-0.62880474
44	0xbf43aa66	-0.7643188
45	0xbd3dfebd	-0.046385515
46	0xbed55dbb	-0.41673073
47	0xbed159a1	-0.40888694
48	0x3ef6e9d3	0.4822527
49	0xbcb0ede8	-0.021597818
50	0xbd7bb122	-0.061448224
51	0x3ecd9443	0.40152177
52	0x3f082d83	0.53194445
53	0xbf06cbb6	-0.5265459

bias f4 [6]
0	0xbe4333b3	-0.1906269
1	0xbeab0bf0	-0.33407545
2	0xbe99e9ef	-0.3006129
3	0x3e01e24a	0.12683979
4	0x3ea72fab	0.32653555
5	0xbc168497	-0.009186885

weight f4 [4, 6, 6, 6]
0	0xbed48d1f	-0.41513917
1	0xbee9195c	-0.4552716
2	0x3c3eb04e	0.011638714
3	0xbd76028c	-0.060061023
4	0xbe84f371	-0.2596698
5	0xbebb1d5f	-0.36545846
6	0xbe959469	-0.2921479
7	0xbf140d07	-0.5783238
8	0xbf249524	-0.6429007
9	0xbf0d1d99	-0.5512329
10	0xbeed753a	-0.463785
11	0xbf46a0cf	-0.77589124
12	0xbdece69c	-0.11567423
13	0xbc26a0ec	-0.010170203
14	0xbf24d9cd	-0.6439484
15	0xbec293a7	-0.38003275
16	0xbf20d5d9	-0.62826306
17	0xbf3caeb0	-0.7370405
18	0xbef4127e	-0.47670358
19	0xbee802a6	-0.4531452
20	0xbf53433b	-0.8252446
21	0x3c0e91cb	0.008701752
22	0x3c94226b	0.018082818
23	0xbd496d9e	-0.049176805
24	0xbf0f413f	-0.5595893
25	0xbed82530	-0.42215872
26	0xbf1c4d12	-0.610551
27	0xbe28d2cb	-0.16486661
28	0x3e08c541	0.13356496
29	0xbec02b54	-0.37533057
30	0xbd03a839	-0.03214285
31	0xbec69e6e	-0.38792747
32	0xbf0186b9	-0.50596195
33	0x3e6f92bc	0.23395818
34	0x3e70f707	0.23531733
35	0x3e104c7a	0.14091673
36	0x3e757efe	0.23974225
37	0x3e0e2797	0.1388229
38	0x3e38bf56	0.18041739
39	0x3e7d6a05	0.24747474
40	0x3ea98596	0.3310973
41	0x3e58b2a7	0.211619
42	0x3e6538b0	0.22384906
43	0x3e799727	0.24374066
44	0x3e130b9e	0.143599
45	0x3e42606a	0.18982092
46	0x3e30d061	0.1726699
47	0x3e3da0ee	0.18518421
48	0x3e991285	0.29896942
49	0x3ee2d1cd	0.4430069
50	0x3e558524	0.2085157
51	0x3e354bed	0.17704745
52	0x3de88738	0.11353916
53	0x3e2c9652	0.16854218
54	0x3e6f053c	0.2334184
55	0x3e829c52	0.25509888
56	0x3e0663b3	0.1312397
57	0x3e4ede5d	0.20202012
58	0x3e97751e	0.2958154
59	0x3e092401	0.1339264
60	0xbdede0ec	-0.11615166
61	0x3c88f73d	0.016719455
62	0x3dc643f8	0.09680933
63	0x3d78bf6d	0.060729433
64	0x3e62129f	0.22077416
65	0xbb38aabb	-0.0028177935
66	0x3be9ed2c	0.007138869
67	0xbd411128	-0.047135502
68	0x3d65dfa1	0.056121472
69	0x3e0c956d	0.13728876
70	0x3e62c715	0.22146256
71	0x3e78f7f6	0.2431334
72	0x3ef65cd9	0.48117712
73	0x3ea1219a	0.31470948
74	0xbe47b4eb	-0.19502608
75	0xbeeac95c	-0.4585675
76	0x3e9fe716	0.31230992
77	0xbecbcff3	-0.3980709
78	0x3ebc7a60	0.36812115
79	0xbe22f458	-0.15913522
80	0x3d9fa79e	0.07795642
81	0x3e795138	0.24347389
82	0xbe019251	-0.12653472
83	0x3f16c270	0.5889044
84	0x3ecd486b	0.40094313
85	0x3deefb5f	0.11669039
86	0xbf24bad8	-0.643476
87	0xbe388d64	-0.18022686
88	0xbe6ba2c6	-0.23011312
89	0x3d3715b2	0.044698425
90	0xbe73bb12	-0.2380183
91	0xbe8ccdff	-0.27500913
92	0xbe00a04c	-0.12561148
93	0xbe547e37	-0.20751272
94	0xbe02acb7	-0.12761198
95	0x3ed29e50	0.41136408
96	0x3bbce40c	0.00576449
97	0xbe8e1734	-0.27752078
98	0x3d8384b3	0.06421795
99	0x3e41d881	0.18930246
100	0x3da036d9	0.07822961
101	0x3e4d66b7	0.20058714
102	0xbe3d4348	-0.18482697
103	0xbeb6e014	-0.35717833
104	0x3e0ab9f5	0.135475
105	0xbc3b4ea4	-0.011432324
106	0xbe8a76d0	-0.27043772
107	0xbe17f7c5	-0.1484061
108	0x3cd2bb12	0.025723968
109	0x3d3dffb6	0.046386443
110	0x3c3a6c57	0.011378369
111	0x3cdec180	0.027191877
112	0xbe240650	-0.16018033
113	0xbe4ecc1c	-0.20195049
114	0xbe026000	-0.12731934
115	0xbd9f53f4	-0.07779685
116	0xbe3dc6fb	-0.18532936
117	0xbd8c883e	-0.06861924
118	0xbd4be3f6	-0.049777947
119	0xbe01704d	-0.12640496
120	0x3e8cf913	0.2753378
121	0xbdf97560	-0.12180591
122	0x3e42f5f1	0.19039132
123	0xbe5ae91d	-0.21377988
124	0x3d630a5d	0.055429805
125	0x3ef50682	0.47856528
126	0x3e2abf34	0.166745
127	0xbe2b8bbc	-0.16752523
128	0xbd4736d8	-0.048636287
129	0x3e648546	0.22316465
130	0xbd6c12c1	-0.057635073
131	0x3eb0e211	0.34547475
132	0x3e83e768	0.25762486
133	0x3c74ee28	0.014949359
134	0xbc9a4ad2	-0.018834505
135	0x3e609006	0.2192994
136	0xbd49719a	-0.049180605
137	0xbe865588	-0.2623713
138	0x3e4bac17	0.19889866
139	0xbd8aec66	-0.06783371
140	0x3d414f41	0.047194723
141	0xbe244530	-0.16042018
142	0xbcbdf7c9	-0.023189442
143	0xbd86a92b	-0.06575235
144	0x3dda02e5	0.10645083
145	0x3e2e42df	0.17017697
146	0xbf05f49c	-0.5232637
147	0xbed3a05e	-0.41333288
148	0xbe23962d	-0.15975256
149	0x3d9aedfc	0.07564923
150	0xbedd20c1	-0.43189052
151	0xbf0e8e10	-0.5568552
152	0xbe82ccd8	-0.25546908
153	0x3c998a3e	0.018742677
154	0x3e1f6218	0.15564764
155	0x3e7115d4	0.23543483
156	0xbe079205	-0.13239296
157	0xbc8a9b67	-0.016919805
158	0x3e1c2685	0.15249069
159	0x3e3132a7	0.17304479
160	0x3e5d5340	0.21613789
161	0xbe28ffd4	-0.1650384
162	0xbe340e27	-0.17583524
163	0xbd3e2883	-0.046425354
164	0x3d58428d	0.052797843
165	0xbdd75d87	-0.10515886
166	0xbea36873	-0.31915626
167	0xbe58276f	-0.21108793
168	0xbb6c906e	-0.003609683
169	0x3c686827	0.014184988
170	0xbe38e4e0	-0.18056059
171	0x3d09bf9f	0.03363001
172	0xbdb5c17a	-0.08874793
173	0x3e12dab4	0.14341241
174	0xbe86439e	-0.26223463
175	0xbdddfb15	-0.10838906
176	0xbeb31bbd	-0.349821
177	0x3ca705dc	0.020388536
178	0x3ea60335	0.32424322
179	0x3ed1e76e	0.4099688
180	0xbe906fc6	-0.28210276
181	0xbe7922e9	-0.24329723
182	0x3d88cc7b	0.066796266
183	0x3d5db8eb	0.05413143
184	0xbd7ecf70	-0.062209547
185	0x3cb2fb3d	0.021848315
186	0x3d1abfea	0.03778068
187	0x3d2116cc	0.03932838
188	0x3e060473	0.13087635
189	0xbe0759b4	-0.13217813
190	0x3c9f7256	0.0194637
191	0xbdb21737	-0.08695834
192	0xbea60720	-0.3242731
193	0x3eb80e80	0.35948563
194	0x3e4b75a9	0.19869103
195	0x3dcbaef6	0.099454805
196	0xbe605a32	-0.21909407
197	0xbd15581b	-0.036460977
198	0xbe1a73dd	-0.15083261
199	0xbd124e07	-0.035718944
200	0xbeb4243a	-0.3518389
201	0x3c281e30	0.0102611035
202	0x3d50b7d7	0.050956573
203	0x3e3cef48	0.18450654
204	0xbe73b6b3	-0.23800163
205	0x3b9e6f0b	0.0048350147
206	0xbec55a96	-0.38545674
207	0xbe259141	-0.16168691
208	0x3e4b6fb3	0.19866829
209	0xbd168805	-0.036750812
210	0x3d804d99	0.062648006
211	0x3cafa33b	0.021440139
212	0xbd5e8c31	-0.054332916
213	0x3e40c766	0.18826064
214	0x3e642dea	0.2228314
215	0x3e6a57aa	0.22885004
216	0xbe61f69d	-0.22066732
217	0xbf11da11	-0.5697337
218	0xbee07129	-0.43836334
219	0x3d5d4cc7	0.0540283
220	0xbf4fb978	-0.8114238
221	0x3cecd6ee	0.02891108
222	0xbf0c118e	-0.54714286
223	0xbe567500	-0.2094307
224	0xbf1c6daa	-0.61104834
225	0xbca5a8c7	-0.02022208
226	0xbf08b13b	-0.5339543
227	0xbdfad8a7	-0.122483544
228	0xbf34afbd	-0.70580655
229	0xbf43ef27	-0.7653679
230	0xbc9df2b9	-0.019280778
231	0x3ec65f27	0.3874447
232	0xbef70aef	-0.4825053
233	0xbeb43597	-0.35197136
234	0xbeb0a832	-0.34503323
235	0x3dcf672b	0.101270996
236	0xbe83dcae	-0.25754303
237	0x3dbccc1d	0.09218619
238	0xbd86fd5e	-0.06591295
239	0xbe45e0d7	-0.19324051
240	0x3e0dfa1a	0.13864937
241	0xbf3801ed	-0.7187794
242	0xbf848db3	-1.0355743
243	0xbf81692c	-1.0110221
244	0x3e2714cc	0.16316527
245	0x3d8a0d0a	0.06740768
246	0x3b1195ce	0.0022214535
247	0xbf772f03	-0.9655611
248	0xbf4c270d	-0.79747087
249	0xbf00467f	-0.5010757
250	0x3eb72897	0.35773155
251	0x3edd716d	0.432506
252	0x3d11999d	0.035546888
253	0x3da92dce	0.0826069
254	0xbd4f55a8	-0.050618798
255	0xbd458407	-0.048221614

bias f4 [4]
0	0x3e2b0eec	0.16704911
1	0x3dedbac6	0.1160789
2	0xbccd29f4	-0.025044419
3	0x3ea10eea	0.3145669

weight f4 [2, 4, 3, 3]
0	0x3c56972b	0.013097565
1	0x3e1aadef	0.15105413
2	0xbd7d75ea	-0.06188003
3	0xbd4d93ea	-0.05018989
4	0x3eb14b42	0.3462773
5	0x3e0d70c6	0.13812551
6	0xbea4b3ab	-0.32168326
7	0xbe5788be	-0.21048257
8	0xbe74f57a	-0.23921767
9	0x3da7323b	0.081638776
10	0xbd96f7c7	-0.073714785
11	0x3ea14c71	0.31503633
12	0x3c9dea2f	0.019276707
13	0xba438256	-0.0007458081
14	0xbdacf62e	-0.084453925
15	0xbead47c1	-0.33843806
16	0x3e0b2d49	0.13591494
17	0xbbb55dfe	-0.0055348864
18	0x3c31a608	0.010842808
19	0xbec041a3	-0.37550077
20	0xbedcc83f	-0.43121526
21	0x3ed9b752	0.42522675
22	0xbe919b3a	-0.2843874
23	0xbe612eef	-0.2199056
24	0x3f1d7557	0.6150717
25	0x3ed27f9b	0.4111298
26	0x3e762f32	0.24041441
27	0x3ecad0f6	0.3961255
28	0x3e1d3b44	0.1535464
29	0xbe948982	-0.2901116
30	0x3eceec0b	0.40414461
31	0x3e9d0343	0.3066655
32	0xbe18f767	-0.14938127
33	0x3e558074	0.20849782
34	0xbe8533a6	-0.26015967
35	0x3da7ccfc	0.081933945
36	0xbef5e554	-0.48026526
37	0xbaabfb64	-0.0013121185
38	0x3ed86193	0.42261943
39	0xbe37e597	-0.17958675
40	0x3e9c04d2	0.30472428
41	0x3e844a16	0.25837773
42	0x3c12cfbe	0.008960662
43	0xbe7b8721	-0.24563266
44	0xbd1dfd5e	-0.038571708
45	0x3dda897a	0.10670753
46	0x3f234806	0.63781774
47	0xbdbcc30a	-0.09216888
48	0xbdfbd076	-0.1229562
49	0xbe6e7bca	-0.2328941
50	0x3ed9d96f	0.425487
51	0xbee03f6b	-0.43798384
52	0x3eef4be1	0.4673758
53	0x3f2629ef	0.64907736
54	0x3db0ee0b	0.08639153
55	0x3ec7cfe4	0.39025795
56	0xbe8cd21f	-0.2750406
57	0xbe99d437	-0.3004472
58	0xbe13dbc3	-0.14439301
59	0xbeadebee	-0.33969063
60	0xbe9ca7c3	-0.30596742
61	0x3e92fc08	0.2870791
62	0xbee44fbb	-0.4459208
63	0x3cde166c	0.027110301
64	0xbe8edeb6	-0.2790429
65	0x3e8fdb15	0.28096834
66	0xbd871fd8	-0.065978706
67	0x3e3cb922	0.18429998
68	0x3f0acc97	0.5421843
69	0x3e1e612a	0.15466753
70	0x3e92d888	0.28680825
71	0x3d1f5423	0.0388986

bias f4 [2]
0	0xbf7e99bb	-0.99453324
1	0xbe8f80af	-0.28027865

weight f4 [140, 200]
0	0x3c5bb422	0.013409646
1	0xbdca6b41	-0.09883738
2	0xbda4f687	-0.08054834
3	0xbd25be80	-0.040464878
4	0xbd3f31a5	-0.046678204
5	0xbd8503cb	-0.06494864
6	0xbdbd2288	-0.09235102
7	0x3990e638	0.00027637347
8	0xbd88e044	-0.066834
9	0x3c8e442d	0.017366493
10	0x3cc7e304	0.024400242
11	0xbcd42db3	-0.025900697
12	0xbc41ab27	-0.011820591
13	0xbc0bef2c	-0.00854091
14	0xbc08a693	-0.008340496
15	0xbdbd2fb9	-0.09237618
16	0xbd86f04e	-0.06588803
17	0xbd0a2f02	-0.033736236
18	0xbc66fa0e	-0.014097704
19	0xbdd62567	-0.10456353
20	0x3c335017	0.010944388
21	0xbda19b73	-0.07890978
22	0xbd29fd76	-0.041501485
23	0xbbe21e71	-0.0069006016
24	0x3cecdc36	0.028913599
25	0xbc8042e4	-0.015656896
26	0xbcc2adbc	-0.023764484
27	0xbd375645	-0.044760007
28	0xbab33aa3	-0.0013674091
29	0xbbf51228	-0.007478971
30	0xbcbdcd00	-0.02316904
31	0x3c550838	0.013002448
32	0x3c3ce9ac	0.011530321
33	0xbd982b08	-0.074300826
34	0xbc980caf	-0.018560736
35	0xbd24916f	-0.04017776
36	0xbd2270ca	-0.039658345
37	0xbd54698a	-0.051858462
38	0xbbfd6f1d	-0.007734193
39	0x3c8f0e50	0.01746288
40	0x3b0a6ea7	0.0021123083
41	0xbbaa1d94	-0.0051915143
42	0xbdc7a851	-0.09748901
43	0x3c84f824	0.016231604
44	0xbd14c5a0	-0.036321282
45	0xbdc398e8	-0.09550649
46	0x3cb6d558	0.022318527
47	0xbd8ef33d	-0.06979988
48	0xbdb3be61	-0.08776546
49	0xbc96b17c	-0.018395178
50	0xbdb7aefa	-0.08968921
51	0x3c157b8f	0.009123697
52	0x3bb80330	0.0056156144
53	0xbc8ec0c2	-0.017425898
54	0x3cee1899	0.029064463
55	0x3c2b7a8e	0.010466231
56	0xbc9ca259	-0.019120382
57	0xbda4a16b	-0.080386005
58	0xbdb52c6f	-0.08846366
59	0x3befa6cc	0.007313585
60	0xbd815bca	-0.063163355
61	0xbdc5ea92	-0.09663881
62	0xbdb68f41	-0.08914042
63	0xbd25d6db	-0.040488105
64	0xbd6e7356	-0.05821546
65	0xbbefbc38	-0.0073161386
66	0x3c002784	0.007821921
67	0xbd3d46fc	-0.046210274
68	0x3ceac2b2	0.028657291
69	0x3cc488c0	0.023990989
70	0xbc9181fe	-0.01776218
71	0xbde0dd3f	-0.10979699
72	0x3cd1bdb7	0.025603158
73	0x3c11e8ea	0.008905629
74	0x3c01daba	0.007925684
75	0xbd17f326	-0.03709712
76	0xbd37cab4	-0.044871047
77	0xbd857061	-0.06515575
78	0xbd6aa0d3	-0.05728228
79	0x3c1a9448	0.009434767
80	0xbcfc7437	-0.030817134
81	0xbda0d263	-0.07852628
82	0xbdc81f6a	-0.09771617
83	0xbda280cd	-0.07934723
84	0x3d6d4e3b	0.057935935
85	0xbd69dd01	-0.05709553
86	0x3ce00ad7	0.027348919
87	0xbd6dc90f	-0.058053073
88	0xbd574978	-0.0525603
89	0xbd0b1fb2	-0.033965774
90	0xbc3798c9	-0.01120586
91	0x3c87fedc	0.016601019
92	0xbc3c7299	-0.011501932
93	0xbd50232f	-0.050814804
94	0xbcc6d11d	-0.024269635
95	0xbd1dafbf	-0.038497683
96	0xbd555236	-0.052080356
97	0x3c9e506a	0.019325454
98	0xbc86efd1	-0.016471775
99	0xbd2f62a8	-0.042818695
100	0xbd60156d	-0.054707933
101	0xbcfa810d	-0.030579114
102	0xbc60d803	-0.013723376
103	0xbc6a5e8d	-0.014304769
104	0xbdc3eec4	-0.09567025
105	0xbd8e5e19	-0.069515415
106	0xbcd6e531	-0.026232334
107	0xba15599f	-0.00056972535
108	0x3d5dda36	0.05416318
109	0xbd42098b	-0.047372382
110	0xbdb8e31d	-0.090276934
111	0xbdbf7256	-0.0934798
112	0xbda92f49	-0.08260972
113	0x3cca66a6	0.02470715
114	0xbd5c1252	-0.05372841
115	0x3d209984	0.039208904
116	0xbd9263fc	-0.07147977
117	0x3d119969	0.035546694
118	0xbda779ca	-0.08177526
119	0x3c3ce6aa	0.011529604
120	0xbdb6eeae	-0.08932243
121	0x3d0aa6a5	0.03385033
122	0xbd1b85e5	-0.03796949
123	0xbb361c50	-0.0027787872
124	0xbd1ec36a	-0.03876058
125	0xbca67d90	-0.020323545
126	0xba87f670	-0.0010373127
127	0xbd51007f	-0.051025864
128	0xbcbde381	-0.023179771
129	0x3c54a61c	0.012979057
130	0xbcafc1d1	-0.021454724
131	0xbd939a81	-0.07207204
132	0x3c230dbb	0.009952004
133	0x3cdc6d1e	0.0269075
134	0xbdb7036d	-0.089362
135	0xbcad9aeb	-0.021192035
136	0x3d010943	0.031502973
137	0xbdcb4b39	-0.09926457
138	0xbd1827ac	-0.03714721
139	0xbcfb79c8	-0.030697718
140	0xbb981fba	-0.004642454
141	0xbdaa418a	-0.08313282
142	0xbcfa1fb5	-0.030532697
143	0xbd00524d	-0.03132849
144	0x3a73829d	0.0009289177
145	0x3d0cc01d	0.0343629
146	0xbcbba1db	-0.022904327
147	0x3d152613	0.036413264
148	0xbcb19b42	-0.021680478
149	0xbd403756	-0.046927772
150	0xbd7c5635	-0.06160565
151	0x3c465353	0.012104827
152	0xbdb6dd53	-0.08928933
153	0x3cd19f5b	0.025588682
154	0xbd259d68	-0.040433317
155	0xbd9acb63	-0.07558324
156	0xbd2a747d	-0.041614998
157	0xbd2dee75	-0.04246374
158	0xbca27cdf	-0.019834934
159	0xbd9fffc4	-0.07812455
160	0xbd2a476a	-0.041572012
161	0xbd87c2a7	-0.06628924
162	0xbc9df783	-0.019283062
163	0xbd5479ee	-0.051874094
164	0x3c8c5c9a	0.017134
165	0xbda5b225	-0.08090619
166	0xbdb7f342	-0.089819446
167	0x3b88bdd5	0.0041730204
168	0xbd3af0dc	-0.045639858
169	0xbd66bb61	-0.056331042
170	0x37768266	1.4693103e-05
171	0xbd048a70	-0.032358587
172	0xbd61278d	-0.05496936
173	0x3cbb0dc8	0.02283372
174	0xbd851409	-0.06497962
175	0xbd5f77c8	-0.05455759
176	0x3c9d8e04	0.019232757
177	0xbd3a9e5e	-0.045561187
178	0xbdb3e2f5	-0.08783523
179	0xbd5ea7c7	-0.054359224
180	0x3c7bfc42	0.015379967
181	0xbb0426dc	-0.0020164764
182	0x3c7beea7	0.015376723
183	0xbda26f97	-0.0793144
184	0xbdbc2e49	-0.09188516
185	0xbdb5e69d	-0.088818766
186	0xbd84b64c	-0.06480083
187	0xbdce6558	-0.100779235
188	0xbc85e63e	-0.01634514
189	0xbc9c062f	-0.019045917
190	0x3ac3d43d	0.0014940571
191	0xbcac0b49	-0.021001475
192	0xbcc3f930	-0.023922533
193	0x3bb346c5	0.005471083
194	0xbcb34fab	-0.021888575
195	0x3d10f97f	0.035394188
196	0x3c30fd05	0.010802512
197	0xbda1857d	-0.07886789
198	0x3b1363fa	0.002249001
199	0x3bee08d0	0.007264234
200	0xbc686eea	-0.0141866
201	0xbd1a2d22	-0.0376407
202	0x3d0dd9b7	0.034631457
203	0x3cbb9f09	0.022902982
204	0xbb8e0c3a	-0.0043349536
205	0x3c19e2c2	0.009392442
206	0xbd85cf48	-0.065336764
207	0x3d0602d7	0.032717552
208	0x3bf36ce7	0.0074287537
209	0xbd23b6ee	-0.039969377
210	0xbd828b5b	-0.06374236
211	0xbd58a21f	-0.052888986
212	0x3d534e18	0.051588148
213	0xbd9004e5	-0.070321836
214	0xbd244249	-0.040102277
215	0x3c495c19	0.012290024
216	0x3d130684	0.035894886
217	0xba8acfd0	-0.0010590497
218	0x3cd5c921	0.026096882
219	0xbd0a61ce	-0.03378468
220	0xbc4dd9c6	-0.012564128
221	0xbc8590e7	-0.016304446
222	0xbd352761	-0.044227008
223	0xbd5e7774	-0.054313138
224	0xbc0ada63	-0.008474919
225	0xbce72a4f	-0.028218416
226	0x38dae6a2	0.00010438009
227	0x3d06d4e3	0.03291787
228	0x3cc7e315	0.024400273
229	0xbcfdacf7	-0.030966265
230	0x3be93cd3	0.0071178465
231	0x3cf14d4a	0.0294558
232	0xbce344c1	-0.027742745
233	0x3cc9d84c	0.024639271
234	0xbd65be2a	-0.056089558
235	0xbbb4abd4	-0.0055136476
236	0xbc899df5	-0.016798953
237	0xbbf661fe	-0.007519006
238	0xbd3c5c16	-0.045986257
239	0xbca43e32	-0.020049188
240	0x3bc36e37	0.0059640664
241	0x3bdf8a93	0.0068219393
242	0xbb9e3054	-0.0048275385
243	0x3c40baac	0.011763256
244	0x3caca12f	0.021072952
245	0xbd8ada9d	-0.067799784
246	0xbcac3175	-0.021019677
247	0xbd9a8852	-0.07545532
248	0x3d4fa468	0.0506939
249	0x3c115e91	0.008872644
250	0x3cfd727f	0.030938385
251	0xbda453f3	-0.080238245
252	0xbc2878f8	-0.010282747
253	0xbd95328a	-0.0728503
254	0x3c22fa1c	0.009947326
255	0xbd9525e8	-0.07282621

bias f4 [140]
0	0x3b958fbb	0.004564253
1	0xbb1a000f	-0.002349857
2	0xb9c6e49b	-0.00037935827
3	0x3e14be5e	0.14525744
4	0x3c0fc52c	0.008775037
5	0xbd4c0f5d	-0.04981934
6	0x3d0ba967	0.0340971
7	0xbd60ae17	-0.054853525
8	0xbd9efb6f	-0.07762801
9	0x3de200b5	0.11035291
10	0xbda6fe38	-0.08153957
11	0x3c549378	0.012974612
12	0xbd2d4674	-0.042303517
13	0x3ca1be54	0.019744076
14	0x3c8006c5	0.015628228
15	0xbc85a2d3	-0.016312992
16	0x3c30b81f	0.010786085
17	0xbd40c9f7	-0.04706761
18	0xbba264f6	-0.004955883
19	0xbc38938c	-0.011265647
20	0x3ef6657e	0.48124307
21	0x3cec2a17	0.028828664
22	0xbdbb1ae1	-0.09135986
23	0x3e25d022	0.16192678
24	0xbcfedce9	-0.031111198
25	0x3e735153	0.23761491
26	0xbb301bb1	-0.0026871974
27	0xbd99b2e2	-0.07504822
28	0x3c629273	0.0138288615
29	0x3d6ff9d7	0.058587875
30	0xbd8646d7	-0.065564804
31	0xbd3982c8	-0.04529074
32	0x3e6fe771	0.23428132
33	0xbb81d3b5	-0.003962005
34	0x3d4142ce	0.04718285
35	0x3cebb9d1	0.028775128
36	0x3de8ead8	0.11372918
37	0x3ccd8690	0.025088578
38	0xbd2e7874	-0.04259534
39	0xbd9b32dd	-0.07578061
40	0x3b4b66df	0.0031036658
41	0xbdc286c9	-0.094983645
42	0x3e34f7bb	0.17672627
43	0xbde8c41a	-0.113655284
44	0xbd18a4ac	-0.03726642
45	0xbb0bcdf8	-0.0021332484
46	0x3cf999f4	0.030468918
47	0xbe0df441	-0.13862707
48	0xbd98fb74	-0.07469836
49	0x3b9f2569	0.0048567546
50	0x3ddb1828	0.10697967
51	0x3c703bf0	0.014662728
52	0xbd42925e	-0.047502868
53	0x3e116245	0.14197643
54	0x3d1e09d0	0.038583577
55	0xbe847c8e	-0.25876278
56	0xbdd6959a	-0.10477753
57	0xbd4cd034	-0.050003245
58	0xbcb240c2	-0.021759395
59	0x3dd47382	0.10373594
60	0x3eade169	0.33961037
61	0xbd8176dd	-0.063214995
62	0xbd68831b	-0.056765657
63	0xbb7ceddb	-0.0038593921
64	0xbd6223c0	-0.055209875
65	0xbd9e3f2d	-0.077268936
66	0xbd38c4a6	-0.045109414
67	0xbd8a43a5	-0.067511834
68	0xbc91b335	-0.017785648
69	0xbdef2777	-0.11677449
70	0xbb358b33	-0.0027701377
71	0xbb6d0200	-0.0036164522
72	0xbcfca779	-0.030841576
73	0xbe013da8	-0.12621176
74	0xbe847ef8	-0.2587812
75	0xbd824978	-0.06361669
76	0xbcf9d780	-0.030498266
77	0x3daeedf2	0.08541478
78	0xbd403963	-0.04692973
79	0xbdae0113	-0.08496299
80	0x3e4b3f94	0.19848472
81	0x3ccf00a7	0.025268866
82	0x3d8e9a6a	0.06963046
83	0xbd41d223	-0.047319543
84	0x3e43e845	0.19131573
85	0xbe23c44d	-0.15992852
86	0x3d14e382	0.03634978
87	0xbe066279	-0.13123502
88	0x3cd94a79	0.02652477
89	0x3e9b0bc8	0.30282426
90	0x3c9ffa22	0.019528452
91	0xbd7d6ef6	-0.0618734
92	0xbd95334a	-0.07285173
93	0xbd0c8ec0	-0.034315825
94	0xbcdcd493	-0.026956832
95	0xbe18bb8d	-0.14915295
96	0xbe2ae841	-0.1669016
97	0xbd70f071	-0.058823053
98	0xbd54e15a	-0.051972724
99	0xbd433aec	-0.047663614
100	0xbcaca9d8	-0.021077082
101	0x3e616855	0.22012456
102	0xbdb25ade	-0.08708738
103	0xbdd79311	-0.105260976
104	0xbd1e34bc	-0.03862451
105	0xbd685e05	-0.05673029
106	0xbaa6baa3	-0.0012720417
107	0xbd2f4e3e	-0.042799227
108	0x3d733a2b	0.059381645
109	0x3ccbfc7b	0.024900666
110	0xbd810da8	-0.06301433
111	0xbd2d49ee	-0.042306833
112	0xbda17ae5	-0.078847684
113	0x3b8e5d68	0.004344631
114	0xbc2e9cb4	-0.010657478
115	0xbda3ca3a	-0.07997556
116	0xbd14b208	-0.036302596
117	0xbd16ca87	-0.03681424
118	0xbcadff44	-0.021239884
119	0xbd5728c2	-0.052529104
120	0x3ee1e3b9	0.4411905
121	0xbd136112	-0.035981245
122	0xbd2b8dbe	-0.041883223
123	0x3e2c5aa6	0.16831455
124	0x3c1fb67b	0.009748097
125	0x3c9df08d	0.019279743
126	0xbcde0dde	-0.027106222
127	0xbd991729	-0.074751206
128	0xbd361f37	-0.044463363
129	0xbc9b0fd7	-0.018928451
130	0xbd7ad531	-0.06123847
131	0xbced2910	-0.028950244
132	0xbd88bacd	-0.066762544
133	0xbd66747d	-0.056263436
134	0xbe14994a	-0.145116
135	0x3d6e6230	0.058199108
136	0xbd06a03e	-0.032867663
137	0x3e84a6f9	0.2590864
138	0x3e919436	0.28433388
139	0x3e5beae9	0.2147633

weight f4 [120, 140]
0	0xbcb2933d	-0.021798724
1	0x3d88194f	0.06645452
2	0xbd30aebb	-0.043135386
3	0xbd60e6eb	-0.05490772
4	0x3d40a5ba	0.04703305
5	0xbda5cf8f	-0.08096229
6	0x3d419bff	0.04726791
7	0x3d59f316	0.05321034
8	0x3d014b84	0.031566158
9	0xbd87278b	-0.06599339
10	0x3cd43585	0.025904426
11	0x3d8f259e	0.06989597
12	0xbc516754	-0.012780983
13	0xbc158431	-0.009125755
14	0xbd266779	-0.040626023
15	0xbd17ad0f	-0.037030276
16	0x3c39ec20	0.0113478005
17	0x3d23c4c0	0.039982557
18	0xbb79be91	-0.0038107971
19	0xbc6339cf	-0.013868763
20	0xbdc3678e	-0.09541236
21	0xbd044feb	-0.03230278
22	0xbd6e43ec	-0.058170244
23	0xbdec4e3f	-0.11538362
24	0x3d8b374b	0.06797656
25	0x3c4474ee	0.011990769
26	0xba2f5be3	-0.00066894124
27	0xbc4d58f9	-0.01253342
28	0x3d7802f2	0.060549684
29	0xbce7bd3f	-0.028288482
30	0xbd8958d0	-0.06706393
31	0xbd666b67	-0.05625477
32	0x3c4c312b	0.012462894
33	0x3d6afb27	0.057368424
34	0x3d2314d0	0.03981477
35	0xbb4afe81	-0.003097445
36	0xbd841fb4	-0.064513594
37	0xbda2e6cb	-0.079541765
38	0xbc886649	-0.016650336
39	0x3d9c72b2	0.07639064
40	0xbd2ead6d	-0.04264586
41	0x3d5dbc4f	0.054134663
42	0xbd827739	-0.06370396
43	0x3d40d413	0.04707725
44	0xbd95a99b	-0.0730774
45	0x3d643fac	0.055724785
46	0x3d869c7a	0.06572814
47	0x3c415b73	0.011801588
48	0x3d43c5d6	0.047796093
49	0x3cb40e97	0.021979613
50	0xbc541d4f	-0.012946441
51	0xbd4426cf	-0.047888573
52	0xbc86781b	-0.016414693
53	0x3ceec6ef	0.029147593
54	0xbd235a3b	-0.039880972
55	0x3d5334ac	0.051563904
56	0xbd47ec00	-0.04880905
57	0xbc3bbde4	-0.011458848
58	0xbd31508f	-0.043289717
59	0xbdc6c76b	-0.09706005
60	0xbd381582	-0.044942386
61	0x3d9fef7f	0.07809352
62	0xbca80739	-0.020511257
63	0xbd806a04	-0.06270221
64	0xbd3140c9	-0.043274675
65	0x3c9ba300	0.018998623
66	0x3ba94950	0.0051662102
67	0xbd9b105f	-0.07571482
68	0x3d4c4d17	0.049878206
69	0xbd89f874	-0.06736842
70	0x3cbf3f52	0.023345623
71	0xbc0da583	-0.008645418
72	0x3d0049fa	0.03132055
73	0xbda5e1ef	-0.08099734
74	0xbda175ad	-0.07883773
75	0xbda423d6	-0.08014648
76	0xbc38ec6d	-0.011286837
77	0x3d1c5d71	0.03817505
78	0xbac1be62	-0.001478147
79	0xbc7c3eba	-0.015395815
80	0xbdc65a38	-0.096851766
81	0xbd81a15c	-0.06329605
82	0x3b4b400f	0.0031013524
83	0x3d2e6026	0.042572163
84	0xbdaee9d9	-0.08540697
85	0xbd4614a5	-0.048359532
86	0xbdd82bae	-0.10555206
87	0xbb156e4b	-0.0022801335
88	0xbd6bf0d6	-0.057602726
89	0xbd9c96fe	-0.07645987
90	0xbdd55522	-0.104166284
91	0x3d0fd007	0.0351105
92	0x3dabcb7e	0.083884224
93	0x3d95c850	0.07313597
94	0x3b55e767	0.0032639147
95	0xbd4fea49	-0.05076054
96	0xbd9d4d73	-0.07680788
97	0x3bf33529	0.0074221087
98	0xbd8b7fdc	-0.068114966
99	0x3ce63e93	0.02810601
100	0xbd3bfd19	-0.04589567
101	0x3b75d921	0.0037513452
102	0x3a23ba39	0.0006245706
103	0xbe0e872b	-0.1391875
104	0x3dac6330	0.08417356
105	0x3d5ffeae	0.05468624
106	0x3d913a24	0.070911676
107	0x3bcce21a	0.0062525393
108	0xbd93b27d	-0.07211778
109	0xbcae9cf2	-0.021315072
110	0x3da0c58e	0.078501806
111	0x3c894387	0.016755832
112	0xbd11dfa3	-0.035613667
113	0x3dabc495	0.083871044
114	0x3d8d0b0b	0.06886872
115	0xbd3d54d7	-0.046223488
116	0x3cf19c61	0.029493513
117	0x3da6583e	0.081222996
118	0xbb428275	-0.002967981
119	0x3c59700e	0.013271345
120	0xbdd95702	-0.106122985
121	0xbd005ba9	-0.031337414
122	0x3d3a25f2	0.045446344
123	0xbd8c7e4b	-0.06860026
124	0x3d5fe28e	0.05465942
125	0x3d9a1232	0.07523002
126	0xbc71c052	-0.014755325
127	0xbd9cf5c9	-0.07664067
128	0x3be3a6e1	0.0069473838
129	0x3d907d3e	0.07055138
130	0xbd8ef728	-0.06980735
131	0x3c3f44a5	0.011674081
132	0x3d6152bf	0.055010553
133	0x3d4a1e9a	0.04934559
134	0xbde17ebd	-0.110105015
135	0xbc913ded	-0.017729724
136	0xbb9c3029	-0.0047664833
137	0x3d4d9186	0.05018761
138	0x3ced726a	0.028985221
139	0xbdad34a9	-0.0845731
140	0x3d8c274f	0.06843435
141	0xbb46b5d3	-0.0030320778
142	0x3d64671c	0.055762395
143	0xbc60f215	-0.013729592
144	0x3d4373e3	0.04771794
145	0xbd01de8e	-0.031706385
146	0xbd835f38	-0.06414646
147	0x3d146051	0.036224667
148	0xbb8adccb	-0.0042377464
149	0xbd7fdceb	-0.062466543
150	0xbbcd084e	-0.0062570935
151	0xbd1264b5	-0.035740573
152	0x3c5f8cdc	0.013644423
153	0xbd2b2723	-0.04178537
154	0xbdc399c3	-0.09550812
155	0x3daecd35	0.08535234
156	0xbd46eab5	-0.048563678
157	0x3c85cb47	0.016332282
158	0xbd8344a4	-0.064095765
159	0x3dbcb7f1	0.092147715
160	0xbddd8660	-0.108166456
161	0x3c5a0acf	0.013308241
162	0xbcea889f	-0.0286296
163	0xbc939a2a	-0.018017847
164	0xbd904d4a	-0.07045992
165	0x3a80e93f	0.0009835138
166	0xbb18735d	-0.0023262121
167	0xbda88451	-0.08228362
168	0x3d1a1cbd	0.037625063
169	0xbdc5f5f2	-0.09666051
170	0xbda30e9b	-0.0796177
171	0xbd8ad1a0	-0.06778264
172	0xba051192	-0.00050761655
173	0x3b6e9b5a	0.0036408515
174	0x3d14f3dd	0.03636538
175	0x3d65cdaf	0.05610436
176	0x3a661f55	0.00087784725
177	0x3d007214	0.031358793
178	0x3bf8bcb5	0.007590855
179	0x3c96080c	0.018314384
180	0x3d7d92e4	0.061907664
181	0xbd8882cb	-0.06665572
182	0xbd2573d6	-0.040393673
183	0x3b97a751	0.0046281
184	0xbd6f1d9a	-0.05837784
185	0x3d3b1d23	0.045682084
186	0xbdaa4a3d	-0.08314941
187	0x3be5f25f	0.0070174183
188	0x3d1ecb82	0.0387683
189	0xbc516d92	-0.012782471
190	0xbbfc0d4f	-0.007692016
191	0xbdd567b0	-0.104201674
192	0xbd964623	-0.07337596
193	0xbd155742	-0.03646017
194	0x3d910450	0.07080901
195	0xbd1d858d	-0.038457442
196	0xbbc4294f	-0.0059863697
197	0x3d785a9c	0.060633287
198	0xbd0c8406	-0.034305595
199	0xbdbdec36	-0.09273569
200	0xbd969754	-0.07353082
201	0x3c220a56	0.00989016
202	0xbc477626	-0.012174165
203	0x3d65a665	0.05606689
204	0x3c54fde9	0.01299999
205	0x3d929fa0	0.07159352
206	0xbbd24d82	-0.006417931
207	0x3d6cd19b	0.057817083
208	0x3c95db5e	0.018293079
209	0x3c7b68c3	0.015344801
210	0xbd987a6f	-0.07445227
211	0xbd2292ce	-0.039690785
212	0x3d66feef	0.056395467
213	0x3d5d375d	0.054007877
214	0xbd7eea18	-0.062234968
215	0xbd8ebeee	-0.06970011
216	0x3d00b67b	0.031424027
217	0xbdd33c13	-0.103141926
218	0x3d4b17a9	0.04958311
219	0xbd733ae5	-0.059382338
220	0xbd1dfcd3	-0.03857119
221	0xbd9bad4b	-0.076014124
222	0xbd8f7ed3	-0.07006612
223	0x3d9d2809	0.07673652
224	0xbcae48e0	-0.021274984
225	0xbd0c45a8	-0.034246117
226	0xbd8f6aea	-0.07002814
227	0xbd8dc6bc	-0.06922671
228	0x3dac9d32	0.0842842
229	0xbde09e97	-0.109677486
230	0xbd20393e	-0.03911709
231	0x3cca5c4e	0.024702217
232	0x3c902033	0.017593479
233	0x3cd359dd	0.025799686
234	0xbcaad912	-0.02085546
235	0xbd51f1a2	-0.05125583
236	0xbdb6cb6b	-0.08925518
237	0xbd4aeb34	-0.049540713
238	0x3d1889df	0.03724086
239	0x3c724264	0.014786337
240	0x3cda3ac9	0.02663936
241	0xbde432d2	-0.11142506
242	0xbd0c2d85	-0.0342231
243	0xbd7583f1	-0.059940282
244	0x3d91ef1d	0.07125685
245	0x3caa8f98	0.020820424
246	0xbd42343b	-0.047413092
247	0xbc91298f	-0.017720012
248	0x3cd391bf	0.025826333
249	0xbd03c078	-0.032165974
250	0xbd7d1192	-0.061784334
251	0x3c4bfd3d	0.012450513
252	0x3c028f64	0.007968757
253	0xbc886afa	-0.016652573
254	0x3cd7e92c	0.026356302
255	0xbd8f3a98	-0.06993598

bias f4 [120]
0	0xbdeac578	-0.114634454
1	0x3c7ee9a5	0.015558635
2	0x3d82538e	0.06363593
3	0x3f62b165	0.8855193
4	0x3eca0346	0.39455622
5	0xbe532313	-0.20618849
6	0xbc252322	-0.010079177
7	0x3ecebabe	0.40376848
8	0x3e556459	0.20839061
9	0xbdbfdac0	-0.09367895
10	0xbcfddb5e	-0.030988391
11	0x3db8de05	0.09026722
12	0xbd106492	-0.03525216
13	0xbe0af368	-0.13569415
14	0xbdf20664	-0.11817625
15	0x3e730519	0.23732413
16	0x3c9f890b	0.019474527
17	0x3cbd3588	0.023096815
18	0x3ee7c8de	0.45270437
19	0xbdb2c0b9	-0.08728165
20	0x3dfaece2	0.12252213
21	0xbdcec467	-0.100960545
22	0x3e32c326	0.17457256
23	0x3d08800f	0.03332525
24	0x3dfd6c3e	0.12374161
25	0x3ed4be27	0.41551325
26	0xbe02e705	-0.1278344
27	0x3d32a099	0.04361019
28	0xbb8ba088	-0.00426108
29	0xbe42ad74	-0.1901148
30	0xbd1f0ba1	-0.03882945
31	0x3e4afe7e	0.19823644
32	0xbe694de5	-0.2278362
33	0x3eaa65a8	0.33280683
34	0xbe280cd6	-0.16411147
35	0xbcef39be	-0.029202338
36	0xbe240d9a	-0.16020814
37	0x3ecd39f9	0.40083292
38	0xbed4e65b	-0.41581997
39	0x3e632bc3	0.22184663
40	0xbaece036	-0.0018072191
41	0xbd9d3a0b	-0.076770864
42	0x3e85b621	0.26115516
43	0xbec745ba	-0.38920385
44	0x3f07de34	0.5307343
45	0xbcbb7e93	-0.022887504
46	0x3d5c811b	0.053834062
47	0xbe0f3984	-0.13986784
48	0x3ec51927	0.38495752
49	0xbe177507	-0.14790736
50	0xbf09b01b	-0.5378434
51	0xbe5dd170	-0.21661925
52	0x3e8e8e59	0.27842978
53	0xbc91d25a	-0.017800499
54	0x3e00118c	0.12506694
55	0xbdc397b2	-0.09550418
56	0x3eb431b7	0.3519418
57	0xbd579dae	-0.05264061
58	0xbcf71c0d	-0.030164743
59	0x3dfc399e	0.12315677
60	0x3e18b003	0.14910893
61	0xbeacd467	-0.337558
62	0x3dcdd464	0.10050276
63	0xbecd3527	-0.40079615
64	0xbd64dc18	-0.05587396
65	0x3f1d2082	0.6137773
66	0x3e913354	0.28359473
67	0x3d3d8a41	0.046274427
68	0x3eac95ce	0.33708042
69	0xbd8b96ed	-0.06815896
70	0xbdd8bb73	-0.10582628
71	0xbedcda07	-0.43135092
72	0x3d111e17	0.035429087
73	0xbdb375a6	-0.08762674
74	0x3ee44127	0.44580957
75	0x3e9195ec	0.28434694
76	0x3db14f91	0.08657754
77	0x3e804adf	0.25057122
78	0x3eb19ab3	0.3468834
79	0x3e77a460	0.24183798
80	0xbe00d61f	-0.1258168
81	0x3db8f48d	0.09031019
82	0xbedff1ae	-0.43739074
83	0xbd6de111	-0.05807597
84	0xbe06827c	-0.13135713
85	0xbdbd1cd8	-0.09234017
86	0xbed6fa32	-0.4198776
87	0x3d880d3d	0.0664315
88	0xbddf20c1	-0.10894919
89	0xbe09b6b9	-0.1344861
90	0x3e1dba7d	0.15403171
91	0x3d0d9f76	0.034575902
92	0x3c67b1a9	0.014141479
93	0xbebb75cf	-0.36613318
94	0x3dcc8ca4	0.099877626
95	0xbdedd8e8	-0.11613637
96	0x3eaa9bc8	0.33321977
97	0xbc19d5bb	-0.009389336
98	0xbea26e80	-0.3172493
99	0x3cbdbc65	0.023161123
100	0x3cb649af	0.022251932
101	0xbefd2a88	-0.4944651
102	0xbd89b0d9	-0.06723184
103	0xbdccba5e	-0.09996484
104	0x3c2c7d78	0.010527961
105	0xbdd74109	-0.10510451
106	0x3d8ce25b	0.068791114
107	0xbdb03439	-0.08603711
108	0xbdfb2f7a	-0.12264915
109	0xbda06841	-0.07832385
110	0x3ebd6b7e	0.36996073
111	0x3d61cd8a	0.055127658
112	0x3d4d4e95	0.05012377
113	0xbbc5c30c	-0.0060352143
114	0xbc9370bb	-0.01799809
115	0xbc1c628c	-0.00954498
116	0xbddbcf65	-0.10732917
117	0x3e860ad9	0.2618015
118	0x3e14f525	0.1454664
119	0xbf0b6088	-0.5444417

weight f4 [84, 120]
0	0x3d3eae48	0.046552926
1	0x3d9e16a2	0.077191606
2	0xbd49030a	-0.049075164
3	0xbd7a8aa8	-0.06116739
4	0xbd201cd7	-0.039090004
5	0x3ea6b2e0	0.32558346
6	0x3d0e265b	0.034704547
7	0x3d492f60	0.049117446
8	0x3eaf4331	0.3423095
9	0x3e617e32	0.22020796
10	0x3dc7d711	0.097578175
11	0xbd00379f	-0.031303044
12	0x3ded7442	0.1159444
13	0x38488ec8	4.781669e-05
14	0x3bc6f300	0.0060714483
15	0x3d99d8b5	0.07512037
16	0xbe8de901	-0.2771683
17	0xbef75eaf	-0.48314425
18	0x3d761264	0.060076132
19	0x3dda8aa2	0.10670973
20	0xbe8703f6	-0.2637021
21	0xbd7243f0	-0.05914682
22	0xbd91a2e4	-0.07111147
23	0x3e92ccfa	0.2867201
24	0xbe08cfaa	-0.13360468
25	0x3e9391a1	0.28822044
26	0xbdaa9bcf	-0.083304994
27	0xbe66ef12	-0.22552136
28	0xbd01883b	-0.03162406
29	0x3e67e274	0.22644979
30	0x3af88944	0.0018961807
31	0xbf2bb130	-0.6706724
32	0xbecf840a	-0.40530425
33	0xbe511e87	-0.20421802
34	0xbd10218c	-0.035188243
35	0xbf5ac46f	-0.85455984
36	0x3cf9b7df	0.030483184
37	0xbee9d9ff	-0.4567413
38	0x3f11d5cb	0.5696685
39	0x3ca6d039	0.02036296
40	0x3dd85acc	0.10564193
41	0x3d95a7e7	0.073074155
42	0x3ed4f1fc	0.4159087
43	0x3e18f517	0.14937244
44	0xbea233bb	-0.31680092
45	0xbea3a373	-0.3196064
46	0x3efe9829	0.49725464
47	0xbf18e861	-0.5972958
48	0x3e946dbb	0.28989968
49	0x3dda4d84	0.10659316
50	0x3d1a7647	0.037710454
51	0x3f4b2659	0.7935539
52	0x3d269d47	0.040677335
53	0xbdd3b152	-0.103365555
54	0x3ed238ca	0.41058952
55	0xbdb9e8e4	-0.090776235
56	0xbdd37efc	-0.10326955
57	0x3d7d8b90	0.061900675
58	0x3e8760de	0.2644109
59	0xbead32f2	-0.3382793
60	0xbdc61731	-0.09672392
61	0xbe9feb62	-0.3123427
62	0xbdcf5d6f	-0.10125243
63	0xbdf83769	-0.12119944
64	0x3cbdd571	0.023173066
65	0xbe908bb1	-0.28231576
66	0x3edd066c	0.43168962
67	0xbc4555da	-0.012044394
68	0xbde2927e	-0.110630974
69	0x3cceef56	0.025260609
70	0x3e2e9fd0	0.17053151
71	0x3c31040e	0.010804189
72	0xbb9731e9	-0.004614104
73	0x3f5561c7	0.8335232
74	0x3df8d1cf	0.12149393
75	0x3e6d6978	0.23184764
76	0xbdc7bd13	-0.0975286
77	0xbd7a9dff	-0.061185833
78	0x3cf0de7e	0.029402968
79	0x3e66ca0e	0.22538015
80	0x3dcd161b	0.10013982
81	0xbc899982	-0.016796831
82	0x3cec522f	0.028847782
83	0xbd4339fd	-0.047662724
84	0xbcaf669b	-0.02141123
85	0xbd597bc2	-0.05309654
86	0xbeeef8d3	-0.46674213
87	0x3defb19b	0.117037974
88	0xbe8958eb	-0.26825652
89	0xbed7834e	-0.42092365
90	0xbd0cc97f	-0.03437185
91	0x3c4d462c	0.012528937
92	0xbe854936	-0.26032418
93	0xbf4f5b3e	-0.809986
94	0x3f224ace	0.6339539
95	0x3ea6b433	0.32559356
96	0xbf84e144	-1.0381246
97	0x3c1cd464	0.009572122
98	0xbebc4ea1	-0.3677874
99	0xbefbe037	-0.491945
100	0xbf0a871a	-0.541124
101	0x3e23350a	0.15938202
102	0x3db5e631	0.08881796
103	0x3ea3f582	0.32023245
104	0x3e3ce007	0.18444835
105	0x3e34612b	0.17615192
106	0xbd43106b	-0.04762308
107	0x3e8d6498	0.2761581
108	0x3d3f6fe1	0.046737555
109	0x3f038271	0.5137091
110	0x3eb0dcf6	0.3454358
111	0xbea6ed7c	-0.3260306
112	0xbf307ef6	-0.68943727
113	0x3da8277a	0.082106546
114	0xbd83e2ca	-0.06439741
115	0xbfc0764f	-1.5036105
116	0x3da1d582	0.079020515
117	0xbd05c95d	-0.032662738
118	0x3e337eb8	0.17528808
119	0xbefb73a5	-0.49111667
120	0x3dd1dc74	0.10247126
121	0xbd410a7f	-0.04712915
122	0xbe9781f3	-0.2959133
123	0xbdee1960	-0.11625934
124	0x3e462649	0.19350542
125	0x3e531db9	0.20616807
126	0xbce04717	-0.027377648
127	0x3e7a94a3	0.24470763
128	0x3afa1a04	0.001908124
129	0x3e3aabdb	0.1822962
130	0x3e116a05	0.142006
131	0xbdbbbdfe	-0.091670975
132	0xbf581f9c	-0.8442323
133	0x3d43e685	0.047827262
134	0xbd8614bd	-0.06546924
135	0x3e3a0e0e	0.18169424
136	0xbe3930c8	-0.18085015
137	0xbe133554	-0.14375812
138	0x3b04af74	0.002024618
139	0xbd75b42d	-0.059986282
140	0x3f17840b	0.59185857
141	0xbd52f592	-0.051503725
142	0x3dd03054	0.10165468
143	0x3e878e1e	0.26475614
144	0x3d32274b	0.043494504
145	0xbd5d005a	-0.053955413
146	0xbda5d8ca	-0.0809799
147	0xbeb866eb	-0.3601602
148	0xbc102b02	-0.008799316
149	0xbd3797ad	-0.044822384
150	0x3c3b3831	0.011426971
151	0x3e88cd09	0.2671893
152	0x3ee74201	0.45167544
153	0xbe227299	-0.15864028
154	0xbd8eea8c	-0.0697833
155	0x3e31f414	0.17378265
156	0x3d1f60ff	0.038910862
157	0x3e848412	0.25882012
158	0xbe45c08e	-0.19311735
159	0xbe97933f	-0.29604527
160	0xbdb709e7	-0.089374356
161	0x3b4792c5	0.0030452472
162	0xbd4f5c8d	-0.050625373
163	0x3e47c00a	0.19506851
164	0xbe2b6f62	-0.16741708
165	0x3ca9e0a7	0.020737005
166	0xbdac942a	-0.084266976
167	0x3ebf5858	0.37372088
168	0xbd8f4243	-0.0699506
169	0xbc100bf6	-0.008791914
170	0x3dcf8d43	0.101343654
171	0xbddfb052	-0.10922302
172	0x3f23312e	0.6374692
173	0xbc7599dc	-0.014990296
174	0x3ee3bab7	0.4447839
175	0x3d7259b7	0.05916759
176	0xbf2a5fdb	-0.66552514
177	0x3d8285f5	0.063732065
178	0xbe1297c0	-0.143157
179	0xbe578d39	-0.21049966
180	0xbdd23b63	-0.10265233
181	0x3ebe7081	0.3719521
182	0x3ee96d6b	0.45591292
183	0x3d214f8a	0.039382495
184	0x3daea346	0.08527236
185	0xbed74882	-0.42047507
186	0x3866e04d	5.504517e-05
187	0x3e5061f7	0.2034987
188	0x3e109d94	0.14122611
189	0x3cdf1f80	0.0272367
190	0x3e0fd6c7	0.14046775
191	0xbeed2035	-0.46313635
192	0xbd3537a7	-0.044242527
193	0x3cc71a49	0.024304526
194	0xbdb5bfc4	-0.08874467
195	0x3e08bd94	0.13353568
196	0xbe17ea03	-0.14835362
197	0xbe011319	-0.12604941
198	0xbd91f515	-0.07126824
199	0x3d9f7e30	0.0778774
200	0xbed2febc	-0.41209972
201	0x3e916925	0.2840053
202	0xbe1123cc	-0.14173812
203	0xbc4c25eb	-0.012460212
204	0x3c1b2963	0.009470317
205	0xbd95e1b7	-0.07318442
206	0xbe8b6cac	-0.27231348
207	0xbe70a170	-0.23499084
208	0x3edf493e	0.43610567
209	0xbe8fa48e	-0.28055233
210	0x3e561abc	0.20908636
211	0xbf3186cb	-0.693463
212	0x3e518ca6	0.2046381
213	0x3e917031	0.28405908
214	0xbe3b4bba	-0.18290606
215	0xbe8db360	-0.27675915
216	0x3f06cfa0	0.5266056
217	0x3e8feca0	0.28110218
218	0xbe29ff91	-0.16601397
219	0x3eaa50ed	0.33264866
220	0x3ea97d2f	0.3310332
221	0x3e800b8d	0.25008813
222	0x3d162c58	0.036663383
223	0xbe112531	-0.14174344
224	0x3f0a4ada	0.54020464
225	0x3e6c4253	0.23072176
226	0x3efbf805	0.4921266
227	0xbe19b62a	-0.15010896
228	0xbd4583ec	-0.048221514
229	0xbf0da853	-0.5533497
230	0xbecb37f2	-0.3969112
231	0x3e8f0179	0.2793081
232	0xbeaf0a3d	-0.341875
233	0xbd33d852	-0.04390747
234	0xbd675d47	-0.05648544
235	0xbe98d0d1	-0.29846814
236	0x3d92b9a6	0.07164316
237	0xbe98ab1c	-0.29818046
238	0x3dd4b404	0.10385898
239	0xbe52335a	-0.20527402
240	0x3cc32480	0.023821115
241	0xbb10d650	-0.0022100396
242	0xbdabc2f8	-0.08386797
243	0xbee0ac3a	-0.43881398
244	0x3dc8fecf	0.09814226
245	0x3ec71668	0.38884282
246	0x3d415e74	0.04720922
247	0x3e62c7cb	0.22146527
248	0xbedafc05	-0.427704
249	0x3e8dde86	0.27708834
250	0x3dd17b02	0.1022854
251	0xbe1b0a1c	-0.15140575
252	0xbf7b11d6	-0.9807409
253	0xbdcf9d26	-0.101373956
254	0x3dfbf780	0.12303066
255	0xbc479077	-0.012180439

bias f4 [84]
0	0x3d6645ea	0.05621902
1	0x3d5834cc	0.052784726
2	0x3e32b861	0.17453147
3	0xbdfbb176	-0.12289707
4	0xbe2694a1	-0.16267635
5	0x3e834109	0.25635555
6	0x3db975fa	0.09055705
7	0x3ed6a701	0.4192429
8	0xbe6bfca8	-0.230456
9	0xbed2480e	-0.41070598
10	0x3eb9d33b	0.3629397
11	0xbd46ba48	-0.048517495
12	0x3cc12412	0.02357677
13	0xbe189cbb	-0.14903538
14	0xbc86f6f0	-0.01647517
15	0x3eb51f17	0.35375282
16	0xbcf44046	-0.029815804
17	0x3f08781a	0.5330826
18	0xbc3a729b	-0.011379863
19	0xbe8dda82	-0.2770577
20	0x3cdaa0fb	0.02668809
21	0xbdab8827	-0.083755784
22	0xbd3bf14a	-0.045884408
23	0xbc91ead2	-0.017812166
24	0x3eb6ded7	0.35716888
25	0xbe84706f	-0.2586703
26	0xbdb66a43	-0.089069866
27	0x3e88b841	0.26703075
28	0xbe7c27dc	-0.2462458
29	0x3e84726a	0.2586854
30	0x3f21d3d5	0.63213855
31	0x3e268044	0.16259867
32	0xbe424809	-0.18972792
33	0xbdbfa828	-0.09358245
34	0x3b123309	0.0022308251
35	0x3e18a22c	0.14905614
36	0xbe0220a2	-0.12707761
37	0xbdc899a7	-0.09794932
38	0xbeed0e93	-0.46300182
39	0xbdcfd36e	-0.10147749
40	0xbdb60463	-0.088875555
41	0xbd90a381	-0.07062436
42	0x3e9ecc33	0.31015167
43	0x3ce9a9da	0.028523374
44	0xbdfaefc5	-0.12252764
45	0xbdc47791	-0.09593118
46	0x3e4c19e5	0.19931753
47	0xbd896032	-0.06707801
48	0xbddf0754	-0.108900696
49	0xbde491a4	-0.11160591
50	0xbd55334a	-0.052050866
51	0xbdf534b6	-0.119729444
52	0x3e7138e7	0.23556863
53	0x3e78cad2	0.2429612
54	0x3e733a3e	0.23752686
55	0xbf6787a5	-0.9044135
56	0xbd378707	-0.044806506
57	0x3d8dfbd0	0.06932795
58	0xbe343943	-0.17599969
59	0x3ed2331d	0.4105462
60	0xbe0f9b1e	-0.14024016
61	0xbdbc674c	-0.0919939
62	0xbd20f9a3	-0.039300572
63	0x3ea45788	0.3209803
64	0xbd1050dc	-0.035233364
65	0xbd9c3261	-0.076267965
66	0xbdcb0393	-0.09912791
67	0xbda82b6c	-0.08211407
68	0x3dabcc1a	0.08388539
69	0xbddc55e4	-0.1075857
70	0xbd92d36b	-0.07169231
71	0x3f26c92e	0.65150726
72	0xbe0cc8ea	-0.13748518
73	0xbe1716af	-0.14754747
74	0xbdb09fcf	-0.08624231
75	0x3e74f25c	0.23920578
76	0xbc9e8180	-0.01934886
77	0xbdaab2e8	-0.08334905
78	0xbe1b64b7	-0.15175138
79	0x3d0e5042	0.03474451
80	0xbdd42faa	-0.10360654
81	0x3d417762	0.047232993
82	0xbe81d5ea	-0.25358516
83	0x3e865e87	0.26243994

weight f4 [42, 84]
0	0xbf1b97d2	-0.60778534
1	0x3f0b657c	0.5445173
2	0xbda5b303	-0.080907844
3	0x3c81de1f	0.015852986
4	0x3edceffa	0.43151838
5	0xbf1ad296	-0.6047758
6	0x3dd0ffb2	0.1020502
7	0xbee1794b	-0.44037852
8	0x3e839c1b	0.25705037
9	0xbe081ee4	-0.13293034
10	0xbd7e5c0e	-0.06209951
11	0xbd11f7fe	-0.035636894
12	0x3e8e55ae	0.27799743
13	0x3e06afd0	0.13153005
14	0x3bafe58e	0.005367941
15	0x3e0c1f8c	0.13683909
16	0x3d0b58b0	0.034020126
17	0xbeb76c81	-0.3582497
18	0x3df67722	0.120344415
19	0x3f1e3238	0.6179538
20	0x39215d9d	0.0001538903
21	0x3d3b3554	0.045705155
22	0xbbd21516	-0.006411205
23	0x3e104bab	0.14091365
24	0xbf6cd73b	-0.92515916
25	0x3ea2c47e	0.31790537
26	0xbd63f806	-0.055656455
27	0x3e191f47	0.14953338
28	0xbe24b326	-0.16083965
29	0xbef03055	-0.46911874
30	0x3dc445c2	0.09583618
31	0xbecb22f8	-0.39675117
32	0x3e255f8f	0.16149734
33	0xbd0f9bed	-0.03506081
34	0xbd9ed588	-0.077555716
35	0x3d9a8e33	0.075466536
36	0x3d16f70f	0.036856707
37	0xbc86a315	-0.016435185
38	0x3eb1f174	0.34754527
39	0xbe4ae197	-0.19812618
40	0x3d449548	0.04799393
41	0x3c11af0f	0.008891835
42	0x3eb308be	0.34967607
43	0x3de2c32c	0.11072382
44	0xbba74730	-0.0051049218
45	0x3d941c94	0.07232013
46	0x3e2f156c	0.17098016
47	0xbd50d572	-0.050984807
48	0x3e0a083f	0.13479708
49	0xbd222046	-0.03958156
50	0xbcc546de	-0.024081644
51	0x3c1994be	0.009373842
52	0xbe239bad	-0.15977354
53	0x3de985ac	0.11402449
54	0xbe1a17fb	-0.1504821
55	0x3f1256fd	0.57163984
56	0xb978bf55	-0.000237224
57	0x3d7f074d	0.062262822
58	0x3ea6a907	0.32550833
59	0x3ed0b120	0.40760136
60	0x3b6abf6b	0.003581966
61	0xbcc9268e	-0.024554517
62	0xbd5e8350	-0.054324448
63	0xbdc7d7a1	-0.09757925
64	0xbd28ed35	-0.041241843
65	0xbc53532a	-0.012898246
66	0xbd024121	-0.031800393
67	0xbe8ef23e	-0.2791919
68	0xbea1564a	-0.31511146
69	0xbd2ec704	-0.042670265
70	0xbd454b12	-0.048167296
71	0xbe0de9ee	-0.13858768
72	0x3d4d19ed	0.050073553
73	0x3da995fc	0.082805604
74	0xbdee3fff	-0.116333
75	0xbd7be057	-0.061493244
76	0x3eed460a	0.46342498
77	0x3db4614f	0.08807623
78	0x3d186552	0.037206
79	0xbdfbc579	-0.12293524
80	0x3c4b0e15	0.012393494
81	0xbe082ea0	-0.13299036
82	0x3eabd1b9	0.33558443
83	0xbeee216e	-0.4650988
84	0x3e581957	0.21103416
85	0x3e148e16	0.14507326
86	0xbdd93b9d	-0.106070735
87	0x3f01bb22	0.50676167
88	0x3e9cb5f2	0.30607563
89	0x3d27e909	0.040993724
90	0x3c8779e8	0.016537622
91	0xbe839135	-0.25696722
92	0x3e08c883	0.13357739
93	0xbe6b996b	-0.23007743
94	0x3df4de23	0.11956432
95	0x3b2e8d28	0.0026634429
96	0x3ea10984	0.31452572
97	0xbdd52073	-0.1040658
98	0xbdc1914c	-0.09451541
99	0xbde8b494	-0.113625675
100	0xbcb8354d	-0.022486353
101	0xbe5fcca1	-0.21855403
102	0x3d4a8aa7	0.049448635
103	0x3eca8e37	0.39561626
104	0xbc90f138	-0.017693147
105	0x3c1efc49	0.009703704
106	0xbdb5efbd	-0.08883617
107	0x3e4bf93b	0.19919293
108	0xbdda82e0	-0.10669494
109	0x3eec3abb	0.46138558
110	0xbc34b014	-0.011028308
111	0xbeae856d	-0.3408617
112	0xbe07275a	-0.13198605
113	0xbdb42ad5	-0.08797232
114	0xbc0b7d41	-0.00851375
115	0x3eee3ac3	0.46529207
116	0xbdff9f7f	-0.12481593
117	0xbd78ed96	-0.060773455
118	0x3d09c39e	0.03363382
119	0xbdbd446e	-0.092415676
120	0xbd90692c	-0.0705131
121	0x3ce80046	0.028320443
122	0x3e3f24a7	0.18666326
123	0x3e26bceb	0.16283004
124	0xbcbb0b22	-0.022832457
125	0x3d9516e1	0.072797544
126	0xbdb6ad84	-0.08919814
127	0xbee75deb	-0.4518884
128	0x3d27fc9a	0.041012384
129	0x3d878d25	0.06618718
130	0x3e88cdf8	0.26719642
131	0xbcc1a4f3	-0.023638224
132	0xbc844acd	-0.016148949
133	0xbe02a564	-0.12758404
134	0xbd892535	-0.0669655
135	0xbda4de6d	-0.08050237
136	0x3d8e5736	0.06950228
137	0xbe9294da	-0.2862919
138	0x3eecb2fa	0.46230298
139	0xbe130f2e	-0.1436126
140	0x3e107ae3	0.14109378
141	0x3e828a89	0.2549632
142	0x3e42b00f	0.19012474
143	0xbecbe843	-0.3982564
144	0x3db92a1b	0.09041234
145	0xbd38781a	-0.045036413
146	0xbbb44673	-0.0055015623
147	0x3ce305a4	0.02771265
148	0xbd93a2a9	-0.07208759
149	0x3c76b14a	0.015056917
150	0xbd96616d	-0.07342801
151	0x3dc13502	0.094339386
152	0xbee580f6	-0.44824952
153	0xbd4aa8df	-0.049477454
154	0x3c4e02b8	0.01257389
155	0x3e7c4d2d	0.24638815
156	0x3c9f8591	0.01947287
157	0x3cd1c8bc	0.025608413
158	0x3e9654d0	0.29361582
159	0xbdd80b71	-0.10549057
160	0xbe13cc79	-0.14433469
161	0x3d019263	0.031633746
162	0x3d326fae	0.043563537
163	0xbbf7f665	-0.0075672143
164	0x3df1c925	0.118059434
165	0x3ecf06b3	0.404348
166	0xbd9720ff	-0.073793404
167	0x3c9aa0a9	0.018875437
168	0xbe852fd9	-0.26013067
169	0xbe67bcf5	-0.22630675
170	0xbe9dcb1e	-0.3081903
171	0x3ee042fa	0.438011
172	0x3e8127b7	0.25225613
173	0xbdda71e8	-0.10666257
174	0xbe586aa8	-0.21134436
175	0x3e53c247	0.2067958
176	0x3daed46a	0.085366085
177	0xbf0a1cb1	-0.5395003
178	0xbcc3f440	-0.023920178
179	0x3dbb4797	0.09144514
180	0x3ed17a79	0.40913752
181	0x389fd27a	7.620915e-05
182	0x3c63ce5e	0.013904182
183	0x3ebdadbe	0.37046617
184	0x3b0aeaad	0.0021197007
185	0x3e24dec1	0.16100599
186	0x3de60cae	0.11232887
187	0x3e4e3096	0.20135722
188	0xbd8dc014	-0.069214016
189	0x3e05e7fe	0.13076779
190	0x3d2fd478	0.042927235
191	0x3c31590a	0.010824451
192	0x3eb2e51c	0.34940422
193	0xbcdfa510	-0.027300388
194	0xbe00d067	-0.12579499
195	0x3e9592cb	0.29213557
196	0xbdd140fd	-0.10217474
197	0xbf1499ba	-0.5804707
198	0x3e298a45	0.16556652
199	0xbd88d9f4	-0.06682196
200	0xbec1bdd3	-0.37840137
201	0x3da97815	0.08274857
202	0x3d253944	0.040337816
203	0x3e453f84	0.1926251
204	0x3d1f4946	0.03888824
205	0xbad174f6	-0.0015980292
206	0x3e193919	0.14963187
207	0xbd71cb20	-0.059031606
208	0xbd7ae2d6	-0.061251484
209	0xb95b221a	-0.00020898171
210	0x3f0e9696	0.55698526
211	0xbc3ab4b5	-0.011395623
212	0xbae94958	-0.0017798347
213	0x3dd2fdf0	0.10302341
214	0xbeb3653c	-0.35038173
215	0xbd509622	-0.050924428
216	0xbde2b403	-0.11069491
217	0x3d9ebba1	0.07750631
218	0x3c6a2f22	0.014293464
219	0xbd1ed179	-0.038773987
220	0xbdcdeb5b	-0.10054656
221	0x3e604d2e	0.21904442
222	0x3de46da4	0.11153725
223	0x3e1202df	0.14258908
224	0x3e351df5	0.17687209
225	0xbd44ccaa	-0.048046745
226	0xbeb60000	-0.35546875
227	0x3e037c01	0.12840272
228	0x3c054844	0.008134905
229	0xbd9f7b11	-0.07787145
230	0xbdf478ee	-0.11937128
231	0x3db2954e	0.08719884
232	0xbd79ced8	-0.060988277
233	0xbde04115	-0.109499134
234	0x3d53377a	0.05156658
235	0xbedebe24	-0.4350444
236	0xbe20c31e	-0.15699431
237	0xbd31b759	-0.043387745
238	0xbdcadadd	-0.09905026
239	0xbe1ba22f	-0.15198587
240	0xbd4e7d4c	-0.05041246
241	0x3db1ff8d	0.086913206
242	0xbe3317dd	-0.17489572
243	0xbe5147b8	-0.20437515
244	0xbe64f264	-0.2235809
245	0x3c65b4a2	0.014020117
246	0x3c935a03	0.017987257
247	0xbe050fb2	-0.12994269
248	0x3cef7824	0.029232092
249	0x3e02f007	0.12786876
250	0x3ef70f9d	0.482541
251	0xbd0eafb9	-0.03483555
252	0xbf1ef51b	-0.6209275
253	0xbe90f0e4	-0.28308785
254	0xbe08a9b5	-0.13345988
255	0xbd9724f1	-0.07380093

bias f4 [42]
0	0xbf5260e2	-0.8217908
1	0xbdfe1547	-0.12406402
2	0x3ec398d8	0.38202548
3	0xbefbd6cd	-0.49187317
4	0x3d97ee7f	0.074185364
5	0xbe1ea3e5	-0.15492208
6	0x3d7b81eb	0.061403196
7	0x3ef5b711	0.4799123
8	0x3b8d4234	0.0043108705
9	0xbe9d08a2	-0.3067065
10	0xbcaf1d51	-0.021376284
11	0xbee7bba4	-0.45260346
12	0x3f10b8cd	0.56531984
13	0xbe127f06	-0.14306268
14	0x3e075c1e	0.13218734
15	0x3f08987e	0.53357685
16	0x3e44e3f9	0.1922759
17	0xbd3f551b	-0.046712022
18	0xbcc33847	-0.023830546
19	0xbde75d62	-0.11297108
20	0xbec47943	-0.38373765
21	0xbf5139bf	-0.8172874
22	0xbd4ee94c	-0.050515458
23	0xbe080320	-0.13282442
24	0x3d98b578	0.074564874
25	0xbdd1e388	-0.10248476
26	0xbe284a88	-0.16434681
27	0xba8badcf	-0.0010656657
28	0x3e6391ff	0.22223662
29	0x3ec28b19	0.37996748
30	0xbe366e39	-0.17815484
31	0xbe51668a	-0.20449272
32	0xbebd01f2	-0.36915547
33	0x3e01b9ec	0.1266858
34	0xbe18c325	-0.14918192
35	0xbe1a9cf9	-0.15098943
36	0x3e21fd4f	0.15819286
37	0xbf84a46d	-1.0362679
38	0x3eb73738	0.35784316
39	0xbdf937d8	-0.121688545
40	0x3dd5d17c	0.104403466
41	0x3dc037cc	0.093856424
