models/model.pth (torch, 248766 bytes, 16 tensors)

weight f4 [6, 1, 3, 3]
000000 da 05 01 3f 87 e6 7b 3e 22 be 95 be 0b bf 95 3e
       0.50399554 0.24599658 -0.29246622 0.29247317
000010 e8 86 6b be 22 3e a6 be 11 fd 60 3e cd 6d f8 be
       -0.23000681 -0.3246928 0.21971537 -0.4852127
000020 ea a3 ce 3d 79 bc 9b bd 87 c4 75 be b9 29 1a bf
       0.10089858 -0.07604308 -0.2400075 -0.60219914
000030 fa 19 ba 3e b8 c5 9f 3d 44 be a0 bd 57 b9 d1 3e
       0.36347944 0.07801384 -0.0784879 0.40961716
000040 2b 01 95 bd 44 69 43 3e f4 79 6a 3d ad 68 cc bd
       -0.072756134 0.19083124 0.05724521 -0.09980903
000050 4a 1f 56 3e 70 4e db 3d c3 29 b7 bd cc 9e 78 3e
       0.20910373 0.1070832 -0.08943512 0.24279326
000060 c3 4c a7 3d ac 3e 0a 3e 5d 60 9a 3e b2 0a 75 be
       0.08168938 0.1350047 0.30151644 -0.23929861
000070 07 d3 8d be b8 39 26 bf 43 73 61 3e 2b 8b a0 3e
       -0.27700064 -0.6493182 0.22016625 0.31356177
000080 fa 23 90 be f1 dd 7c bd b3 17 02 3f 79 b5 a1 3e
       -0.28152448 -0.061735097 0.5081741 0.31583765
000090 e2 a4 e0 be d6 1d 7b 3e d5 35 18 bd 86 17 14 be
       -0.43875796 0.245231 -0.037160713 -0.14462098
0000a0 79 ae 9f bc e8 22 90 3e 67 e0 48 3e eb 02 3b be
       -0.019492375 0.2815163 0.19616853 -0.18262832
0000b0 b9 4f b1 3e 85 6d 8b bc ea c9 de 3c 02 e7 d7 be
       0.34631136 -0.017019996 0.02719589 -0.42168432
0000c0 10 17 c2 bd db 07 66 be 2e 42 f4 3d 7c 76 f9 bc
       -0.09477055 -0.22463934 0.11926685 -0.030452006
0000d0 c6 33 77 bd 3a ea bf 3e
       -0.06035211 0.37483388

bias f4 [6]
000000 fa 5f 11 be dc dd 83 bd 39 51 23 3d e9 61 a6 bd
       -0.14196768 -0.06438801 0.03987238 -0.08124144
000010 d4 8f 22 3e a9 6c 74 3e
       0.15875179 0.23869576

weight f4 [4, 6, 6, 6]
000000 51 ee 18 3b d6 0e 02 bd bb 85 9b 3c 4c 3a dc 3c
       0.0023335407 -0.03175243 0.018984666 0.026883267
000010 31 38 39 3d 71 cd b2 3b 44 ac 0f bc 59 cc 85 bc
       0.045219604 0.0054566194 -0.008769099 -0.016332792
000020 3b 0b da bc 60 5f 47 3d 56 78 2e 3c 5f 7a dc 3b
       -0.026616683 0.04867494 0.0106488075 0.006728455
000030 6e 8d b5 bc ab 7c c2 bc c9 08 87 bd a8 2f 12 3d
       -0.022162165 -0.023741087 -0.065934725 0.03568998
000040 05 e3 8f 3b b4 cb 72 bc 17 28 25 bd ff 5d 57 bb
       0.0043910765 -0.014819074 -0.040321436 -0.0032862423
000050 05 53 14 bd 6f bf d1 bc d3 5f 50 bd 67 32 09 bd
       -0.036211986 -0.025603978 -0.050872635 -0.033495333
000060 28 a9 61 bd 78 d3 a3 3c 3b 23 ac bd 99 38 2f 3d
       -0.05509296 0.019998297 -0.08405157 0.042778585
000070 bf 44 9a bd e6 6e e7 3c f6 8e a8 3b 56 a5 8e 3c
       -0.075326435 0.028251123 0.0051439954 0.017412823
000080 41 94 3d bd 4a 3c f2 bc 49 56 7c bc ca eb d5 bc
       -0.046283964 -0.029569764 -0.015401431 -0.02611341
000090 33 18 a4 bc bf 09 b1 3c 8f 39 a9 bc de 66 50 bd
       -0.02003107 0.021611093 -0.020657329 -0.05087935
0000a0 8f 85 2a 3d 40 3a 90 3c f1 6f 16 bd 6d a2 04 3c
       0.041631278 0.0176059 -0.03672785 0.008095366
0000b0 31 89 75 bd 05 b1 36 3b 56 d5 88 3a 7a 74 5e bd
       -0.05994529 0.0027876508 0.0010439556 -0.0543103
0000c0 01 32 82 bd ac 98 2f bd 89 e2 1c 3d ab 18 e9 3c
       -0.06357194 -0.04287021 0.03830198 0.028454145
0000d0 70 28 71 bd 04 82 81 3c bd 40 3b bd 92 61 06 bd
       -0.058876455 0.015809067 -0.045716036 -0.032807894
0000e0 f8 4e 09 3d 10 3a 96 bd e4 8c bc 3c 82 88 0f bd
       0.033522576 -0.07335293 0.0230164 -0.035042293
0000f0 22 57 38 bd 53 22 38 bc 2b fa 34 3d cf 2d f1 bc
       -0.04500497 -0.011238652 0.04418389 -0.029440789
000100 ae 5c ae bc df 49 c1 3a 5f 6c 85 bd 66 49 7d bc
       -0.021284427 0.0014746747 -0.06514811 -0.015459394
000110 e6 44 d2 39 e1 50 a6 bb 93 1a 69 3d 83 00 0b bd
       0.00040105655 -0.0050755595 0.05691011 -0.033936035
000120 3e 76 71 bc 55 d6 75 bd ce 71 0e 3c b9 ab a9 bb
       -0.014737664 -0.060018856 0.008694125 -0.0051779416
000130 c7 22 be 3c a7 74 af 3b 6e e2 3f bd a3 86 98 bd
       0.023209943 0.005354482 -0.0468468 -0.07447555
000140 10 40 02 bd 93 29 89 bc 09 9f 81 bd ac a1 40 bd
       -0.031799376 -0.016743457 -0.06329162 -0.047029182
000150 b2 fc 49 bc 83 64 1a bd 3b e5 aa bd 02 55 96 bd
       -0.012328314 -0.03769351 -0.083445035 -0.07340433
000160 1b 21 1f bd 0c 33 ef ba 54 c7 42 bd 98 f9 97 bd
       -0.03884993 -0.0018249466 -0.047553375 -0.07420653
000170 93 c9 22 bc 64 58 e2 3b 00 1f b5 bd a3 06 b7 bd
       -0.009935754 0.0069075096 -0.088438034 -0.08936813
000180 07 b9 13 3d 66 92 f7 3c 39 fd 8f bd 12 fe b9 bd
       0.036065128 0.030221175 -0.0703072 -0.09081663
000190 1a 38 92 bd 3f 36 d0 bc 9c d5 a7 bd a3 4d 1d 3d
       -0.07139607 -0.025416492 -0.0819504 0.03840412
0001a0 8c f7 b7 3c 28 68 73 bd 21 62 15 3d c5 86 2b 3d
       0.022456907 -0.059425503 0.036470536 0.041876573
0001b0 98 1f 7a 3b a9 c3 93 bd 2a 35 b1 bb ae 23 1e bd
       0.0038165804 -0.072150536 -0.005407949 -0.038608246
0001c0 9e 92 37 3d 40 ef be 3c 18 0d c8 bc 24 65 50 bc
       0.04481756 0.023307443 -0.024420306 -0.012719426
0001d0 32 4b 83 3b 16 54 c8 bb 5d cf 34 bd b8 3a 24 3d
       0.0040067667 -0.0061135394 -0.04414307 0.04009506
0001e0 8a f5 82 bd 45 3f e1 bc a9 77 61 bc 48 99 83 3c
       -0.06394489 -0.02749599 -0.013761439 0.016064301
0001f0 97 33 d0 bc 02 ef 88 bc a7 7e 8a bd 34 f5 0f bd
       -0.025415225 -0.01671553 -0.06762438 -0.035145953
000200 0b 28 98 3c 0f fd 89 bc 61 50 28 bc f7 18 05 bd
       0.018573781 -0.0168443 -0.01027307 -0.03249451
000210 3b 53 7a bd 3e d7 30 bd b6 2c 7c 3d e9 37 2c bd
       -0.06111453 -0.04317402 0.061566077 -0.042045508
000220 a6 eb 0d bd 40 99 0a bd ff 93 ec bc 3c 79 53 bc
       -0.03464856 -0.033837557 -0.028879164 -0.0129073225
000230 76 38 c1 3c 80 4d 03 bd 34 90 5b 3d 62 06 b5 bd
       0.023586493 -0.03205633 0.05360432 -0.08839108
000240 c5 6b a5 bd 5a 4b 72 bc 87 5f 1a bd c8 f6 7d bc
       -0.08077196 -0.014788473 -0.03768876 -0.015500732
000250 d8 86 86 bc 6f a0 ac bd 66 02 ab bd 74 9d 8e bd
       -0.01642172 -0.08429038 -0.08350067 -0.069636256
000260 9b 7b b9 bd da 16 f1 bc bd 2f 2c bd cf 3d 91 bd
       -0.09056779 -0.029429842 -0.042037714 -0.07091867
000270 7b dc e7 bc aa e5 a5 bd 15 32 09 3c 4d 44 c0 3b
       -0.028303375 -0.081004456 0.008373757 0.005867517
000280 e9 8a 8e bc 98 60 09 b9 26 81 84 bd 4e 86 3c bc
       -0.017400222 -0.00013101322 -0.064699456 -0.01150663
000290 11 52 d2 3c 3d 23 3c 3c aa 97 fc bc 53 8b 5a bd
       0.025673898 0.011483011 -0.030834038 -0.053355526
0002a0 15 47 bc 3c d3 a4 e2 bc 65 b0 1d bd 0d 78 a8 bd
       0.022983113 -0.027666485 -0.0384983 -0.08226023
0002b0 00 64 29 bd 57 56 3b bd ee ea 04 bc 7e 61 e7 bb
       -0.041355133 -0.045736637 -0.008112652 -0.0070611825
0002c0 61 ed 48 bd 97 55 93 bd e6 e9 4d bd 41 a7 0c bd
       -0.049054507 -0.07194059 -0.05027189 -0.034339193
0002d0 dc 8f 32 3d fd 57 f8 bc 81 94 b2 bd e9 7f 4e bd
       0.043594226 -0.030315394 -0.08719731 -0.050414953
0002e0 13 8b 09 3d 04 bd 76 bd d5 f9 9b 3c aa 75 ba bd
       0.033579897 -0.060238853 0.019040028 -0.09104474
0002f0 70 5b d4 3c c8 ba 9e bd be 28 08 3d 9b ab 03 3d
       0.025922507 -0.077504694 0.03324198 0.032146078
000300 e1 42 b0 bd 20 51 65 bd 57 80 3c bd 8f 29 22 bd
       -0.08606506 -0.05598557 -0.046020832 -0.039590415
000310 0c 1b a7 bc 95 c9 97 bd 7e 9f 98 bd 44 bd c0 bc
       -0.02039864 -0.074114956 -0.07452296 -0.023527749
000320 1d 27 64 bd d4 8c 53 bd 91 f3 ea 3c e6 7d df bc
       -0.055701364 -0.051647976 0.028680595 -0.027281713
000330 2b 59 2c bd a6 8c 81 bd 67 65 59 bd d1 00 a8 bd
       -0.042077225 -0.06325655 -0.05307522 -0.08203281
000340 f9 5e 13 3d 86 2c 1f bd 0a 8a 6f 3c a7 89 2a 3d
       0.035979245 -0.03886082 0.014620313 0.04163518
000350 7b 4b b5 3c 16 97 34 bd 5f e2 fd bc 62 67 bc bc
       0.022130718 -0.0440894 -0.030991731 -0.022998516
000360 3d a5 d8 bd f1 b3 63 3e ca 52 9c bc b0 c3 18 3e
       -0.10578392 0.22236611 -0.019082446 0.14918399
000370 98 c4 57 3e fc c6 94 3d 54 ea 7b 3e 56 96 c6 3d
       0.21071088 0.07264516 0.24601108 0.09696643
000380 a3 bc 3a 3e c9 a8 9b 3d 3b 15 9d bd 49 2d 4e bd
       0.18236022 0.076005526 -0.07670065 -0.050336156
000390 79 f8 ce 3e 02 90 54 b9 bf 8e 52 3e e4 13 d2 3d
       0.40423945 -0.00020271543 0.20562266 0.102577
0003a0 6b cc 1e 3e d7 0f ad 3d 5c 03 2a 3f c5 33 12 bd
       0.15507667 0.08450287 0.66411376 -0.035693903
0003b0 23 ba c1 3d 88 c6 25 3e 45 1c c8 3c ef f0 af 3d
       0.09459331 0.16189015 0.024427542 0.08590876
0003c0 6a 93 aa 3e 11 b5 f6 bd 57 cd ee bd 0f 8f 2e 3d
       0.33315593 -0.120462544 -0.11660259 0.0426169
0003d0 c9 67 3c bc 4a ae f3 3c 34 51 71 3d 01 e2 2b 3c
       -0.011499354 0.029746193 0.058915332 0.010490895
0003e0 c6 4d 51 be cc eb f0 3c 5d 7d 27 bd 2c 51 08 bd
       -0.20439824 0.029409312 -0.04089104 -0.033280537
0003f0 73 1f 88 be ee c1 a7 3d ee c1 0e be 40 52 b8 be
       -0.26586494 0.08191286 -0.13941166 -0.36000252

bias f4 [4]
000000 7d 30 86 3c 94 07 56 3d 13 f9 c0 bd 68 33 61 3d
       0.016380543 0.05225332 -0.09422507 0.054980665

weight f4 [2, 4, 3, 3]
000000 cc 3e c5 3d 5f 65 00 3e c6 db 9b bd e8 45 0c be
       0.09631118 0.1253867 -0.07610278 -0.13698542
000010 2b b4 34 3d ab 16 10 3e a3 c1 ca 3d d6 eb 7c bd
       0.044117134 0.14071147 0.099002145 -0.06174835
000020 c8 77 0b be 48 e5 fc bc 31 b1 34 bd 3b 90 96 3d
       -0.13619912 -0.030871049 -0.044114295 0.073517285
000030 4e 2e 85 3d 70 38 a7 3e ac 73 09 3e bc 65 e1 3d
       0.065029725 0.32660246 0.13423032 0.110057324
000040 55 81 57 3e ec f8 b3 3d a2 6b 28 3e b0 01 1c bd
       0.2104543 0.087877125 0.16447309 -0.038087547
000050 0b f2 bb bd d3 2a a0 bd ab ee 28 bd 2f 46 05 be
       -0.091770254 -0.07820668 -0.041243237 -0.13015054
000060 96 1f 4b 3c 23 6a 10 be 70 c2 9c 3d 94 97 70 bd
       0.012397667 -0.14102988 0.076542735 -0.058738306
000070 94 6d 12 be a5 01 53 3d 72 8a 04 3e d7 15 de bd
       -0.14299613 0.05151524 0.12943438 -0.10844009
000080 7a 93 43 3d d9 41 bc bd 50 00 f0 3d f4 eb 83 bd
       0.047748066 -0.09192247 0.117188096 -0.06441489
000090 8b 4d 88 3c f3 30 1e 3e bb c3 de 3d 8b 41 2a 3d
       0.016638538 0.1544836 0.108771764 0.041566413
0000a0 73 35 25 be ee 7f af bd 48 67 cc 3d 50 ac 0f be
       -0.1613367 -0.085693225 0.09980637 -0.14030576
0000b0 40 b5 d3 3d 0c 0c dd be 58 58 c3 3e 7c b5 c1 3c
       0.10337305 -0.43173254 0.38153338 0.023646109
0000c0 71 72 9a be b3 1c 2a 3e e5 bc 07 3d bf 92 db be
       -0.30165437 0.1661251 0.03313913 -0.42885396
0000d0 b3 4a 2d be 36 26 7c 3e 80 d7 04 3c e7 eb 0f 3e
       -0.16923027 0.24623951 0.00810802 0.14054833
0000e0 e0 bf 9e 3d 0b bd b0 3d 98 f6 aa bd d0 26 a3 bd
       0.07751441 0.08629807 -0.08347815 -0.07966387
0000f0 fe 7c 0a 3e a8 0d b7 3d e9 65 ea 3d eb d1 17 3d
       0.13524243 0.089381516 0.11445219 0.037065428
000100 cb 86 d9 bd 12 3b ac 3c 9f 75 1c bd 16 9d 55 3d
       -0.10621413 0.02102426 -0.03819811 0.052151762
000110 fa 1b 35 3d ae b5 6e bd ae d0 96 bd c4 b4 00 3e
       0.044216134 -0.058278732 -0.07364021 0.12568957

bias f4 [2]
000000 de 9e dc be b8 70 9d 3d
       -0.43089956 0.07687515

weight f4 [140, 200]
000000 3d 1a bb 3c f6 bc 05 3d 5c e0 9c 3d 1e bc 13 3e
       0.02283966 0.03265091 0.07659981 0.1442723
000010 3e 25 c9 3d ff 73 36 3e 0e 1e 37 3e 00 25 db 3d
       0.098215565 0.17817686 0.17882559 0.107004166
000020 d5 27 10 3d 62 37 93 3c 2a 96 c4 bd 29 4a 2c be
       0.035194237 0.017970745 -0.09598954 -0.16825165
000030 7c e2 e7 bc 5f 1c 99 bd d3 a6 24 bd 2d 0d 64 bd
       -0.028306238 -0.074761145 -0.04019816 -0.055676628
000040 a4 ad 0b 3b a0 3b db bd 12 a9 46 be 44 c5 76 bd
       0.0021313215 -0.10704732 -0.19400433 -0.06024672
000050 9a 35 98 3d 0b f5 ec 3c 35 9c 9a bd 67 6c 80 bd
       0.07432099 0.02892544 -0.075493254 -0.06270676
000060 8c 80 97 3d 64 1e d9 3d d7 5a e8 bc e7 e6 a3 3d
       0.07397565 0.106015 -0.028363628 0.080030255
000070 fc 81 ad 3b 21 70 d6 bd ce ec 07 be a6 a2 d1 bd
       0.0052950364 -0.10470606 -0.13273928 -0.10236101
000080 5b 41 1d bd 44 df a7 3d 44 40 47 3c a8 f0 9a 3d
       -0.038392406 0.081968814 0.012161318 0.07565433
000090 f5 3f 57 3e 27 0c 62 3d 10 c3 c9 3d 2d 20 0e 3e
       0.21020491 0.05518737 0.09851658 0.13879462
0000a0 92 88 eb 3d 19 4a 10 be aa bd f1 bd b1 c4 2e 3e
       0.11500658 -0.14090766 -0.11803754 0.1706722
0000b0 14 80 28 3c 64 bf 10 3e 60 12 70 3d f5 d9 f9 3d
       0.010284442 0.1413551 0.058611274 0.12199775
0000c0 1a 0c 97 bc c4 55 84 3c ac 29 5d bc 09 e7 4a 3e
       -0.018438388 0.016154177 -0.013498705 0.19814695
0000d0 17 3c e6 3b 2e 6e d6 bd cc df 1e 3e a8 c0 18 3e
       0.0070262062 -0.10470234 0.15515059 0.14917243
0000e0 6f 80 79 bc 63 cf 9b 3d c7 7e 88 3d 54 bb 3b 3d
       -0.015228375 0.07607915 0.06664806 0.045832947
0000f0 ae ff 4f 3c 9b be 60 3c d3 99 9c bd 30 63 e6 3c
       0.012695236 0.013717319 -0.07646527 0.028123468
000100 3d 19 24 3d 87 52 91 3e 20 fa 86 3e 1a 7b 54 3d
       0.04006313 0.28383276 0.26362705 0.05187521
000110 fd c9 14 3e a4 2c 4a 3d f3 da 13 3e 80 b0 1f 3e
       0.14530177 0.04935898 0.14438991 0.15594673
000120 88 81 de 3d d8 8e 6e 3d 96 71 12 3e 1e 55 84 3e
       0.1086455 0.058241695 0.14301142 0.2584619
000130 86 e4 ac bc 27 f9 d9 bd 93 1e e9 3b 5f f2 a7 3d
       -0.021105062 -0.10643225 0.0071142404 0.082005255
000140 30 32 db 3d 35 3e c3 3d 08 6c d7 bc eb 1a 1b bc
       0.10702932 0.095333494 -0.02629663 -0.009466867
000150 1b e0 77 bc b7 34 e0 3d 00 1a 2e be 1f aa 21 be
       -0.0151291145 0.109475546 -0.17002106 -0.15787552
000160 c4 9d b1 bd 1a 1d 40 bd 51 98 88 bd 15 20 77 3d
       -0.086726695 -0.046902753 -0.06669677 0.06033333
000170 f9 87 a0 3b 49 83 02 3e d6 8a 3a 3e 0e a1 96 3e
       0.0048990217 0.12745394 0.18217024 0.2941975
000180 85 13 0c 3e 7c 6b 1c 3e bf f1 d8 bd c2 10 4f be
       0.13679321 0.15275377 -0.105929844 -0.20221236
000190 82 de 04 3e a1 53 9a bb 7f 0c da bd 7a b1 23 3e
       0.12975505 -0.0047096764 -0.10646915 0.1598567
0001a0 6d 89 7d 3e af 22 fe bd 58 37 52 bc f3 d5 9c 3d
       0.24759455 -0.12408959 -0.012830578 0.07657995
0001b0 65 d9 f1 bd e2 8e 89 bd e5 22 8e be 4a 8b 6a 3d
       -0.11809043 -0.06716706 -0.27760997 0.057261743
0001c0 32 89 04 3d 11 38 d8 3d e0 ac d8 bc 26 ee 3c be
       0.032357402 0.10557569 -0.02644962 -0.18450221
0001d0 16 be 36 3e d0 e2 5b 3d a3 be 74 be 9d 46 7b 3d
       0.1784595 0.053683102 -0.23900847 0.06134664
0001e0 45 b7 e2 3d 9f 72 c5 bc d9 4b 9f 3d b8 a6 8e bc
       0.11070112 -0.024102507 0.07778139 -0.017413482
0001f0 39 0f f5 3d e7 1c d5 3d d3 46 cc 3d b9 57 f1 3c
       0.11965794 0.10405903 0.09974446 0.029460775
000200 1c f7 e8 bc 18 72 28 be a4 7a 6e be f3 e3 06 3e
       -0.028438143 -0.16449773 -0.23288971 0.13172893
000210 9c 16 80 3d aa 0d 07 3e 7f 61 68 bd a2 ab 48 3d
       0.062543124 0.13188806 -0.056733605 0.048991807
000220 21 a9 7b 3e a5 e2 84 bc 19 e6 70 bd 1c b1 80 bd
       0.24576236 -0.016221354 -0.05881319 -0.06283781
000230 70 d8 1b be b4 bf d5 3b 26 29 b0 bd 27 84 df 3d
       -0.15219283 0.006523097 -0.086015984 0.10913878
000240 24 02 55 be 6b a9 96 bd df 45 d9 3d 37 a3 a3 3c
       -0.20801598 -0.07356533 0.1060903 0.019975288
000250 05 df 6d bd 46 21 d4 bc 8f df e7 bd e0 36 aa 3d
       -0.058074016 -0.025894772 -0.11321937 0.08311248
000260 26 b4 cc be 29 56 1d 3e ad 04 0e bd 11 f0 b6 b9
       -0.39981192 0.15364899 -0.034672428 -0.00034892609
000270 71 ab 77 bd 13 2e 4d 3d 2a 0a 5b be bf f0 00 be
       -0.060466234 0.050092768 -0.21390596 -0.12591837
000280 71 7f 3d be 65 7d 27 be 98 59 ab bd c6 96 14 bd
       -0.18505646 -0.16356428 -0.08366698 -0.0362766
000290 b5 26 08 be a5 e6 4b 3d 6c ba 0d bd be 0e 0a bd
       -0.13296016 0.049780507 -0.034601614 -0.033705465
0002a0 86 61 31 be 81 71 50 bd 83 40 6f 3e bf 3c fc bd
       -0.17322358 -0.050889496 0.23364453 -0.12316274
0002b0 82 72 3d be 0c 00 00 be bd ea 19 be bf f1 7d bc
       -0.18500713 -0.12500018 -0.15030952 -0.015499531
0002c0 d8 9d 17 3d 6d 87 6c bc f4 84 50 3d 7d f1 53 be
       0.037015766 -0.014436585 0.050908044 -0.20697589
0002d0 7a 8b fc bb c4 41 8a be f4 2d 48 3d 17 1c 9c 3c
       -0.0077070566 -0.270033 0.04887195 0.019056363
0002e0 73 49 4f be a9 d8 4c bb 59 ec 00 3e d1 c3 81 bc
       -0.20242862 -0.003125707 0.1259016 -0.015840443
0002f0 98 b1 34 3e a0 96 1c be 02 bc 01 3f 74 4b 1e 3d
       0.17645872 -0.15291834 0.506775 0.038646176
000300 7c 49 9e 3e 98 20 bb 3d 80 c1 a2 3d 3e 3e d3 3d
       0.3091544 0.09137076 0.079470634 0.10314606
000310 d5 15 27 3e fd a1 ac bd 55 d6 41 be b9 49 8f bd
       0.16316922 -0.08429334 -0.18929417 -0.06996483
000320 ad eb c7 3d ac 26 40 3e c8 c0 f1 bd f7 02 fb 3c
       0.097617485 0.18764752 -0.11804348 0.030641062
000330 91 61 f7 bc 5e 8c b1 3d 52 2f 1a 3d 9c ab 2f bd
       -0.03019789 0.08669351 0.037642784 -0.04288827
000340 08 c2 be 3d fe 60 eb bd 87 79 a8 bd 46 1c 54 3e
       0.09314352 -0.11493109 -0.082263045 0.2071391
000350 f2 f6 16 3d 70 49 03 bd cb bb 93 3d fa 3d 62 3e
       0.0368566 -0.032052457 0.07213553 0.22093955
000360 9a 55 63 3e 30 0a cc bd 1d f1 e5 bc fc ac c9 bb
       0.22200623 -0.099628806 -0.028069073 -0.0061546545
000370 c7 a2 17 bd f7 c1 0f be 26 b8 07 be 75 7d c3 bd
       -0.03702047 -0.14038835 -0.13253841 -0.095454134
000380 5d b4 5d bd 06 17 35 3e 7c 86 85 bc a0 ba 39 38
       -0.054127086 0.17684564 -0.016299479 4.4281245e-05
000390 3b ff bd 3d d3 5b fe bc 44 48 c1 3c b1 14 36 bd
       0.09277197 -0.031049645 0.02359403 -0.044453327
0003a0 c1 03 62 bd e9 9d a3 3d d4 fe 9f 3d e0 db 11 3e
       -0.05517936 0.07989103 0.078122765 0.14244032
0003b0 29 11 20 3e c1 b7 2b bd 23 50 a8 3d 4c 1b 99 bd
       0.15631546 -0.04192329 0.0821841 -0.074759096
0003c0 5a fa 31 be dd 13 82 bd 71 41 d4 bc d3 9b fb 3d
       -0.17380658 -0.06351445 -0.025910111 0.122855805
0003d0 19 32 3f bd 4b 2d b0 bd b6 55 b6 bd e3 cc 23 be
       -0.046678636 -0.08602389 -0.08903067 -0.15996127
0003e0 34 c1 d2 3d af 1e 1e 3d d7 50 9a 3b 4b 01 60 3d
       0.10290757 0.03860348 0.004709344 0.054688733
0003f0 aa 06 66 bd 79 37 48 bd 43 12 04 bd b0 2a a3 bd
       -0.0561587 -0.048881028 -0.03224398 -0.07967126

bias f4 [140]
000000 fc d4 29 bd d1 11 c5 bd 7e 4c b8 3b 32 8b 93 3c
       -0.041462883 -0.09622539 0.005624353 0.01801071
000010 53 27 05 3e db 45 96 3d a3 2f 80 3d 8a c7 b2 bd
       0.13003282 0.073375426 0.06259086 -0.08729465
000020 ee 5c e7 3d 94 f6 70 3d 1b 01 c5 3d 80 cc be 3d
       0.11297022 0.058828905 0.096193515 0.09316349
000030 c8 0e 0d bc 26 d8 92 bd c2 db 8d 3d d4 19 54 3d
       -0.008609481 -0.07170133 0.06926681 0.051782444
000040 e4 46 5a 3d 93 1f 86 3c 51 a0 5e 3c 56 9c 99 bd
       0.053290263 0.016372478 0.013588027 -0.07500522
000050 79 f3 c7 3d 94 1a 81 bd f4 c4 5e bd 0a d0 9d bd
       0.097632356 -0.063038975 -0.054387048 -0.07705696
000060 80 73 01 bd 6e 4a c8 3d ce 6f a9 3c 6b a6 21 bc
       -0.03160429 0.09779821 0.020683195 -0.009866337
000070 8a d4 30 bd 0d 5f e3 3d 3d d7 9a bd 6b 61 34 3c
       -0.043171443 0.11102114 -0.07560585 0.011009554
000080 27 1c 1d 3d 50 c4 88 3d 12 dd 82 bd ac 89 81 3d
       0.038356926 0.06678069 -0.06389822 0.06325087
000090 97 b5 55 bd 66 34 d7 3d a0 9b 45 bd 29 64 79 bd
       -0.05217513 0.10508041 -0.04824412 -0.060886536
0000a0 d6 31 f4 3d 27 bc bd 3c a4 ee 1b bd c0 26 62 bd
       0.11923568 0.023161007 -0.038069382 -0.055212736
0000b0 78 a7 67 3d f8 54 9c bd c4 a2 dc 3d c6 c4 ad 3c
       0.056556195 -0.07633394 0.107732326 0.021211993
0000c0 f8 1d e4 3d f9 d5 66 3d 37 fe dc 3d f8 b7 d9 bc
       0.111385286 0.056356404 0.10790675 -0.026576981
0000d0 3d bb 9d 3d e6 62 4b 3d 33 f0 40 3d 9a b4 c5 3c
       0.077017285 0.049654864 0.04710407 0.02413397
0000e0 c4 6d d0 3c f3 aa 87 bc ac 1c fe 3d 6a 18 c3 bd
       0.025442965 -0.016561007 0.124078125 -0.09526141
0000f0 5b ce ce 3b 99 82 bd bd a3 34 98 bc d7 95 26 bd
       0.0063112206 -0.09253425 -0.018579787 -0.040670242
000100 dd bf 01 3c 99 19 45 bd 26 0d 93 3d 6e 89 7d 3d
       0.007919279 -0.048120115 0.07180242 0.06189864
000110 39 fc 95 bd 8f 17 51 bc 9c 5a 85 bd 69 0c 8f bd
       -0.07323498 -0.012761964 -0.06511423 -0.06984789
000120 15 f8 e7 3d 72 b1 de 3d 8f c0 56 bd 13 65 c1 bd
       0.11326615 0.10873689 -0.052429732 -0.094431065
000130 93 71 2b 3e 49 a4 eb 3d 27 f6 82 bd 6f a7 dd bc
       0.16742544 0.11505944 -0.06394606 -0.027057378
000140 0f 60 b5 3d fa d4 a9 bd 22 ec c6 3d 1c 7a af 3d
       0.08856212 -0.08292575 0.097130075 0.085682124
000150 4c 5d 27 3d 73 94 cc bc fd af 5e bc bd ea b7 bc
       0.04086046 -0.02497313 -0.013591764 -0.0224508
000160 80 bc 93 3d 1c 10 63 bd 51 cc 34 3e d3 82 86 bd
       0.07213688 -0.055435285 0.17656066 -0.065679215
000170 f9 c9 84 bd bc 64 9c bd 8e 0d 4f bc a9 f5 2b 3d
       -0.06483836 -0.07636401 -0.012637509 0.041982327
000180 85 6b 7d bd 68 5b 4e 3d bd 64 9e bd 23 48 72 bc
       -0.061870117 0.05038014 -0.07734058 -0.014787707
000190 db 99 9a bd 27 63 96 3c 32 bd 4c bd 20 62 96 3b
       -0.07548877 0.018357826 -0.04998512 0.004589334
0001a0 11 69 21 3e 23 04 bf bb ba 09 09 3d d2 6f 8c 3d
       0.15762736 -0.0058293506 0.03345654 0.068572655
0001b0 ce c0 69 bd 93 a5 3d bd 75 c7 b4 bd 59 d9 83 bd
       -0.05706864 -0.046300482 -0.08827106 -0.0643794
0001c0 a3 ea 5d bd aa 7b 71 bd b8 b8 1b bd 72 14 ac bd
       -0.054178845 -0.058955826 -0.03801796 -0.08402337
0001d0 af a9 a2 bc 70 8e e1 3b 0e 74 af 3c 0b 91 0c bc
       -0.019856302 0.006883435 0.021417644 -0.008579503
0001e0 88 59 73 bd 2f ac 2b bd 60 a3 30 3e c9 62 79 bd
       -0.059411556 -0.041912254 0.17249823 -0.060885224
0001f0 b6 97 a6 3c fc c9 85 bd a6 12 cc 3d da a1 c6 bd
       0.020336013 -0.06532666 0.099644944 -0.096988395
000200 15 79 26 bc fa be be 3d e6 ff 93 3b f4 ea 05 3c
       -0.010160704 0.0931377 0.0045165895 0.008173693
000210 04 88 a1 3d 3c 65 8b bd 2d 41 48 bb ea 22 3d bd
       0.07887271 -0.06806418 -0.0030556426 -0.046175875
000220 ca 5a 71 bd c6 6e ab 3d 24 f4 39 bc 9d 05 61 bd
       -0.058924474 0.08370738 -0.011349712 -0.054936994

weight f4 [120, 140]
000000 10 09 c9 bd 8d 32 64 3d 1f d0 92 bd 51 7a de bc
       -0.09816182 0.05571227 -0.07168602 -0.027157934
000010 72 3d 27 39 71 0d 9b bc 6d 0c 19 bd 3b 66 23 bb
       0.00015949251 -0.018927308 -0.037365366 -0.002493276
000020 77 c2 53 bc bb 90 da bc 9d 20 d7 bc 64 ab 45 bc
       -0.012924782 -0.026680341 -0.026260668 -0.0120647885
000030 73 5e e4 3a 26 ac 14 bd 31 ef 2a bd 29 63 91 3d
       0.0017423168 -0.036296986 -0.041732017 0.070989914
000040 96 34 a2 ba 9e 30 c8 bb f9 c2 2a bd 69 70 25 bd
       -0.0012375291 -0.0061093112 -0.041689847 -0.040390406
000050 b5 89 84 bc 83 32 79 3d 61 ef 3e bd a0 dc 9a bd
       -0.016178945 0.060839187 -0.04661501 -0.07561612
000060 7e 67 44 bd 9a da 2f bb a2 44 41 bd 24 97 41 3d
       -0.04795026 -0.0026833178 -0.047184594 0.04726328
000070 4e ce 66 3d 12 81 71 bb ad 92 54 bd cf 52 ba 3c
       0.05634909 -0.0036850614 -0.051897693 0.022744564
000080 7b 4a c7 3c 13 28 fc 3c 6a 03 49 bb 65 cc 6b bd
       0.024327507 0.030780828 -0.00306722 -0.057567973
000090 b5 9b 77 3c 4e 04 2e bd e6 8d d5 bc 8f 27 71 3d
       0.015112807 -0.042484574 -0.026068639 0.058875617
0000a0 5f 41 63 bb 49 ad 8d ba 10 b7 32 3d 29 48 47 bd
       -0.0034676415 -0.0010809089 0.043631613 -0.0486528
0000b0 a0 09 b0 bb 82 ed 70 bd 23 f0 28 bd ad 9c 97 bd
       -0.005372241 -0.058820255 -0.041244637 -0.074029304
0000c0 81 36 f8 bc 0c 75 14 bd 84 03 ac bc b0 db e8 bc
       -0.030299427 -0.036244437 -0.02099777 -0.028425068
0000d0 4f e1 df b9 53 79 b3 bd bb 02 48 3d 8d a0 9d ba
       -0.00042701742 -0.08763375 0.04883073 -0.0012025997
0000e0 73 72 1d 3d 18 2c 3b bd 83 33 bc bd 4a 14 a5 bd
       0.038439225 -0.045696348 -0.091895126 -0.080605105
0000f0 55 40 31 bd d2 36 7d bd 26 08 08 bd d4 13 6f bc
       -0.043274242 -0.06181986 -0.033210896 -0.01459213
000100 83 11 5e 3d 36 3b 59 3d 9c 5f 98 ba 08 59 82 bd
       0.05421592 0.053034984 -0.0011625174 -0.063646376
000110 e2 37 88 bd ad bf 0e bd 52 a9 89 3d 8d 75 84 bc
       -0.06651284 -0.034850765 0.067217484 -0.016169334
000120 d2 7e 9a bd fc ac 86 bd 81 6a 8b 3d 63 83 a3 bd
       -0.0754372 -0.06575963 0.068074234 -0.079840444
000130 b3 c1 37 3d 5b 8b 6e 3c b3 4c eb 3c 6a 1c 15 3d
       0.04486246 0.014559592 0.028723096 0.03640405
000140 a9 a6 70 bd 25 00 b7 bc ab f6 83 bc a6 25 1a bd
       -0.05875269 -0.022338936 -0.016108831 -0.03763356
000150 d2 63 94 bc 10 cd 8f bd 3b 2f 0c 3d 60 54 2b bd
       -0.018114004 -0.070215344 0.03422473 -0.041828513
000160 df cc b9 3c 0b 82 86 3d 50 83 0c 3d 85 98 17 bd
       0.022680698 0.065677725 0.034304917 -0.03701069
000170 71 d2 18 bd 50 8b 01 bd f9 c9 31 bd 6b 3b 84 bd
       -0.037310068 -0.031627 -0.043405507 -0.064566456
000180 ff 56 8b 3d 87 39 43 3d 5d 2f 0b bb 7e d6 43 bd
       0.068037026 0.047662284 -0.0021237948 -0.047811978
000190 95 bc 3b 3d 2a 84 a5 bd 9a 22 aa 3c 44 f8 51 bd
       0.045834143 -0.08081849 0.020768452 -0.051262155
0001a0 13 f2 e5 3c db f9 8d bc 45 4c 65 bc 92 fc 48 3d
       0.028069532 -0.017331054 -0.013995235 0.049068995
0001b0 a6 ca dc 3c be 1b 98 3d a8 63 80 3d 54 81 8f 3d
       0.026952099 0.074271664 0.06269008 0.07007089
0001c0 c3 d4 57 bc 80 a3 a5 bb 62 4a 9a 3d 23 ee b8 3c
       -0.013173285 -0.005054891 0.07533719 0.02257449
0001d0 58 d1 1d bd d4 51 af bd 66 c9 80 bd 46 a1 08 3d
       -0.038529724 -0.08560529 -0.06288414 0.033356927
0001e0 7f 2b 6a bd 42 3d 8e 3d 4f e1 b4 bd 78 36 d8 bd
       -0.057170387 0.06945278 -0.08832037 -0.10557264
0001f0 07 db 6e 3c 67 18 51 3d ac 1e 6b 3d 37 b8 40 bd
       0.014578587 0.051048663 0.057402298 -0.04705068
000200 f7 25 2d bd 3d 03 53 bd 08 10 42 bd c3 62 62 bd
       -0.042272534 -0.05151676 -0.04737857 -0.055269968
000210 4a 59 c6 bd ba 7c bb bc 4f 07 14 bd 12 b1 64 bd
       -0.09684999 -0.022886623 -0.036139783 -0.05583293
000220 1f b4 64 bd e0 69 a9 bc 42 4a 29 bd e0 b1 8c 3d
       -0.05583584 -0.020680368 -0.041330583 0.068698645
000230 7c 90 b3 3c a8 5b 89 3e 86 8a a3 3d 72 db e4 bb
       0.021919481 0.2682774 0.079854056 -0.0069841677
000240 ce 85 d3 3d 65 f1 11 bc 4e 80 06 be aa 1b e4 3c
       0.103282556 -0.008907651 -0.13134882 0.027845223
000250 ef 65 27 bb 5e 43 74 bd c5 42 e2 bb f7 51 a7 bd
       -0.0025542935 -0.05963456 -0.006904932 -0.081699304
000260 31 c4 ac bc 12 6a d6 bc cb 17 78 3e 23 1e 1d bd
       -0.021089645 -0.026173625 0.24227826 -0.03835882
000270 64 58 a9 bc 2d be 98 be c0 99 05 3d 8c 90 62 bd
       -0.02067203 -0.29832593 0.03261733 -0.055313632
000280 14 31 8b 3d 76 e5 f9 3d 93 db 8c bc c8 b2 b0 bd
       0.0679647 0.12201969 -0.017194545 -0.0862785
000290 70 c6 9e bd 94 66 07 be b7 d5 cd 3d 24 00 69 bb
       -0.07752693 -0.13222724 0.100505285 -0.0035553062
0002a0 24 19 84 3d 94 e2 31 3b c6 b8 78 bd 45 fe 1f bb
       0.06450108 0.0027143108 -0.06072309 -0.002441303
0002b0 f1 c2 d4 bc 58 80 76 3d 43 0f 00 bc dd ff ce 3d
       -0.025971862 0.060180992 -0.007816139 0.10107396
0002c0 f2 57 28 bd 43 34 9f bd 26 d5 02 bd cf 56 a2 3d
       -0.041099496 -0.0777364 -0.031941555 0.07926714
0002d0 5a 99 35 3e bb 69 1d be 46 ee ea 3d 9e 9e 9b 3c
       0.1773428 -0.15372364 0.11471228 0.018996533
0002e0 2a 92 51 bd 3a b7 b5 bd d6 76 bf 3d 3d 5d 4a 3d
       -0.051164784 -0.08872838 0.09348838 0.049405325
0002f0 a3 75 97 3d d2 88 31 3d 5c bf 16 be 44 6e 16 bd
       0.07395484 0.043343373 -0.14721435 -0.03672625
000300 95 0b 73 3e ca 52 7a 3d 2b 35 50 3d ce b2 8f 3d
       0.23734887 0.06111411 0.050831955 0.07016526
000310 3d ef 34 3e 34 a3 84 bd 86 60 25 3e 0f a5 b1 3d
       0.17669387 -0.06476441 0.16150102 0.086740606
000320 4f 21 48 bd 84 4b 52 3d 22 b8 42 3d f2 75 61 3d
       -0.04885989 0.05134155 0.047538884 0.055044122
000330 1e 10 5d 3d 62 ea 45 3d 72 72 22 3e 9c 7f b7 bd
       0.05397045 0.048319228 0.1586397 -0.089598864
000340 76 d1 68 bd c2 85 3b bd 41 3d 10 3d 5e fb 03 3d
       -0.056840383 -0.04578186 0.035214666 0.032222144
000350 f9 ac b0 3d 57 83 98 3c 91 94 69 3d 07 32 94 3c
       0.08626742 0.018617315 0.05702645 0.018090261
000360 35 87 f6 3d b1 1a 6f bd aa 11 73 bd d3 25 8b bc
       0.120375074 -0.058375064 -0.059343018 -0.01698581
000370 1e 8d 3f 3c a8 09 27 bd aa 02 d7 bc 48 84 ca bc
       0.01169136 -0.040780693 -0.026246388 -0.02472128
000380 eb 55 fb 3d 2d b4 05 bc bb 9e d8 bd 06 d0 64 3d
       0.12272247 -0.008160633 -0.105771504 0.05586245
000390 b8 e5 20 bd d9 43 85 3d a8 40 bd bd f9 48 0f bd
       -0.039281577 0.065070815 -0.09240848 -0.0349817
0003a0 60 e3 56 3d 1a e3 d9 bb 6a c8 19 3d 2e 1b 91 3d
       0.052462935 -0.006649387 0.037544645 0.07085262
0003b0 60 8f 5a bc 1c 7c 03 bc 44 66 32 bd f3 63 61 3d
       -0.013339847 -0.008025195 -0.04355456 0.05502696
0003c0 1b 24 14 bd 9f 2c e5 bd af 1d c2 3d d8 f4 84 bd
       -0.036167245 -0.111901514 0.09478318 -0.06492013
0003d0 a4 65 0a 3e c0 37 73 3d 47 43 a4 be 32 61 34 bd
       0.13515335 0.05937934 -0.3208258 -0.044038005
0003e0 17 a2 6a bd 55 fb 2f 3c d4 2b 4a 3e 5a 16 36 bd
       -0.057283487 0.010741075 0.19743282 -0.04445491
0003f0 5c 97 09 3d ac 27 e4 bc b8 b9 37 3d c3 53 3c be
       0.033591613 -0.027850948 0.04485485 -0.18391328

bias f4 [120]
000000 2d 14 fb bb f9 08 36 3e 25 e5 08 3e af 16 21 3e
       -0.0076623172 0.1777686 0.13368662 0.1573131
000010 0d a2 a1 3d 0e a1 8c be 39 39 e3 3d b8 cd 00 3e
       0.07892237 -0.27466625 0.11094899 0.12578475
000020 22 93 1c bd d2 5e 1a 3e 4a 72 67 bd 54 4d 7f 3d
       -0.038226254 0.15075234 -0.05650548 0.062329605
000030 33 85 b9 bd 68 d3 cd 3d 1e 67 81 bc e2 55 30 bd
       -0.09058609 0.10050088 -0.01579624 -0.043050654
000040 e2 7e 25 3e 27 d8 0a 3e a9 f3 2c bc 9c c9 52 3d
       0.16161683 0.13559018 -0.01055614 0.0514618
000050 25 00 9c bd 37 8e 15 be e5 4b 18 3e cb 53 3f 3e
       -0.07617215 -0.14605032 0.14872701 0.18684308
000060 a3 1f c9 3d 9f 52 c9 3d 89 f8 77 3d 7f d3 6f 3e
       0.09820487 0.09830212 0.060539756 0.23420523
000070 1f 77 27 3c ba 64 f8 3c f1 3a a1 bd 56 30 b8 bd
       0.010221272 0.030321468 -0.0787257 -0.08993594
000080 9e 84 90 3c e9 24 cd 3d 4a 81 44 bd d6 f0 b3 bd
       0.017641362 0.10016806 -0.047974862 -0.0878617
000090 04 90 ac bd b6 6b 93 3d 9f 0e d0 3d c6 22 80 3d
       -0.08425906 0.071982786 0.10159039 0.062566325
0000a0 0e 78 77 bd 1d cd 3f 3d ac 0b 40 bd 6a 2b c2 3d
       -0.060417227 0.04682647 -0.04688613 0.09480937
0000b0 2a 56 ff 3c 2d ad 4c 3d 80 7c 03 3d e4 c7 05 bc
       0.031169016 0.04996984 0.032101154 -0.008165333
0000c0 e6 75 fe 3d e6 7f d5 b9 af 6f 81 3c c4 a7 43 3e
       0.12424831 -0.00040721818 0.015800325 0.19106966
0000d0 29 8a 28 3e d3 3a 16 bd 80 0c ab bc 2b 36 48 3d
       0.16458954 -0.036677193 -0.020879984 0.048879784
0000e0 95 6b b5 bd d3 5e 1f 3e d3 a3 2e 3e 38 07 a7 bd
       -0.0885841 0.15563516 0.17054681 -0.08155674
0000f0 71 2d 70 bc 7c 26 86 bd db 55 55 3d 2e 88 10 bd
       -0.014659272 -0.06550309 0.05208383 -0.03528612
000100 b0 53 66 bd 33 f8 1b 3e 84 85 1f 3e 97 ad 82 3e
       -0.056232154 0.15231399 0.15578276 0.25523064
000110 a4 c1 e2 bd f6 69 8a 3d 40 d0 b5 3c b1 b2 37 3e
       -0.1107209 0.06758492 0.022194028 0.17939259
000120 d0 86 34 3c d7 4e da 3d 56 0b 8e bd 57 d7 e8 bd
       0.01101847 0.10659569 -0.06935756 -0.11369198
000130 c8 9d 96 3d 6a f0 8b bb 8d 56 be 3b d2 d6 01 be
       0.07354313 -0.004270603 0.0058086575 -0.12679604
000140 4c 5a fe 3d 54 a0 0d be 88 4f e0 bd 84 2c 6a 3d
       0.124195665 -0.13830692 -0.109526694 0.05717136
000150 d6 db 90 3d 7e b6 8d 3a dc 0e 66 bd 6f 2e c3 3c
       0.070731804 0.0010811833 -0.056166515 0.023825852
000160 97 b9 f0 bd 50 a6 be 3d 83 5c 8d 3c d6 f5 b4 3d
       -0.117541485 0.09309065 0.017256027 0.08835952
000170 4a cf 54 bd 13 3b c5 3d bc 1a 9a bd 82 44 c7 bd
       -0.0519555 0.09630408 -0.075246304 -0.09729864
000180 a6 ed 9c bd 44 b8 c0 bd 0a cf 13 3e 55 65 7a 3d
       -0.07662515 -0.09410146 0.14434448 0.061131794
000190 a2 69 c2 3b 0e 22 45 bd a1 2a f3 3d d9 fb 8a bd
       0.0059330026 -0.04812818 0.11873365 -0.067863174
0001a0 ca 00 59 3d dc 38 19 3e 20 c6 9f bd eb da c0 bc
       0.052979268 0.14963096 -0.07801461 -0.023541888
0001b0 13 e5 b2 bd ce 0b 09 be bf 1c 21 be ff ce 1d bd
       -0.08735099 -0.1338341 -0.15733622 -0.038527485
0001c0 04 54 b5 bd a8 35 a0 3d 55 54 a7 bd c5 13 1b 3d
       -0.08853915 0.07822734 -0.08170382 0.03786065
0001d0 57 61 f9 bc d1 77 1e bd c4 94 3b 3d a7 22 f1 bd
       -0.030441923 -0.038688485 0.04579617 -0.117741875

weight f4 [84, 120]
000000 ea e6 82 3c 2c 82 8b bd c8 27 f6 3d cc 81 5e 3d
       0.015979249 -0.06811938 0.120193064 0.054323003
000010 86 c0 9d 3c 23 d1 49 be a0 a5 48 3e dd 0b 22 be
       0.019256841 -0.19708686 0.19594431 -0.15824838
000020 fe 9d 56 be 23 de 4c 3e 1f 2a 9c bd 57 20 90 3e
       -0.20958707 0.20006613 -0.076252215 0.28149673
000030 0f 63 17 3c 5a 25 0f be 50 8e c9 3d 97 2c b1 be
       0.009239926 -0.13979092 0.09841597 -0.34604332
000040 39 04 bb 3e d8 f8 5c bd 68 77 9b bd 2e bf fe be
       0.3652666 -0.053948253 -0.07591134 -0.49755234
000050 a6 1f 92 3a 01 7e 02 3d 93 44 02 3f 88 d5 ab 3c
       0.0011148348 0.031858448 0.50885886 0.020975843
000060 94 68 ae be 8b 0d b3 3e a9 7e 90 3e 58 b8 fc bd
       -0.34064162 0.3497127 0.28221634 -0.12339848
000070 55 59 9a bc 15 f8 da be f6 e1 d1 bd b6 87 ab 3b
       -0.018841425 -0.42767397 -0.10248177 0.005234684
000080 c1 4a b8 bd bc b9 aa 3e f4 28 c3 bd 3b 31 1a bc
       -0.08998633 0.3334483 -0.095292956 -0.0094111515
000090 63 7e 80 3d 5c 11 96 3d 3c 5b b0 bd d2 35 2d 3e
       0.06274106 0.0732753 -0.086111516 0.16915062
0000a0 56 17 ae bd 5f 8e 2c 3d 0d b5 76 3d c8 e2 07 be
       -0.08500545 0.042127963 0.060231257 -0.13270104
0000b0 07 92 f1 bc aa 7a e5 3c 06 71 ab 3d 15 26 38 3d
       -0.029488577 0.028012592 0.08371167 0.044958193
0000c0 f1 d4 db bb 93 35 ba bd 1c b1 74 3c c6 ff f5 bc
       -0.006708734 -0.0909225 0.014934804 -0.030029189
0000d0 43 66 10 3d d8 7d 88 3e c0 9c 0c 3e 46 83 e7 bd
       0.035253774 0.2665851 0.1373167 -0.11304335
0000e0 f8 95 3a bb 45 d9 e6 3d 51 45 36 3e d6 d4 d7 bc
       -0.0028470736 0.112719096 0.1779988 -0.026346605
0000f0 95 2f 78 be 69 e7 7d 3c 88 b8 77 3e 2b 65 58 3e
       -0.24236901 0.015497067 0.24191487 0.21132343
000100 c6 9d e0 bb 16 5f 0b 3e 77 da 54 3d 3a 3d c1 3d
       -0.0068547456 0.13610491 0.051966157 0.09435506
000110 08 49 f0 3c c5 bb d1 bd 02 c0 22 3e 7f 64 91 3e
       0.029331699 -0.10240892 0.15893558 0.28396985
000120 de 15 26 3e cb f3 0a bf a5 a9 38 bd 04 fe c3 3c
       0.16219279 -0.5427825 -0.04508366 0.023924835
000130 42 85 ba be fc 6f 09 be b0 8b 87 3c f6 ca 75 bd
       -0.36429793 -0.13421625 0.0165461 -0.06000801
000140 6c 29 12 3d 90 8e a9 3d 11 48 c4 bc 7a 32 bb 3d
       0.035684034 0.08279145 -0.023960145 0.09140487
000150 3a 7c 85 be 91 08 1a 3d 3b 91 7e bd 77 ff 47 be
       -0.2607134 0.037605826 -0.06215022 -0.19531046
000160 ec 99 b9 3d ad 8c 32 3e b9 d8 c7 3b a0 8c dd bd
       0.090625614 0.17436476 0.0060988334 -0.10817838
000170 45 6d 72 bd 84 c5 79 be 55 0f e7 3c 1b a0 8d bd
       -0.05918624 -0.24391752 0.028205553 -0.06915303
000180 e6 8a df bc 7f 2a dd bd 25 29 93 be f5 fb ac be
       -0.027287912 -0.10799121 -0.28742328 -0.33785978
000190 9b 89 f1 3c c3 34 a4 3d ae a6 03 3f 45 be 9e 3d
       0.02948456 0.08017876 0.5142621 0.07751135
0001a0 24 25 d3 3d 4c 34 83 3e 84 61 fb bd e8 52 8a ba
       0.103098184 0.25625837 -0.12274459 -0.0010553272
0001b0 c9 7a ef 3e a1 18 79 bc 5f 78 af bd b9 4d c9 bb
       0.46773365 -0.015203626 -0.08567881 -0.0061432985
0001c0 b6 fe 9a bc 69 d6 f0 3b a7 17 b6 bd 4c a6 9b 3d
       -0.018920284 0.0073497784 -0.0889123 0.07600078
0001d0 1b 95 fd 3d 2b 2d 1c bd c9 73 25 3d 66 b5 9e bc
       0.12381955 -0.038129013 0.040393624 -0.019373607
0001e0 81 f8 45 3d a3 12 c4 3c 23 6e 2b 3e 0c 51 11 3d
       0.048332695 0.023934668 0.16741233 0.035477683
0001f0 5f b8 ee 3c 10 77 9d 3e 59 b6 22 bc 13 13 12 be
       0.02914065 0.307549 -0.00993117 -0.14265089
000200 cd 6c 68 3e 56 9e a6 bd 38 a8 2b bc 62 9f 0a be
       0.22697754 -0.08135669 -0.010477118 -0.13537362
000210 65 10 3d 3d 0f 22 90 3e ed e9 d7 3d 22 e0 88 3e
       0.046158213 0.28150985 0.10542665 0.267335
000220 25 ec 1a bd 44 2d 19 3e 4b b2 19 bc 00 30 81 3d
       -0.03782286 0.14958674 -0.009380887 0.063079834
000230 d0 23 f4 3d 50 00 0e bd d7 ec a0 be 7f ad d5 3d
       0.11920893 -0.034668267 -0.31430694 0.104334824
000240 f8 18 b4 bd 61 c5 c5 3e 45 ba 97 be 4f 30 fc bc
       -0.08793825 0.3862715 -0.296343 -0.030784754
000250 97 db 2e 3c 93 bf 05 3e e4 e9 76 bd 0d 02 57 3d
       0.0106724715 0.13061361 -0.06028165 0.05249219
000260 02 2a b2 bd 7c 8d d4 bd a9 f7 a0 3d d7 3f 56 3d
       -0.086994186 -0.103785485 0.078597374 0.052306976
000270 9e f5 1c 3e 5c a7 bd 3d 6c e9 14 3e 89 ec ca 3d
       0.1532807 0.09260437 0.14542168 0.09908397
000280 15 9a 53 3d f9 68 31 be cd 72 93 3d 78 a4 17 3e
       0.051660616 -0.173252 0.07199631 0.14808834
000290 0d 17 8b 3b 88 ea bc 3d 23 7b eb 3c 80 42 f3 3a
       0.004244691 0.09224421 0.02874524 0.0018559247
0002a0 9f a7 99 3d c1 10 58 bd 15 ae 41 3d 3f 01 b6 bc
       0.07502674 -0.052750353 0.04728516 -0.022217391
0002b0 e1 c8 e9 3c ba 1a d9 bd 6a 5b dc 3d 9d 14 00 3e
       0.02853817 -0.10600801 0.10759623 0.12507863
0002c0 79 45 b8 bd aa 72 0d be 5a 55 d1 3d 60 05 06 bd
       -0.08997626 -0.13813272 0.10221358 -0.03271997
0002d0 60 52 6d be e5 f2 90 bd f0 9b f5 3d db 8f 10 bd
       -0.23175955 -0.070775785 0.11992633 -0.03529344
0002e0 35 33 48 3d de b9 5e be fa ec 0e 3e c1 58 30 bd
       0.04887696 -0.2175059 0.13957587 -0.043053392
0002f0 2d 6f 01 3d 3f a4 d8 3d b9 21 aa bd 91 d5 51 be
       0.031600166 0.105782025 -0.08307213 -0.20491625
000300 4f 0e 95 bc f9 0f b0 3d b3 dc 0e 3d d1 81 64 3c
       -0.0181953 0.085967965 0.034878444 0.013946966
000310 59 15 a1 3d 25 39 e8 3d 15 66 b8 bd 7d a9 42 3d
       0.078654 0.113390245 -0.090038456 0.047524918
000320 36 0b e9 3d c0 7c d2 bd bc d0 2c bd 5f aa 31 3e
       0.113790914 -0.102777004 -0.042191252 0.17350148
000330 f1 c4 02 3e 7b 69 61 3d 72 54 1f 3e 02 7d 67 be
       0.1277044 0.055032235 0.15559557 -0.2260628
000340 b8 a6 72 3c 98 81 50 3e ce 62 df 3c 57 3d 1c 3e
       0.014810257 0.20361936 0.027268793 0.15257774
000350 87 cd 69 bd c3 93 f5 3d 14 25 82 bd 8f 0b 71 3e
       -0.05708077 0.11991074 -0.06354728 0.23539566
000360 05 7d de 3c 6a e5 b9 bc a2 89 33 3e 84 6e 76 3d
       0.027159223 -0.022692401 0.17532972 0.06016399
000370 d0 7c 9b bc 00 0d b0 3c 9f ab 85 be 96 e7 d6 bc
       -0.018980414 0.021490574 -0.261075 -0.026233476
000380 8d e9 8b bb 33 d2 90 3d 43 35 99 bc 79 72 3d 3e
       -0.004269785 0.07071342 -0.018702155 0.18500699
000390 ed 29 04 3d 01 89 5f bd 2b ac 14 3e 88 45 bf 3c
       0.032266546 -0.054574016 0.14518802 0.023348585
0003a0 a6 41 92 bd 14 78 99 3d 2b 01 c5 3d f5 74 31 3e
       -0.07141428 0.07493606 0.096193634 0.17329772
0003b0 83 c1 5f 3e b4 07 85 3d cc 7e 02 3d c5 e1 a2 3d
       0.21851163 0.0649561 0.031859204 0.07953218
0003c0 eb 05 59 3c bf 3a dd bd 5b dc 8b bd 42 2c 0f bd
       0.01324604 -0.108022206 -0.06829139 -0.034954317
0003d0 5a f1 13 be 0d 78 9b bd 31 95 17 bc 6c a7 1c 3d
       -0.14447537 -0.07591257 -0.009251879 0.038245603
0003e0 cd 53 0a be 10 39 ca 3c f5 4e 8f 3c 2c a4 97 3c
       -0.1350853 0.024685413 0.017493704 0.0185109
0003f0 e6 69 39 3d c1 26 ac bd f3 20 57 bb 36 3a c9 3c
       0.04526701 -0.08405829 -0.0032826036 0.02456389

bias f4 [84]
000000 aa 52 b0 3d 59 c0 e9 ba c9 ee de bd c3 50 a1 bd
       0.08609517 -0.0017833813 -0.108853884 -0.07876732
000010 c8 d2 3f 3e 4d 48 83 3e b4 f4 f2 bd 0f 5f 2b 3d
       0.1873275 0.256411 -0.1186308 0.0418387
000020 72 5a b1 bd 3b 97 93 bb fd 9a 98 bd 32 8b b0 3c
       -0.08659829 -0.004504112 -0.07451437 0.021550748
000030 10 44 00 bd 90 ff b6 3d 60 cf b6 3d e7 f3 b9 3d
       -0.03131491 0.089354634 0.089262724 0.09079724
000040 f8 86 54 bd 50 b2 ac 3e 5a ac 18 3e fd 99 50 3e
       -0.05188653 0.33729792 0.14909497 0.20371242
000050 18 e1 87 3d b0 49 87 bc 42 f8 30 3e 86 e8 30 3d
       0.0663473 -0.01651463 0.17282203 0.0431905
000060 02 2c 1b bd cd dc e1 bc dc 91 bb 3d 01 47 e4 3d
       -0.037883766 -0.027571106 0.0915868 0.111463554
000070 26 87 b9 3d 32 ac 85 bd 10 c7 b9 3d eb 05 17 bd
       0.09058981 -0.06526984 0.09071171 -0.03687088
000080 b3 a2 c7 3c 9f 26 ee 3c 92 27 d4 bd 34 66 a8 bd
       0.024369573 0.02907115 -0.1035911 -0.08222619
000090 1e e6 21 3b f0 d2 b6 3c 99 12 a7 3c 19 2f 79 bd
       0.002470381 0.02231738 0.02039461 -0.06083593
0000a0 08 22 93 bc ef bd 2d bd 60 26 47 3b ae d3 21 bd
       -0.017960563 -0.042417463 0.0030387864 -0.039508514
0000b0 16 87 36 3d 09 fa 3d 3e 38 00 86 bd be 6c 1c be
       0.04456242 0.18552412 -0.065430105 -0.15275857
0000c0 4e 62 64 bd 00 97 fc 3c 48 20 6e bc c8 2f 0c 3b
       -0.055757813 0.030833721 -0.014534064 0.0021390785
0000d0 57 e6 e6 bc 0d bf 88 bd 29 ca e0 3c 8d 7b a2 bd
       -0.028186006 -0.06677065 0.027440147 -0.07933722
0000e0 ee 48 8d bd 29 56 88 bd 0b a2 8b 3d e4 35 3a bb
       -0.06898676 -0.06657059 0.068180166 -0.002841347
0000f0 b8 53 ad bc ab b8 ef 3d 1e 76 3f 3e e3 a2 3b 3e
       -0.021158084 0.117051445 0.18697402 0.18323855
000100 7f d1 b6 3e 57 14 23 3b 12 10 63 3e ee 3d ec 3d
       0.35706708 0.002488395 0.22174099 0.1153525
000110 70 78 c1 3d 85 48 41 3e b7 da 94 bd 49 59 52 3c
       0.094468 0.1887532 -0.07268279 0.01283867
000120 0f 9c cb 3d 5b ce 01 3e c1 df 84 3d 78 4c bf 3d
       0.09941875 0.12676375 0.0648799 0.09340757
000130 47 ac 01 be 7f 86 ae bc 93 ed 35 3e 2d 55 c5 3d
       -0.12663375 -0.021304367 0.17766409 0.096353866
000140 21 0c 2a 3d 5d 1a d2 3c 54 b9 9a 3e 77 bd 0a 3d
       0.041515473 0.025647337 0.3021952 0.033872094

weight f4 [42, 84]
000000 62 20 b7 3d 4d df 0f bd fe 67 cb bd fe 5a 16 3d
       0.089417234 -0.035125066 -0.09931944 0.03670787
000010 5a a1 f0 bd 1f 2c 86 3c d1 f8 cd 3d df 53 61 3d
       -0.11749525 0.01637846 0.100572236 0.055011626
000020 e0 7b 41 bd 3f 0c 0c be 61 82 05 3d ae 2e 8f bd
       -0.047237277 -0.13676547 0.032595042 -0.06991325
000030 99 d6 27 bd 42 7c 93 bd cc eb 88 3d 7b b6 55 3d
       -0.04097614 -0.07201435 0.066856 0.05217598
000040 a7 d6 ac 3d 1e 92 47 39 98 19 3e bd ca f8 c0 3b
       0.08439379 0.00019032552 -0.046411127 0.005889033
000050 31 2c 0a 3c c7 11 81 bd 2c ad 36 3d 54 4c 35 3a
       0.008433388 -0.06302219 0.044598743 0.0006915976
000060 ee 55 f4 bd 6b ba cb 3d 6f b7 41 bd e5 c3 3a bd
       -0.11930452 0.09947666 -0.047294077 -0.045596976
000070 c2 22 90 bd f4 d3 a9 3d 48 8e 02 be 85 b8 9e bd
       -0.070378795 0.0829238 -0.12749588 -0.07750038
000080 fa 32 5d 3d 18 98 c4 3b 78 e4 93 bd 79 d3 01 bd
       0.054003693 0.0059995763 -0.07221311 -0.031695817
000090 48 20 9b bd 16 19 99 3d 53 f0 aa 3d fb 80 9a bd
       -0.075745165 0.07475488 0.083466195 -0.07544132
0000a0 f1 6c d4 bd b2 4a 95 bd d3 a1 c1 bd a5 cf 5f bd
       -0.103723414 -0.072896376 -0.09454694 -0.054641385
0000b0 3e 84 ad 3d 2e 27 9a 3c 30 ef da 3d da 80 09 bd
       0.08472489 0.01881751 0.10690153 -0.033570148
0000c0 39 c8 9e bd 31 8d fb bc 7d 96 5e bd c6 89 0d ba
       -0.07753033 -0.030706974 -0.054342736 -0.0005399253
0000d0 e7 98 f0 bc 03 e0 ce bd 26 e6 9a 3d cd 3d 3e bd
       -0.029369785 -0.101013206 0.075634286 -0.046445657
0000e0 c6 86 a2 bd cb 1c 2d bd 79 83 0a be 54 6d e2 bc
       -0.07935862 -0.042263787 -0.13526715 -0.027640022
0000f0 50 31 d2 bd b7 76 24 bd 96 b6 09 be e6 6a cb bd
       -0.10263312 -0.040152278 -0.13448557 -0.09932499
000100 84 85 34 3d 94 2f fb 3a 6d b8 61 bc 0f 31 85 bd
       0.044072643 0.001916396 -0.013776881 -0.06503498
000110 13 43 92 3d 67 7f 08 be 42 3c 73 3c b5 42 c2 3d
       0.071417 -0.1332985 0.01484591 0.094853796
000120 92 d3 fa bc 8a ff cb 3d 1d db 8b 3d cf 36 9a bd
       -0.030618463 0.099608496 0.06828902 -0.07529985
000130 77 f5 d8 3d cb cb c5 bd 97 47 9c bd a5 23 cb bd
       0.10593694 -0.09658011 -0.07630842 -0.09918908
000140 df 0f d2 39 57 da be 3d 2f 98 2d bd 83 db 7b 3d
       0.00040066146 0.09318989 -0.04238146 0.06148864
000150 39 e5 37 bb cd 23 59 bd 47 e6 0c 3d d2 b2 2b 3b
       -0.0028060211 -0.053012658 0.034399297 0.0026199115
000160 39 26 8e 3d 75 27 b6 bc 0e 1f 0a be c3 e7 d6 3d
       0.06940884 -0.022235611 -0.13488409 0.10493424
000170 c4 59 0f be 21 22 40 3d f1 5b 15 3e ad 97 09 3d
       -0.13999087 0.046907548 0.14585854 0.033591915
000180 ad 54 1d 3d c0 43 ce 3e 7e 97 16 be cb 23 5a bc
       0.03841083 0.40286064 -0.14706227 -0.013314198
000190 f5 59 c6 3d e3 55 c3 3d 74 58 82 3e f2 6b 0a 3e
       0.09685127 0.09537866 0.2545811 0.1351774
0001a0 c5 7c 59 3d d6 d4 1b be 45 20 a6 bd fc 3b 7a 3c
       0.053097505 -0.15217909 -0.08111624 0.01527309
0001b0 2c 2f e4 3d b5 15 f0 3d b1 a0 ef bd 61 c6 d1 bc
       0.1114181 0.1172289 -0.11700571 -0.02560729
0001c0 a4 29 a5 bd 7d b1 3d bd 71 2e b8 bd 24 42 68 3c
       -0.08064583 -0.046311844 -0.08993233 0.014175925
0001d0 2c 7f bb 3e 7d c5 fc bb 89 8d 4b bd 70 3a 8a 3d
       0.36620462 -0.007713972 -0.049695525 0.06749427
0001e0 51 b1 fb bd 30 4d 95 bd 6c ac a6 3b 1b a3 62 3e
       -0.1228968 -0.07290113 0.0050864723 0.22132532
0001f0 4b 56 82 3d f5 62 f1 bc 98 1d 20 bc df c4 5e 3d
       0.06364115 -0.029466132 -0.009772681 0.05438697
000200 c1 f1 45 bd 89 c0 4e be a7 80 c6 bd 8e ad 88 3e
       -0.048326258 -0.20190634 -0.09692507 0.26694912
000210 1f 79 74 3d 17 9c f2 3d d0 ce c6 3d 53 07 4f bc
       0.059685823 0.11846178 0.09707415 -0.012636024
000220 eb ac 95 3d f6 5e 72 bd f1 95 1e bd 48 ed 1e bd
       0.07308372 -0.059172593 -0.038717214 -0.038800508
000230 97 76 00 bd e5 69 6c bd af 8b 55 bd 39 93 9c bd
       -0.031363096 -0.057718176 -0.052135166 -0.07645268
000240 af d3 49 3d 06 a8 d4 bc 16 6d 82 3e cc 24 48 3d
       0.049274143 -0.025959026 0.2547385 0.048863217
000250 f5 6c 96 3d dc a7 51 3d 2e f9 b7 3d a6 91 f6 bd
       0.07345001 0.051185474 0.08983074 -0.12039499
000260 25 0c 2d bd f2 80 d9 bc 0d 3d e1 bc 3b e9 c8 3d
       -0.04224791 -0.026550744 -0.027494932 0.0981011
000270 bd 17 d5 bd f4 8d 1a bd c9 37 d5 bc cf 55 b0 bd
       -0.10404918 -0.037733033 -0.026027577 -0.08610117
000280 28 4a 0d 3c 82 63 88 3e d8 58 47 3d d8 72 ca 3b
       0.008623637 0.26638418 0.048668712 0.006178241
000290 ed 91 e4 3c 2b 9f 75 bc 82 17 5c bd df 51 83 ba
       0.027901614 -0.014991562 -0.053733356 -0.0010018906
0002a0 d7 87 8a be 6c 3b 48 3d ec 58 cb bd 14 a8 b4 3d
       -0.27056763 0.048884794 -0.0992907 0.08821121
0002b0 14 17 42 3e 98 1b 1b 3e fe 4b 8e 3d d0 80 cf 3d
       0.18954116 0.15147245 0.06948088 0.10131991
0002c0 85 ba 76 3e a7 16 8d 3c 45 ec 41 bd da 46 eb 3c
       0.24094589 0.017222716 -0.047344465 0.028720308
0002d0 5c fc b5 bb 98 56 36 3e 73 e4 e4 3c 81 8a ea 3d
       -0.005553765 0.1780647 0.027940964 0.11452199
0002e0 b1 b4 02 3c ee f5 91 3d 75 a9 05 be ce 5d 21 bd
       0.0079776505 0.071269855 -0.13052924 -0.0393961
0002f0 27 e2 8a 3d 94 21 c4 bd 77 0b 57 3e 93 86 cc 3d
       0.067814164 -0.09576717 0.21000467 0.099866055
000300 be 08 9e 3c eb 81 98 bd fd f9 62 3e 6f ab 91 3d
       0.019291278 -0.07446655 0.22165675 0.071127765
000310 c9 c1 15 3e a4 6e 8d 3d b3 ad 72 3d 3b 19 62 bd
       0.14624704 0.06905869 0.059247684 -0.055199843
000320 e0 c0 87 be 7e 22 43 3e 3a 87 d1 bc 98 91 a4 bd
       -0.2651434 0.19056126 -0.025577176 -0.08035582
000330 c0 03 8b 3c fb f3 7e bd a8 60 5e 3d 6b 45 1b 3e
       0.016969562 -0.062244397 0.054291397 0.151632
000340 b7 0e 78 3e 26 94 d0 3d 9a b4 c0 bd 18 70 2f 3d
       0.24224363 0.10184507 -0.09409447 0.04283151
000350 fb b4 0c be 44 ac 91 3e 6e 0a 1c 3c 8a 95 ab ba
       -0.13740914 0.2845174 0.009523971 -0.0013090831
000360 d0 7d 3e be 6a 93 06 be 15 78 1a be f8 a3 f2 bc
       -0.18602681 -0.13142172 -0.1508487 -0.029619202
000370 d0 9e 8c bd 12 7c 48 bc 2a 14 f8 bd 98 97 10 3d
       -0.068662286 -0.012236612 -0.12113221 0.03530082
000380 fc 31 23 39 71 fa 9b 3d 0a 20 48 3e 5b 6e 82 bd
       0.00015563512 0.07616127 0.19543472 -0.06368705
000390 d5 de ce bd 43 7e 1e bd 63 d8 ba 3d 1a a9 bf bd
       -0.101010956 -0.03869463 0.09123304 -0.093584254
0003a0 e4 2b 27 be 3e c3 a2 bd 24 67 a0 be 7c 9d b2 3d
       -0.16325337 -0.07947396 -0.3132869 0.08721444
0003b0 fe cf 20 3e ab f7 a9 bb cf 77 12 3c 71 bf ee 3d
       0.15704343 -0.005186995 0.008939697 0.11657608
0003c0 3e 6d 22 3e d2 65 05 3e ed df 25 bd a6 b3 f4 3d
       0.15861985 0.13027123 -0.040496755 0.11948328
0003d0 c6 b0 2a bd 06 97 82 3c a9 f2 04 3e 9a 9b 47 bc
       -0.04167249 0.015941154 0.12983193 -0.012183094
0003e0 3b 65 c2 bc 84 59 7a bd 4f 22 c2 bd 35 fd a2 3e
       -0.023729911 -0.061120525 -0.094792 0.31833807
0003f0 f2 ad 68 be d0 16 39 3e d9 fd d8 3d d2 ca 92 3d
       -0.22722605 0.18075109 0.105952926 0.07167591

bias f4 [42]
000000 d0 13 78 bd c4 0c 57 3e 69 19 52 3c b9 95 62 3b
       -0.06056577 0.21000963 0.012823441 0.0034574105
000010 8c c1 2d 3d 51 9d 18 be 38 46 01 3e ef 85 e0 3d
       0.04242091 -0.14903761 0.12624443 0.10963046
000020 91 14 ba 3d ae 07 6d 3e 7e ef 94 bc a7 ae ea bd
       0.09085954 0.23147461 -0.018180605 -0.114590935
000030 ed 40 a6 3e 5c b3 6b 3d 1c 0e 05 be 04 e5 b7 bd
       0.3247141 0.057544097 -0.12993664 -0.08979228
000040 70 da 45 3d f3 4b 63 3d 7b dc f4 bc 66 4a 67 3d
       0.04830402 0.055492353 -0.02989029 0.056467436
000050 3a 1a 1c 3a 6e b4 c4 3d b9 c4 25 3d 6c bc d6 bd
       0.0005954836 0.09604727 0.040470812 -0.10485157
000060 87 37 6d bd 62 b9 d1 bd d8 be c8 3e 06 e1 ae bc
       -0.057914283 -0.10240437 0.39208102 -0.021347534
000070 67 90 74 bc 7c 68 f7 bc af a0 da 3c 95 4c a0 bd
       -0.014927006 -0.03020119 0.026687948 -0.07827107
000080 55 59 92 3c d7 ab aa 3e 6b 3f 21 be fa 1d 7b bd
       0.017864862 0.33334228 -0.15746848 -0.061307885
000090 1b c0 e6 3d 67 2a 1e 3b a8 16 fb bb 9b 5f a5 3a
       0.1126711 0.002413416 -0.007662613 0.0012616994
0000a0 b9 18 aa 3e 7e 89 ae 3d
       0.33221987 0.08522318
