models/model.pth (torch, 417150 bytes, 16 tensors)

weight f4 [4, 1, 3, 3]
0	0xbe3b8684	-0.18313032
1	0x3f21def2	0.6323081
2	0x3f558f0f	0.83421415
3	0x3f542ad8	0.82877874
4	0x3f13dec0	0.57761765
5	0x3f676525	0.9038871
6	0x3f81344d	1.0094086
7	0x3f54d96d	0.83144265
8	0x3f52f930	0.8241148
9	0x3ebfc23a	0.3745287
10	0x3f0c4fcb	0.54809254
11	0x3eef625c	0.4675473
12	0xbdb2764a	-0.08713968
13	0xbdf10f81	-0.11770535
14	0x3e45adf0	0.19304633
15	0xbed6158a	-0.41813308
16	0xbe730bdd	-0.23734994
17	0xbe1dfc0e	-0.15428182
18	0x3e8b0ed3	0.27159747
19	0xbceb5a65	-0.028729627
20	0xbbfccd68	-0.007714916
21	0x3e8b5618	0.27214122
22	0x3e596b5d	0.21232362
23	0xbe574659	-0.21022929
24	0xbf25be03	-0.6474306
25	0xbf00dffe	-0.50341785
26	0x3e3d1350	0.18464398
27	0xbe0d93db	-0.13825934
28	0xbe208f83	-0.15679745
29	0xbe8fbf0e	-0.2807545
30	0xbe4a6c60	-0.19767904
31	0x3de7793b	0.1130242
32	0xbe6361a0	-0.2220521
33	0x3d4a114b	0.049332898
34	0xbe289b93	-0.16465597
35	0xbe981048	-0.29699922

bias f4 [4]
0	0xbd301e68	-0.042997748
1	0xbbbc0d51	-0.005738892
2	0x3ede5ac6	0.4342863
3	0xbea791cb	-0.3272842

weight f4 [2, 4, 3, 3]
0	0xbe725097	-0.23663555
1	0xbe6124ae	-0.21986648
2	0xbe366020	-0.17810106
3	0x3e99c470	0.30032682
4	0xbe04c6e0	-0.1296649
5	0xbd8aef6e	-0.06783949
6	0x3de9a993	0.11409297
7	0x3d313ae4	0.043269053
8	0xbdbdc55b	-0.09266158
9	0xbf0cb1f6	-0.54959047
10	0xbd812e61	-0.06307674
11	0x3e4d6ccc	0.20061034
12	0xbe86e2a3	-0.26344785
13	0xbe3b6b32	-0.1830261
14	0xbe8db1cf	-0.2767472
15	0x3b5ce447	0.00337054
16	0xbe855ba5	-0.26046482
17	0xbe10fba6	-0.14158496
18	0x3db05555	0.08610026
19	0xbd34f748	-0.04418114
20	0x3d6032c9	0.054735932
21	0x3dcc0fef	0.099639766
22	0xbd99e952	-0.075152054
23	0x3e7d0ac5	0.2471114
24	0x3e8d8570	0.27640867
25	0xbd963efb	-0.07336231
26	0x3b1e65b1	0.00241695
27	0xbd2558ab	-0.040367763
28	0x3c5c72ab	0.013455073
29	0x3da270a3	0.0793164
30	0x3d508e4b	0.05091695
31	0xbde6efd8	-0.11276215
32	0x3c4d06ab	0.012513797
33	0x3e2330d4	0.15936595
34	0xbe1121b7	-0.14173017
35	0xbe15658c	-0.14589518
36	0x3df529ba	0.11970849
37	0xbe3721e2	-0.17884019
38	0xbe929f6e	-0.2863726
39	0x3e97aafc	0.29622638
40	0xbe64f229	-0.22358002
41	0xba964b9c	-0.0011466625
42	0xbeb82e28	-0.35972714
43	0xbe84c5e3	-0.25932226
44	0x3e9a1e11	0.30101064
45	0xbebb56cc	-0.36589658
46	0xbf2adffc	-0.66748023
47	0xbf494465	-0.78619987
48	0x3c85a70d	0.016315008
49	0xbe4dadd6	-0.20085844
50	0xb8461011	-4.722184e-05
51	0x3ea13f14	0.31493437
52	0xbeeb7db3	-0.45994338
53	0xbeb57693	-0.35442027
54	0xbcfea2a9	-0.031083422
55	0x3ddba2b1	0.1072439
56	0xbd710833	-0.05884571
57	0x3ea6a6ee	0.32549232
58	0x3e568446	0.20948896
59	0x3e057b84	0.13035399
60	0x3e60bdd3	0.21947412
61	0x3e49cd69	0.19707264
62	0x3e177f68	0.14794695
63	0xbcde742b	-0.027155003
64	0x3db8bd2e	0.09020458
65	0x3e01d81b	0.12680094
66	0xbd81bb8e	-0.06334601
67	0x3e25be94	0.16185981
68	0x3d4d4310	0.050112784
69	0xbe16fc38	-0.14744651
70	0x3dfcfeab	0.123532616
71	0x3e1381d0	0.14404988

bias f4 [2]
0	0x3df0345a	0.11728735
1	0x3e83b591	0.25724462

weight f4 [2, 2, 3, 3]
0	0xbea66646	-0.32499903
1	0xbca689b5	-0.020329336
2	0x3d959071	0.07302941
3	0xbe7bd5ab	-0.24593227
4	0xbe1ce8a9	-0.15323128
5	0xbe33d5c5	-0.17562015
6	0xbea0472d	-0.31304303
7	0x3dbb0fe7	0.091338925
8	0x3b6fe89f	0.003660716
9	0xbe5697ac	-0.20956296
10	0x3ecdff07	0.40233633
11	0x3e8e9256	0.2784602
12	0xbe6fe4c2	-0.23427108
13	0x3dd71ced	0.10503564
14	0x3ec09d87	0.37620184
15	0x3c634610	0.013871685
16	0x3e0ba186	0.13635835
17	0x3b2eb0be	0.002665564
18	0xbd918e4a	-0.071072176
19	0xbcb2cc4d	-0.021825934
20	0x3d620b18	0.05518636
21	0xbe65731a	-0.22407189
22	0x3ddeec94	0.108849674
23	0xbea5885e	-0.32330602
24	0xbeb2ad2e	-0.3489775
25	0xbf01460d	-0.50497514
26	0xbdb6349e	-0.08896755
27	0x3d867724	0.06565693
28	0x3d0da94a	0.034585275
29	0x3cc14e23	0.023596829
30	0xbd1a7c5d	-0.03771626
31	0x3f23198f	0.63710874
32	0x3d8dd339	0.06925053
33	0x3e8d4b0c	0.2759632
34	0xbe8a0590	-0.2695737
35	0xbe9588ae	-0.2920584

bias f4 [2]
0	0xbdfc99b1	-0.12334002
1	0x3d677a97	0.056513395

weight f4 [242, 242]
0	0xbd4f9afd	-0.050684918
1	0xbe209fcf	-0.15685962
2	0xbd634ddd	-0.055494178
3	0xbe0fdec4	-0.14049822
4	0xbda3122a	-0.07962449
5	0x3da5aec7	0.08089977
6	0x3d9774fb	0.07395359
7	0x3ca5f5b2	0.020258758
8	0x3e4decdc	0.20109886
9	0x3d22f6bf	0.039786097
10	0xbbbc9cf3	-0.0057560145
11	0x3d2a1c6d	0.041531015
12	0xbd86d0df	-0.06582808
13	0x3dc130ee	0.09433161
14	0x3de25238	0.11050838
15	0xbd1e53a4	-0.038653985
16	0xbd2781d1	-0.040895287
17	0x3e48541a	0.19563332
18	0xbdc1e4fc	-0.094675034
19	0x3d5164f4	0.051121667
20	0xbe5bd7d3	-0.21469049
21	0x3dd16568	0.1022442
22	0x3e1c41b7	0.15259443
23	0xbd272814	-0.040809706
24	0xbd5c5443	-0.053791296
25	0xbccdca79	-0.02512096
26	0xbd898272	-0.067143336
27	0x3c9c96bf	0.01911485
28	0x3e04c551	0.12965895
29	0x3d7aa71c	0.061194524
30	0x3d51bfd6	0.05120834
31	0x3da5c2ba	0.08093782
32	0xba81f4af	-0.000991484
33	0x3c86e709	0.016467588
34	0x3b26eb52	0.0025469852
35	0x3bd3321e	0.0064451834
36	0xbe053424	-0.13008171
37	0x3d8e9701	0.069623955
38	0x3e6d57a2	0.2317796
39	0x3e076820	0.13223314
40	0x3c801354	0.015634216
41	0x3e0ebb3b	0.1393861
42	0xbcf3f496	-0.029779714
43	0x3d0575a8	0.03258291
44	0x3dacab75	0.0843114
45	0xbc52ffba	-0.012878353
46	0xbd21377e	-0.039359562
47	0x3d5ad85f	0.053429004
48	0x3d59bc47	0.05315807
49	0x3d861970	0.065478206
50	0xbba76d37	-0.005109455
51	0x3e01f817	0.12692295
52	0x3c0101c1	0.007873953
53	0x3d8e10d6	0.06936805
54	0xbdaea622	-0.08527781
55	0xbd7aa700	-0.06119442
56	0x3d1ae61d	0.03781711
57	0xbd663e1b	-0.056211572
58	0x3d32a232	0.043611713
59	0x3d432b67	0.047648814
60	0x3cb85336	0.022500616
61	0x3e090c33	0.1338356
62	0x3e831657	0.2560298
63	0x3d0456cd	0.032309342
64	0x3d9771ba	0.073947385
65	0xbdc13086	-0.09433083
66	0x3d334b62	0.043773063
67	0x3d410148	0.047120363
68	0x3c734605	0.014848237
69	0x3c8ff11f	0.01757103
70	0xbd04cc7b	-0.03242157
71	0xbc933cad	-0.017973268
72	0x3e655240	0.22394657
73	0x3d1bf8b5	0.038078982
74	0x3d8fd8d5	0.07023779
75	0xbbd740c8	-0.006569002
76	0xbe2f3111	-0.17108561
77	0x3d9f675d	0.07783387
78	0xbdb703ce	-0.089362726
79	0xbdb698bd	-0.08915851
80	0x3c90014b	0.017578742
81	0x3d892442	0.06696369
82	0x3c970730	0.018436044
83	0x3d8f228b	0.069890104
84	0x3d0d0533	0.034428786
85	0xbcca3dbe	-0.024687644
86	0x3bf795c0	0.0075556934
87	0x3c8f2b2d	0.017476643
88	0xbd6a2425	-0.057163376
89	0x3d9257b4	0.07145634
90	0x3da25ffd	0.079284646
91	0xbc83ee0a	-0.016104717
92	0x3e0ebd73	0.13939457
93	0x3ddbdef4	0.10735884
94	0xbca40a5d	-0.020024473
95	0x3cc37008	0.023857132
96	0x3d81227e	0.06305407
97	0x3d8b4542	0.06800319
98	0xbe0ac1a0	-0.13550425
99	0xbe14bc68	-0.14524996
100	0x3c9fab8e	0.019490983
101	0xbda009ca	-0.07814367
102	0xbb5cc35f	-0.0033685786
103	0x3e070c8c	0.1318838
104	0x3cace1bb	0.02110373
105	0xbcc24784	-0.023715742
106	0x3d10a56a	0.035314
107	0xbd2de572	-0.042455144
108	0x3c9d468e	0.019198682
109	0x3d00d2b5	0.031450946
110	0xbe00f248	-0.12592423
111	0xbd995c6b	-0.074883305
112	0x3d1a954f	0.037740048
113	0xbe3acefe	-0.18243024
114	0xbd6d312d	-0.057908226
115	0xbd429739	-0.0475075
116	0xbd28e52f	-0.04123419
117	0x3c48d9d3	0.012258965
118	0x3c169ed4	0.009193141
119	0x3c9a4ff0	0.018836945
120	0x3d791ce6	0.060818575
121	0xbdbf433b	-0.09338995
122	0xbb01780a	-0.0019755387
123	0xbcbbdd0b	-0.02293255
124	0xbca11a44	-0.019665845
125	0x3e769c0a	0.24082962
126	0x3e0b5d26	0.13609752
127	0xbc3b0521	-0.011414797
128	0x3e5e3ee0	0.21703672
129	0x3e6916b1	0.22762562
130	0x3e659d9f	0.22423409
131	0xbed2d218	-0.41175914
132	0xbd978704	-0.07398799
133	0x3c85a170	0.016312331
134	0xbcbe70f3	-0.023247218
135	0x3c72d9bb	0.014822419
136	0xbddf79e7	-0.10911923
137	0xbdc68a4e	-0.09694348
138	0xbe00fc95	-0.12596352
139	0xbcf97255	-0.030450026
140	0x3df58dfb	0.11989971
141	0xbda11855	-0.07865969
142	0xbda4ac51	-0.08040679
143	0x3d0e044e	0.034672074
144	0xbda2437d	-0.079230286
145	0xbdbf92b8	-0.09354156
146	0xbdf7b611	-0.12095273
147	0xbd07eb79	-0.03318355
148	0x3e56a388	0.2096082
149	0x3b500cca	0.0031745904
150	0xbd183417	-0.03715905
151	0xbd1da32e	-0.0384857
152	0x3e0aeb57	0.13566338
153	0x3d043056	0.03227266
154	0xbdd4c1f5	-0.10388557
155	0xbd33749e	-0.043812387
156	0x3d61de38	0.055143565
157	0xbd4f0a1a	-0.050546743
158	0xbdf818ff	-0.121141426
159	0x3c0a71a7	0.008449948
160	0x3d6616dc	0.056174144
161	0xbd8fb261	-0.07016445
162	0xbd037a52	-0.032099076
163	0x3dbc4a07	0.09193807
164	0xbd52ffcf	-0.05151349
165	0xbab78e5a	-0.0014004216
166	0xbbcc224f	-0.006229676
167	0x3da6771a	0.081281856
168	0x3b5c62bd	0.0033628189
169	0x3b9f533a	0.0048622163
170	0xbcdb9211	-0.026803048
171	0x3d01b1e2	0.031663783
172	0x3d811094	0.0630199
173	0x3da50b2d	0.08058772
174	0x3d7a0908	0.06104377
175	0x3d4930fb	0.049118977
176	0xbe3fe54a	-0.1873981
177	0x3df1edd1	0.11812938
178	0x3d831a86	0.06401543
179	0xbe2c9c94	-0.16856605
180	0xbd94677a	-0.07246299
181	0x3e4192f3	0.18903713
182	0x3da5a05b	0.08087226
183	0xbb97a0c8	-0.004627321
184	0xbda5bb77	-0.08092397
185	0xbccc68fb	-0.024952402
186	0xbe0123c2	-0.12611297
187	0xbd888f93	-0.066680096
188	0x3d0746cd	0.033026505
189	0xbe599d0c	-0.21251315
190	0x3d3ef02d	0.04661577
191	0x3d8deba9	0.06929714
192	0x3e2d0415	0.16896088
193	0x3e16d672	0.14730242
194	0x3d82976f	0.0637654
195	0x3e0687bf	0.1313772
196	0x3cf9deb3	0.0305017
197	0x3d2b7ddf	0.041868087
198	0xbe432e0b	-0.19060533
199	0xbe81cb2f	-0.2535033
200	0x3e483f6e	0.19555447
201	0x3b1b397d	0.0023685389
202	0xbdcf2b78	-0.10115713
203	0xbdc97d29	-0.098383255
204	0x3db721ed	0.08942018
205	0x39e8e3e6	0.00044420286
206	0xbd8d272a	-0.068922356
207	0x3dd46ea0	0.103726625
208	0x3d42da8e	0.04757171
209	0x3dfd4a11	0.12367643
210	0xbbd26648	-0.0064208843
211	0x3da12320	0.07868028
212	0x3da33b33	0.07970276
213	0xbdb64ecb	-0.08901747
214	0x3d52c687	0.05145886
215	0xbd5055d3	-0.0508631
216	0x3d8762ad	0.06610618
217	0x3df914cc	0.1216217
218	0x3df11491	0.11771501
219	0x3d863e85	0.065548934
220	0x3d677e0a	0.056516685
221	0x3d06ad90	0.032880366
222	0x3c82ed7f	0.015982388
223	0xbd20683a	-0.0391619
224	0xbd4c62d6	-0.049898945
225	0x3d25ce52	0.040479966
226	0xbe25539f	-0.1614518
227	0xbdd7b5be	-0.105327114
228	0x3e24f28c	0.1610815
229	0x3e22c691	0.1589606
230	0xbd37c608	-0.04486659
231	0xbe04099f	-0.12894295
232	0xbd7e1f53	-0.06204159
233	0xbd7b403d	-0.06134056
234	0xbcf080b0	-0.029358238
235	0xbd78b10e	-0.060715728
236	0x3b87af6b	0.0041407845
237	0xbd3df6e2	-0.046378024
238	0xbdbf2a61	-0.09334255
239	0x3e23da34	0.16001207
240	0xbc91d2a9	-0.017800646
241	0x3a966c77	0.0011476417
242	0xbac55320	-0.001505468
243	0xbd8111f4	-0.063022524
244	0x3c94b7bc	0.018154018
245	0xbd04456c	-0.03229277
246	0xbd966335	-0.07343141
247	0xbd8324e2	-0.06403519
248	0xbd8dfb47	-0.06932693
249	0x3cb6c8d4	0.02231256
250	0xbb74b033	-0.0037336468
251	0x3c806bf7	0.015676482
252	0x3c2ae9cb	0.010431717
253	0xb976bd1b	-0.00023530835
254	0xbc6e23f3	-0.014534938
255	0xbda94027	-0.08264189

bias f4 [242]
0	0x3c8ea282	0.017411474
1	0xbb799db7	-0.003808839
2	0xbd6febc1	-0.05857444
3	0x3de7ff72	0.11328019
4	0x3cbe248a	0.023210783
5	0xbcc3be6b	-0.02389451
6	0xbd4c073c	-0.049811587
7	0x3bff0137	0.0077821272
8	0x3d59aa61	0.053141
9	0x3d88c308	0.06677824
10	0x3e051f02	0.1300011
11	0xbc6e13c8	-0.014531083
12	0x3c925adb	0.017865589
13	0x3e453969	0.19260181
14	0xbdbc5941	-0.09196711
15	0xbd364cff	-0.044507023
16	0xbd5c2829	-0.053749237
17	0x3e218e70	0.15776992
18	0xbc0256bf	-0.007955252
19	0x3d4c6671	0.049902383
20	0xbda71d7d	-0.08159921
21	0x3e282843	0.16421609
22	0x3e0e6776	0.13906655
23	0x3e1365b9	0.14394273
24	0x3c9454ad	0.018106783
25	0x3dd50fad	0.104033805
26	0xbb800e24	-0.0039079357
27	0xbd7871d8	-0.060655445
28	0xbbbf35ac	-0.0058352556
29	0xbbab4e36	-0.0052278293
30	0xbdb69958	-0.08915967
31	0xbdeda2da	-0.11603327
32	0xbd6b9919	-0.057519052
33	0xbdb9552b	-0.090494476
34	0x3c7ccd86	0.01542986
35	0xbe2a6edf	-0.16643856
36	0xbc830498	-0.015993401
37	0xbda7dae1	-0.08196045
38	0x3d7858de	0.060631625
39	0x3d01a813	0.03165443
40	0x3e401b16	0.18760332
41	0xbc35c354	-0.011093933
42	0xbd137e08	-0.036008865
43	0xbd961772	-0.073286906
44	0x3e272ef2	0.16326502
45	0x3d9404e7	0.072274975
46	0x3b9dd17f	0.0048162336
47	0xbd8af8d9	-0.06785745
48	0xbda14486	-0.07874398
49	0x3e17b6c4	0.14815813
50	0xbb9353e7	-0.004496086
51	0xbc898552	-0.016787205
52	0x3d702d90	0.0586372
53	0x3c6f167a	0.014592761
54	0x3c7e621c	0.015526321
55	0xbce11737	-0.02747689
56	0xbb622d87	-0.0034512
57	0xbd97f471	-0.074196704
58	0xbc2af95e	-0.01043543
59	0xbb218d30	-0.0024650805
60	0x3e4ad6ca	0.19808498
61	0xbd49263e	-0.049108736
62	0x3e062a6a	0.13102117
63	0x3e1b91f1	0.15192391
64	0x3c4e92c8	0.012608238
65	0xbd97d04f	-0.074127786
66	0xbd830473	-0.06397333
67	0x3d73625d	0.05941998
68	0xbd84c5b5	-0.06483022
69	0x3dbc4a39	0.09193844
70	0xbd846992	-0.064654484
71	0xbc3ac567	-0.011399603
72	0xbd522427	-0.05130401
73	0xbdb9260d	-0.09040461
74	0xbe137c51	-0.14402892
75	0x3b2e79a5	0.0026622799
76	0x3e44e541	0.19228078
77	0x3c6aeef6	0.014339199
78	0x3cb9620d	0.022629762
79	0x3e2cd718	0.16878927
80	0xbd93e76c	-0.072218746
81	0xbe2ebb8c	-0.17063731
82	0x3dbc60f5	0.091981806
83	0xbda43d2d	-0.08019481
84	0xbc81b505	-0.015833387
85	0xbda8c6f8	-0.08241075
86	0xbdc29e26	-0.09502821
87	0x3d6732c0	0.056444883
88	0xbd5a44b1	-0.053288165
89	0xbca07259	-0.019585775
90	0x3d5a0791	0.053229872
91	0xbdc006fb	-0.093763314
92	0x3c372a68	0.011179544
93	0x3e2ce654	0.16884738
94	0xbd987b8d	-0.074454404
95	0xbd535967	-0.051598933
96	0x3c0b5e40	0.008506358
97	0xbdf20919	-0.118181415
98	0xbd18f75f	-0.037345286
99	0xbd0bdc7a	-0.03414581
100	0x3e36ae06	0.17839822
101	0xbd5dc8c7	-0.054146554
102	0x3e2b20a1	0.16711666
103	0xbadecb96	-0.0016997929
104	0x3d1c4e31	0.038160507
105	0x3d0f9e21	0.035062913
106	0xbcbfe2ec	-0.023423634
107	0xbd23821e	-0.03991901
108	0xbdb623c7	-0.08893543
109	0xbda6432c	-0.08118281
110	0xbdbefa2e	-0.09325062
111	0xbd1caa2c	-0.038248226
112	0xbda14054	-0.07873598
113	0x3d4d786b	0.050163668
114	0x3e34f4ae	0.17671463
115	0x3c9abcb5	0.01888881
116	0xbdb39295	-0.08768193
117	0xbda8206b	-0.08209308
118	0xbc954369	-0.01822062
119	0xbda290f3	-0.07937803
120	0x3e244910	0.16043496
121	0x3d8ce824	0.06880215
122	0xbd91d9b8	-0.07121605
123	0xbc871356	-0.016488712
124	0xbca1fb76	-0.019773226
125	0x3e1ccec4	0.1531325
126	0x3d1b0f59	0.037856434
127	0xbdb54dce	-0.08852731
128	0xbcc3369a	-0.023829747
129	0x3e1078f1	0.14108635
130	0x3b86e7df	0.0041169967
131	0x3de07d04	0.10961345
132	0x3bf41544	0.007448824
133	0xbd3440d3	-0.044007134
134	0xbdaf45a4	-0.08558205
135	0x3e128214	0.14307433
136	0xbc87e088	-0.016586557
137	0xbd5fd2b3	-0.054644298
138	0x3d085f85	0.03329422
139	0xbd45d4e6	-0.04829874
140	0xbe47665a	-0.19472638
141	0xbd06686b	-0.032814424
142	0x3db2468c	0.08704862
143	0xbda21a2d	-0.07915149
144	0xbd6d41a1	-0.057923917
145	0xbd3adc55	-0.04562028
146	0xbd177cb2	-0.036984153
147	0x3d792a87	0.060831573
148	0x39c29b91	0.0003711847
149	0x3dc0762c	0.093975395
150	0x3d8308e0	0.06398177
151	0xbdfe7247	-0.124241404
152	0x3d172457	0.03689989
153	0xbd93f0ea	-0.07223685
154	0x3e3db2c2	0.18525222
155	0xbd635fda	-0.055511333
156	0xbc40b10b	-0.01176096
157	0xbaed7c37	-0.0018118684
158	0xbd94e934	-0.072710425
159	0x3cbbf807	0.022945417
160	0x3bbc1174	0.0057393853
161	0x3c538448	0.012909956
162	0xbd667d38	-0.05627176
163	0xbd8ea360	-0.06964755
164	0x3beff0bf	0.0073224003
165	0xbd552b9b	-0.05204354
166	0xbd97edbb	-0.0741839
167	0x3ddb5a2e	0.1071056
168	0x3d9be8fc	0.076127976
169	0xbcb60c85	-0.022222767
170	0xbcf2b40b	-0.029626867
171	0x3b8fbdfb	0.004386661
172	0xbd3d037a	-0.046145894
173	0x3e34e3a1	0.17664959
174	0x3d38297d	0.04496144
175	0xbcaa2fd1	-0.020774754
176	0x3cbdb88b	0.023159286
177	0xbd29bc37	-0.04143926
178	0xbd830b2e	-0.06398617
179	0x3d1c853f	0.03821301
180	0xbe0928af	-0.13394426
181	0xbd1e0be6	-0.038585566
182	0xbd4045ee	-0.04694169
183	0xbd3b3457	-0.045704212
184	0xbd2f094b	-0.04273347
185	0x3c9d241a	0.019182254
186	0xbdad1205	-0.084507026
187	0x3e34e857	0.17666756
188	0xbccda768	-0.02510424
189	0x3d226dbd	0.039655436
190	0xbdb7d36a	-0.08975871
191	0xbc60ee33	-0.013728666
192	0xbd4d2ea4	-0.050093308
193	0x3b0634a9	0.0020478165
194	0xbd9a94b8	-0.07547897
195	0xbd9dae50	-0.07699263
196	0xbd7f65e8	-0.062353045
197	0xbd0a9015	-0.033828814
198	0x3d365963	0.04451884
199	0xbd8dd104	-0.06924632
200	0x3d8ed621	0.069744356
201	0x3c3574ad	0.011075181
202	0xbd5c3269	-0.053759012
203	0x3c521014	0.012821216
204	0x3d9e05ce	0.07715951
205	0xbd6092e5	-0.05482759
206	0x3ba8ad92	0.0051476443
207	0xbd6f3869	-0.058403406
208	0xbc8d2c7e	-0.01723313
209	0xbc791f80	-0.015205264
210	0x3ba1dfa2	0.004939989
211	0x3c1c4368	0.009537555
212	0xbdd5125c	-0.104038924
213	0xbdf65bc9	-0.120292254
214	0x3e421825	0.18954523
215	0xbcaa9081	-0.020820858
216	0x3e4ca848	0.19986069
217	0x3c633449	0.013867446
218	0x3c9ce21c	0.019150786
219	0xba94b903	-0.0011346642
220	0xbb6ab508	-0.003581347
221	0xbdb9cd59	-0.0907237
222	0xbd8baa28	-0.06819564
223	0xbc801c70	-0.01563856
224	0xbc8cb228	-0.017174795
225	0xbc6869ef	-0.014185413
226	0xbd23f658	-0.040029854
227	0xbde83892	-0.11338915
228	0x3cbff097	0.023430152
229	0x3c7634bd	0.015027222
230	0xbcfbc716	-0.03073458
231	0x3d39dc19	0.045375917
232	0xbd2f0cb2	-0.042736717
233	0xbd0adf67	-0.03390446
234	0xbda24fbc	-0.079253644
235	0xbcf22f76	-0.029563647
236	0xbbc635cf	-0.006048895
237	0x3a6e48d8	0.0009089834
238	0xbcc04f8d	-0.023475433
239	0xbdcda1d7	-0.10040634
240	0x3bc6180d	0.0060453475
241	0x3c5eccfc	0.013598677

weight f4 [120, 242]
0	0xbc26db71	-0.010184155
1	0xbd3bc758	-0.045844406
2	0xbced239b	-0.028947642
3	0xbd78f768	-0.06078282
4	0x3c178164	0.009247158
5	0xbbd255fd	-0.006418942
6	0x3cccefbd	0.02501666
7	0x3d4076e1	0.04698837
8	0xbd308b14	-0.043101385
9	0xbd9a1a16	-0.07524507
10	0xbcab0eab	-0.020881018
11	0x3ac1d0b9	0.0014786936
12	0xbd28b69a	-0.041189767
13	0xbd84fbbc	-0.06493327
14	0xbdbeaa89	-0.09309871
15	0xbd741cd6	-0.059597813
16	0x3b4a87a3	0.00309036
17	0xbd066d6a	-0.03281919
18	0x3c2341f4	0.009964455
19	0x3c1a1272	0.009403812
20	0x3d7ad40f	0.06123739
21	0x3ca0c3af	0.01962456
22	0x3cf34bdb	0.029699257
23	0xbd8f81d1	-0.070071824
24	0xbd6853b5	-0.056720454
25	0xbbffc006	-0.0078048734
26	0x3ca8b471	0.020593854
27	0x3b9fe583	0.004879655
28	0x3ce40eec	0.027839147
29	0xbd22afaf	-0.039718326
30	0xbd74fb88	-0.05981019
31	0xbd394a14	-0.045236662
32	0x3ad21fcc	0.0016031205
33	0xbd503418	-0.05083093
34	0x3d52473a	0.05133746
35	0xbd0e50fb	-0.034745198
36	0xbd7b7730	-0.061392963
37	0x3d3d8a63	0.046274554
38	0xbd81a600	-0.0633049
39	0xbd6582e4	-0.05603303
40	0x3caf9ced	0.021437133
41	0xbce5927d	-0.028023953
42	0xbc98f293	-0.018670356
43	0x3c0ce594	0.008599658
44	0x3ca3c9c7	0.019993676
45	0x3d1dca4b	0.038523
46	0x3c14f429	0.009091415
47	0xbcda685d	-0.026661092
48	0x3b6373ab	0.0034706395
49	0x3c86fec9	0.016478913
50	0x3c21c302	0.009873154
51	0x3c5a8f13	0.013339776
52	0x3d092eb7	0.033491816
53	0xbd82179f	-0.063521616
54	0xbb97ddb7	-0.0046345848
55	0x3ca7e44a	0.020494599
56	0x3d1c84cf	0.038212594
57	0x3d60df1d	0.054900277
58	0x3c44f137	0.012020401
59	0x3cb712a9	0.022347765
60	0xbd7e0f0f	-0.06202608
61	0xbd44b5b9	-0.048024867
62	0xbd31ef93	-0.043441366
63	0xbd19bc6f	-0.03753322
64	0x3b6616ae	0.0035108733
65	0x3d811c9d	0.06304286
66	0x3c44519d	0.011982349
67	0xbd3654f2	-0.044514604
68	0xbd16a0d8	-0.036774486
69	0xbb218404	-0.0024645338
70	0xbd931f12	-0.071836606
71	0xbd639d66	-0.05557003
72	0x3d3801f6	0.044923745
73	0x3b9366dd	0.0044983462
74	0x3cad2a78	0.021138415
75	0x3c0b8e3f	0.008517801
76	0xbcf27f95	-0.029601851
77	0xbc258660	-0.010102838
78	0xbc4f6e5e	-0.012660591
79	0x3cfb75b8	0.030695781
80	0xbd692f30	-0.056929767
81	0x3d00747d	0.031361092
82	0xbd13b6c5	-0.036062974
83	0xbd2472b5	-0.040148456
84	0xbc8016c1	-0.01563585
85	0xbd621384	-0.055194393
86	0x3d1b42d0	0.037905514
87	0x3c262676	0.010141006
88	0xbb116adb	-0.0022188935
89	0x3c970e08	0.018439308
90	0xbd4cf09c	-0.05003415
91	0xbdb3552f	-0.08756482
92	0x3d4ce786	0.050025485
93	0xbd5a3f80	-0.053283215
94	0x3d2a56f2	0.041586824
95	0xbc52974e	-0.012853457
96	0xbb680f85	-0.003540964
97	0xbd2ec09d	-0.04266416
98	0x3ca3d8b4	0.020000793
99	0xbc5d1792	-0.013494389
100	0xbc9e20d3	-0.019302761
101	0xbcc3b263	-0.023888772
102	0x3d031bda	0.032008983
103	0xbcdc3803	-0.026882177
104	0x3d08703c	0.03331016
105	0xbba88866	-0.005143213
106	0xbcfb9fc1	-0.030715825
107	0xbd297847	-0.04137447
108	0x3cf41156	0.029793423
109	0xbb2c5d37	-0.0026300678
110	0xbd787ca0	-0.060665727
111	0x3c73b7e8	0.01487539
112	0x3cceab2c	0.025228105
113	0x3c99e71a	0.018786956
114	0xbc228a31	-0.009920643
115	0x3b75bccf	0.0037496572
116	0xb9784b10	-0.00023679086
117	0xbd7bae9f	-0.06144583
118	0x3c4a4674	0.012345899
119	0x3c737c4c	0.014861178
120	0xbd97582e	-0.07389866
121	0xbdbae646	-0.091259524
122	0xbc9cf1bc	-0.019158237
123	0xbcddbb55	-0.027066866
124	0x3ba05b39	0.004893687
125	0x3bf19a99	0.007373166
126	0x3d3580a7	0.044312146
127	0x3d818f7e	0.06326197
128	0xbd818c12	-0.063255444
129	0xbd7b38dc	-0.061333522
130	0xb9d59ae3	-0.00040741925
131	0xbd11c4ee	-0.035588197
132	0x3d25eec3	0.040510904
133	0xbd7ae39b	-0.061252218
134	0x3c31f82c	0.010862391
135	0xbd7c81c6	-0.0616472
136	0xbd567119	-0.052353952
137	0xbd21f950	-0.039544404
138	0x3cd2ddd7	0.025740547
139	0x3d6bc0b0	0.057556808
140	0xbc4e32c7	-0.012585348
141	0xbd133667	-0.035940554
142	0xbd17eb62	-0.037089713
143	0xbc541040	-0.012943327
144	0x3d2a99ba	0.04165051
145	0xbcb59b57	-0.022168798
146	0x3c97a696	0.018512052
147	0xbd0868b5	-0.03330298
148	0x3cb47de3	0.022032684
149	0x3c5fa833	0.013650942
150	0xbd8592f2	-0.06522168
151	0x3caf77ad	0.02141937
152	0xbc84b155	-0.01619784
153	0xbd7e5ab4	-0.06209822
154	0xbbaebe48	-0.005332742
155	0xbc5d83f2	-0.013520228
156	0x3d071ba2	0.032985337
157	0x3cff3cb1	0.03115687
158	0x3d005de8	0.031339556
159	0x3cdeffe2	0.027221624
160	0xbcfa6e3c	-0.030570142
161	0x3ca421ac	0.020035587
162	0xbd0dcb57	-0.034617748
163	0x3d5b32ea	0.053515352
164	0xbb13d3aa	-0.0022556582
165	0x3c5582d6	0.013031682
166	0xbd8bacf8	-0.068201005
167	0x3ccb3a18	0.024807975
168	0xbd8f9022	-0.07009913
169	0xbc79231e	-0.0152061265
170	0x3c80004f	0.015625147
171	0xbdad117b	-0.084506
172	0xbd688892	-0.05677087
173	0x3cafd6ee	0.021464791
174	0x3c41a502	0.011819126
175	0x3d25efb8	0.040511817
176	0xbbd5e299	-0.0065272567
177	0x3d1770a6	0.036972664
178	0x3d26b304	0.040698066
179	0x3d5abd29	0.053403053
180	0x3d398f5d	0.045302738
181	0xbd0e5d72	-0.034757085
182	0x3cec2529	0.028826313
183	0x3d0a04a0	0.033695817
184	0x3c699235	0.01425605
185	0xbd8650a8	-0.06558353
186	0xbd96dcba	-0.07366319
187	0x3d3dceff	0.046339985
188	0xb8fbac84	-0.00012000746
189	0xbd947c11	-0.07250226
190	0xbce1e215	-0.027573625
191	0x3c4442ed	0.011978847
192	0x3d3cd64c	0.046102807
193	0xbc465ec9	-0.0121075595
194	0xbc6720dc	-0.014106955
195	0x3d5c7c30	0.053829372
196	0x3a6348dc	0.00086702197
197	0x3c1d166a	0.009587863
198	0xbcefd124	-0.02927453
199	0xbcd96029	-0.02653511
200	0xbd92c6e5	-0.07166842
201	0xbd3fc579	-0.046819184
202	0x3d32d31d	0.043658365
203	0xbd8ff5f7	-0.07029336
204	0xbd221d76	-0.039578877
205	0xbd1f65a2	-0.038915284
206	0x3bacbf6d	0.005271843
207	0x3cb4cdbf	0.022070764
208	0x3a0935fa	0.00052341784
209	0xbd3ef9db	-0.046625
210	0x3d53b69e	0.05168783
211	0xbd3a5db6	-0.045499526
212	0xbd67fc06	-0.056636833
213	0xbbd1df93	-0.006404826
214	0xbd12eb66	-0.035869025
215	0xbc39877b	-0.011323805
216	0xbc50d306	-0.012745624
217	0xbcea284f	-0.028583674
218	0xbd00f48d	-0.03148322
219	0x3c6f655d	0.014611569
220	0xbdcd8a00	-0.10036087
221	0xbd1b8621	-0.037969712
222	0xbd6eb645	-0.058279295
223	0xbd664565	-0.056218524
224	0xbd55d60d	-0.052206088
225	0xbb05fcc9	-0.002044486
226	0xbc46fb46	-0.012144869
227	0xbd65dc65	-0.056118388
228	0x3c58b9d9	0.013227903
229	0xbd27118a	-0.04078821
230	0xbd35c8dc	-0.044381008
231	0xbca052cc	-0.01957073
232	0x3c91c994	0.017796315
233	0xbd85ec6f	-0.06539237
234	0x3ca97a13	0.020688092
235	0xbd6a610d	-0.05722146
236	0xbc275c6d	-0.010214907
237	0xbae52343	-0.0017481822
238	0xbdce09a9	-0.10060436
239	0xbcce94d6	-0.025217455
240	0xbd0a11e1	-0.033708457
241	0xbd2a8989	-0.04163507
242	0xbce0d1af	-0.027443735
243	0x3b908bbb	0.0044111884
244	0x3c9e1b2e	0.01930007
245	0x3c212ed2	0.009837823
246	0xbd506406	-0.05087664
247	0x3cddab12	0.027059112
248	0xbc8ee169	-0.017441468
249	0xbca1161f	-0.019663868
250	0x3d4eac1d	0.05045711
251	0xbdb6d9ef	-0.08928286
252	0xbc21251a	-0.009835506
253	0xbd560106	-0.05224707
254	0xbd5f2538	-0.054478854
255	0xbd935730	-0.07194364

bias f4 [120]
0	0xbce66dee	-0.02812859
1	0x3c94c35c	0.01815956
2	0xbd9b96bb	-0.07597109
3	0xbe106262	-0.1410003
4	0x3c967850	0.018367916
5	0xbbc5dc55	-0.0060382285
6	0x3ad78f86	0.0016445972
7	0x3e30525f	0.17218922
8	0x3e2829b5	0.1642216
9	0xbcc165ff	-0.023608206
10	0x3e2715e8	0.1631695
11	0xbc3ee418	-0.0116510615
12	0xbbd88a5f	-0.006608292
13	0xbdc9120c	-0.09817895
14	0x3e3f8d5d	0.1870627
15	0xbd96fc52	-0.07372345
16	0x3e50c722	0.20388463
17	0x3e0382a4	0.12842804
18	0x3dd573ef	0.10422503
19	0x3e01d40c	0.12678546
20	0x3e645859	0.22299327
21	0xbc2383b1	-0.009980128
22	0xbbecd380	-0.007227361
23	0xbdb7ee32	-0.08980979
24	0x3cebc340	0.028779626
25	0x3e665bc9	0.22495951
26	0x3d68f533	0.056874465
27	0xbd94840c	-0.072517484
28	0xbd7684d0	-0.060185254
29	0x3e1a26ba	0.15053836
30	0x3e0fa14a	0.1402637
31	0xbd4687ee	-0.048469476
32	0xbd8ed494	-0.0697414
33	0xbe1640c3	-0.14673142
34	0x3e44c02e	0.19213936
35	0x3baf0286	0.005340877
36	0xbd2b5d17	-0.041836824
37	0x3dad1ad6	0.08452384
38	0xbcb8bdc2	-0.022551421
39	0x3c88327c	0.016625635
40	0x3e217b19	0.15769614
41	0xbc65c454	-0.014023859
42	0x3e750880	0.23929024
43	0x3c436535	0.011925985
44	0x3cf690c0	0.030098319
45	0x3db82590	0.089915395
46	0xbd39572c	-0.04524915
47	0x3c25b861	0.01011476
48	0x3dae7cea	0.08519919
49	0xbda2b8ce	-0.07945405
50	0xbdb730a0	-0.08944821
51	0x3dad4fa9	0.084624596
52	0xbc5efa32	-0.013609456
53	0xbd88a331	-0.06671751
54	0xbdd0a37b	-0.101874314
55	0x3e294d69	0.16533436
56	0x3e207c67	0.15672456
57	0x3e2547e5	0.16140707
58	0x3e01e259	0.12684001
59	0x3d883b29	0.06651909
60	0xbd40f1be	-0.047105543
61	0x3d67758e	0.056508593
62	0x3e236491	0.15956332
63	0x3e0412c4	0.12897784
64	0xbdb34b52	-0.087546006
65	0x3decb9c6	0.11558871
66	0x3e11b28f	0.14228271
67	0x3dc900d8	0.09814614
68	0x3dd94eac	0.106107086
69	0x3e1d459a	0.15358582
70	0xbd74b740	-0.059745073
71	0x3d0e0126	0.034669064
72	0xbd3405ac	-0.04395072
73	0x3dc35aab	0.09538778
74	0x3d4c9028	0.049942166
75	0xbcf0416b	-0.029328069
76	0x3d5a6399	0.05331764
77	0xbd9d3c8a	-0.076775625
78	0xbd64da07	-0.05587199
79	0x3debcf70	0.11514175
80	0xbda573cd	-0.08078728
81	0x3dbc53ef	0.091956966
82	0xb4740487	-2.2725918e-07
83	0xbd906d7c	-0.070521325
84	0x3e748985	0.23880585
85	0xba697715	-0.0008905989
86	0xbcd66e97	-0.02617578
87	0xbde00f68	-0.109404385
88	0x3e12979c	0.14315647
89	0xbb6f9d64	-0.0036562318
90	0xbd17542b	-0.036945503
91	0xbd789ce5	-0.0606965
92	0xbde62b34	-0.11238709
93	0xbce40e2e	-0.027838793
94	0x3dd4303c	0.103607625
95	0xbd2e0899	-0.042488668
96	0x3e18f817	0.14938389
97	0xbd0147d5	-0.031562645
98	0x3d3c4c02	0.045970924
99	0xbcd5f4d6	-0.026117723
100	0x3be93fe3	0.0071182116
101	0xbdbda2f2	-0.09259595
102	0xbdbbb31c	-0.09165022
103	0xbd37c958	-0.04486975
104	0xbcbd4246	-0.02310289
105	0x3e022596	0.1270965
106	0xbd9fe7c3	-0.07807877
107	0xbc70b0e7	-0.014690614
108	0xbb046967	-0.0020204426
109	0xbd68cf98	-0.0568386
110	0xbd91ab53	-0.071127556
111	0x3e10ae1d	0.14128919
112	0xbd03b676	-0.03215643
113	0x3e02c53c	0.12770551
114	0x3e0d4857	0.13797127
115	0xbca1f727	-0.019771172
116	0x3ca0acd3	0.019613659
117	0xbdac7dbf	-0.08422422
118	0x3cccf94c	0.025021218
119	0xbcfa2938	-0.030537233

weight f4 [84, 120]
0	0x3d8f2f30	0.06991422
1	0x3d3c40eb	0.045960348
2	0xbc71ab1c	-0.014750268
3	0xbd69505c	-0.056961402
4	0xbd22fc9c	-0.03979169
5	0x3e3f5cbe	0.18687722
6	0xbe01f9ec	-0.12692994
7	0x3e091e04	0.13390356
8	0x3e3336a6	0.17501315
9	0x3dbaee1a	0.091274455
10	0x3de75adc	0.11296627
11	0x3dab4f08	0.083646834
12	0x3bc25f2f	0.005931757
13	0xbd24010c	-0.04004006
14	0xbe63896b	-0.2222039
15	0x3cc1ed31	0.023672672
16	0x3e4c0eb4	0.19927484
17	0xbd870bd3	-0.06594052
18	0x3e31bf47	0.17358123
19	0x3e0b383c	0.1359567
20	0xbe752238	-0.23938835
21	0x3d9e7ea6	0.07739
22	0xbe3b5042	-0.18292335
23	0x3b2c5119	0.0026293455
24	0xbcab55b0	-0.020914882
25	0xba518295	-0.00079921755
26	0x3e0b959d	0.13631292
27	0x3de0cc7f	0.109765045
28	0x3cdf1196	0.027230065
29	0x3de9d2c5	0.11417154
30	0x3da48648	0.080334246
31	0x3c48d161	0.012256951
32	0xbc78f35a	-0.015194738
33	0xbe5ad39d	-0.21369787
34	0x3eb84841	0.35992625
35	0x3d833493	0.06406512
36	0xbc3468e6	-0.011011338
37	0x3e812589	0.2522395
38	0xbd4ea3ab	-0.050449055
39	0xbaba72d2	-0.0014224893
40	0x3e3ee185	0.18640716
41	0x3d792e3a	0.0608351
42	0x3f2b200c	0.66845775
43	0xbda5076e	-0.08058058
44	0x3a2abbda	0.00065129774
45	0xbddfae23	-0.10921886
46	0x3da3f75e	0.08006166
47	0xbd674479	-0.056461785
48	0x3e20b2c7	0.15693198
49	0xbbb3c655	-0.0054862895
50	0x3e1820fc	0.14856333
51	0x3e10f3fd	0.14155574
52	0x3d7b953d	0.06142162
53	0x3d79c5ac	0.06097953
54	0x3db620a3	0.08892944
55	0x3e7ab7a1	0.24484111
56	0x3daabd19	0.08336849
57	0x3e5678c1	0.20944501
58	0x3e3f33de	0.1867213
59	0xbdb3f809	-0.08787543
60	0xbdfcb21f	-0.123386614
61	0xbe4000c4	-0.18750292
62	0x3e46adfe	0.1940231
63	0x3eb44d41	0.3521519
64	0xbc180ccd	-0.009280396
65	0x3e17860b	0.14797227
66	0xbbeafaaa	-0.0071709948
67	0x3e3ec88d	0.18631192
68	0x3e785216	0.24250063
69	0xbdfc4521	-0.12317873
70	0x3d7bcd03	0.06147481
71	0xbdf21bff	-0.11821746
72	0xbd1eaf2f	-0.038741287
73	0x3e01658f	0.12636398
74	0x3e056fa0	0.13030863
75	0x3c93004f	0.017944483
76	0xbcbdb6e1	-0.023158493
77	0x3d2fd71e	0.04292976
78	0xbd6686fe	-0.056281082
79	0x3e6e42d8	0.23267686
80	0xbc54187f	-0.012945293
81	0x3e26d221	0.16291095
82	0x3d51ff90	0.051269114
83	0xbd53fb49	-0.051753316
84	0x3e7e6ad1	0.24845435
85	0x3e048448	0.12941086
86	0xbd8eb2f7	-0.069677286
87	0x3ce1ee0f	0.027579335
88	0xbe5f9c34	-0.2183693
89	0x3d31bc18	0.04339227
90	0xbd9f6ba4	-0.07784203
91	0x3d09113d	0.033463705
92	0x3db6372f	0.08897244
93	0xbc66600c	-0.014060985
94	0x3e1269ba	0.14298144
95	0x3e1106eb	0.14162795
96	0xbe7a0316	-0.2441524
97	0x3cb7be42	0.02242959
98	0x3da8c9fa	0.08241649
99	0x3d436f5f	0.047713634
100	0x3c935a2c	0.017987333
101	0x3d75d852	0.060020752
102	0xbd7008f9	-0.058602307
103	0x3c15ce10	0.009143367
104	0x3cbf8346	0.023378026
105	0xbe934939	-0.28766802
106	0x3dbd70a5	0.09250001
107	0xbd29907e	-0.041397564
108	0xbc800916	-0.015629333
109	0xbd5cf092	-0.053940363
110	0x3da86bc7	0.08223682
111	0x3dc66faf	0.09689271
112	0xbc40e65e	-0.011773674
113	0xbdea51a3	-0.11441352
114	0x3e13a29f	0.14417504
115	0xbc39486f	-0.011308773
116	0xbea1f84a	-0.31634742
117	0xbd454e98	-0.048170656
118	0xbe0278a2	-0.1274133
119	0xbd4e81ad	-0.050416637
120	0xbd1c855d	-0.038213123
121	0x3ceffe5d	0.029296095
122	0xbdb6e96d	-0.08931241
123	0xbec1bb77	-0.37838337
124	0xbcc15c92	-0.023603711
125	0xbe09f9ac	-0.13474149
126	0x3e828e65	0.25499263
127	0x3c716174	0.014732707
128	0x3e612491	0.21986605
129	0xbca17d87	-0.019713176
130	0x3dec0234	0.11523858
131	0xbd11e19e	-0.035615556
132	0xbe30ac97	-0.17253338
133	0x3d24fb75	0.04027887
134	0xbe716355	-0.23573048
135	0xbd4e2a29	-0.050333176
136	0x3d88fd92	0.0668899
137	0xbe855750	-0.26043177
138	0x3d1ed17f	0.03877401
139	0x3dffa2b8	0.12482208
140	0xbd900f15	-0.07034127
141	0x3d7cfc35	0.06176396
142	0xbe0fd3bc	-0.14045614
143	0xbd2bf5a1	-0.041982297
144	0xbd96ec74	-0.073693186
145	0x3e6a0340	0.22852802
146	0xbe1d79e5	-0.1537853
147	0x3cac4d0c	0.021032833
148	0xbd7e390b	-0.06206612
149	0x3dba7243	0.09103825
150	0x3dca3c76	0.09874813
151	0xbc5b96fd	-0.013402698
152	0x3d9e76a3	0.07737472
153	0x3cab3291	0.020898135
154	0xbe6e9a56	-0.23301062
155	0xbd6dda1a	-0.058069326
156	0xbd6b9aa4	-0.057520524
157	0xbdd78581	-0.10523511
158	0x3e3c6940	0.18399525
159	0xbdea6bd8	-0.11446351
160	0x3bddfc9d	0.0067744986
161	0xbe29b263	-0.16571955
162	0x3e7db72d	0.24776907
163	0x3d7eb073	0.062179994
164	0xbda3a2c0	-0.079900265
165	0x3da2016c	0.079104275
166	0x3ddeb629	0.10874588
167	0xbccb205b	-0.024795702
168	0xbd4a5bf5	-0.049404103
169	0x3ce1fa1d	0.027585084
170	0xbd207439	-0.03917334
171	0xbe641582	-0.2227383
172	0xbe26678b	-0.16250436
173	0x3d41fc9a	0.04736004
174	0x3de7a2dd	0.113103606
175	0x3dba8e40	0.09109163
176	0x3cb09c91	0.021559032
177	0x3e8edfa8	0.2790501
178	0xbc2c9f14	-0.010535974
179	0x3ee61f77	0.4494588
180	0xbd0b20b0	-0.03396672
181	0xbe0f41f3	-0.13990001
182	0x3e3704a0	0.17872858
183	0x3f37a5f1	0.7173758
184	0xbdb77482	-0.08957769
185	0xbd8355b4	-0.06412831
186	0x3dd97daa	0.10619672
187	0x3d79e6e7	0.06101122
188	0x3dc55d94	0.09636989
189	0xbe6dad8e	-0.23210737
190	0x3d26ebe2	0.0407523
191	0xbda999e7	-0.08281308
192	0x3c24c938	0.01005774
193	0x3e4cfabc	0.20017523
194	0xbd758ba7	-0.059947636
195	0xbe8fa9ff	-0.28059384
196	0x3db14e0f	0.086574666
197	0xbc90b9f7	-0.0176668
198	0x3dde8cdf	0.10866713
199	0x3e26c21d	0.16284986
200	0x3c7ac267	0.015305138
201	0x3ec30f69	0.38097695
202	0x3d7cc525	0.06171145
203	0xbbdb938b	-0.006700938
204	0xbdf7b504	-0.12095073
205	0x3dd98d22	0.10622622
206	0xbc3c09ea	-0.011476973
207	0x3d907e8b	0.07055386
208	0x3c068cf0	0.008212313
209	0xbcfa79c5	-0.030575642
210	0x3d43e1ed	0.04782288
211	0x3bbcc7ac	0.0057611074
212	0xbd7ab000	-0.061203003
213	0x3c480881	0.012209059
214	0x3b372b75	0.0027949486
215	0xbb21a0be	-0.002466246
216	0x3e48f458	0.1962446
217	0xbd14e7b5	-0.036353786
218	0xbdc1ceab	-0.09463247
219	0x3dea6e7a	0.11446853
220	0x3db217dd	0.08695958
221	0xbd902b71	-0.07039536
222	0x3d0ad9a3	0.03389896
223	0xbd2af991	-0.04174191
224	0x3c56fc06	0.0131216105
225	0x3e10ea38	0.14151847
226	0xbc5b7c91	-0.013396398
227	0xbdaabb3a	-0.08336492
228	0x3d7a412a	0.0610973
229	0xbd9bc392	-0.076056615
230	0xbc211fc9	-0.009834238
231	0x3df53967	0.11973839
232	0xbeb9c8f3	-0.36286125
233	0x3ea2a4da	0.31766397
234	0x3d9fc1cf	0.07800638
235	0xbd953b89	-0.07286746
236	0xbd8da6f9	-0.06916613
237	0x3db7a865	0.089676656
238	0x3ef32cea	0.47495204
239	0xbdd3402a	-0.10314973
240	0x3d9d342a	0.07675965
241	0x3d9287a7	0.0715478
242	0x3d34c0e7	0.04412928
243	0x3c8dce6a	0.01731034
244	0x3ce4448b	0.027864715
245	0x3b2e30d6	0.0026579401
246	0xbda183f8	-0.07886499
247	0xbdbda54e	-0.09260045
248	0xbdba5981	-0.09099103
249	0x3d0c2bbf	0.034221407
250	0xbe00850a	-0.1255075
251	0xbd59c255	-0.053163845
252	0xbda180d4	-0.078859
253	0x3d34c2ac	0.044130966
254	0xbcc09773	-0.023509717
255	0xbc91c199	-0.01779251

bias f4 [84]
0	0x3e6fa3ae	0.23402283
1	0x3e5ccf2d	0.21563406
2	0xbda2fb5c	-0.07958099
3	0x3e8b6760	0.27227306
4	0xbde5c421	-0.11219049
5	0x3cb00fa6	0.021491837
6	0xbdf91d1b	-0.121637546
7	0x3de554e8	0.11197835
8	0x3df5edeb	0.1200827
9	0x3d4129bf	0.047158953
10	0xbe07cead	-0.13262434
11	0x3c8e7e76	0.017394286
12	0xbc3b3b74	-0.011427749
13	0x3da8a44f	0.082344644
14	0xbdbfc4f4	-0.09363738
15	0xbdb4d82d	-0.08830295
16	0x3e1ff3ec	0.15620393
17	0x3d029acc	0.031885907
18	0x3dfa9a33	0.122364424
19	0xbd4829e1	-0.048868064
20	0xbdc08918	-0.094011486
21	0xbe2227fe	-0.15835568
22	0x3e4ea44d	0.20179863
23	0x3e58cd6d	0.21172114
24	0x3e48cafd	0.19608684
25	0xbdd933af	-0.10605561
26	0x3e97d10f	0.29651687
27	0x3e23cd6a	0.15996328
28	0xbcfc8585	-0.030825386
29	0xbd8d4448	-0.06897789
30	0xbd43bfd3	-0.04779036
31	0x3bc3237a	0.005955157
32	0xbdd20925	-0.102556504
33	0xbd72e36f	-0.05929893
34	0xbd053de5	-0.03252973
35	0xbdef1a08	-0.11674887
36	0x3e1340ae	0.14380142
37	0x3c84c9c0	0.016209483
38	0x3d8395b7	0.0642504
39	0xbdb867b8	-0.09004158
40	0x3d538137	0.0516369
41	0x3e44202e	0.191529
42	0x3ce64473	0.028108811
43	0x3e10ea74	0.14151937
44	0xbd02ff2b	-0.03198163
45	0x3cf08172	0.0293586
46	0x3db89f90	0.09014809
47	0x3e062679	0.13100614
48	0xbd7048fd	-0.058663357
49	0xbd92b7fe	-0.07164
50	0x3e2643dc	0.16236824
51	0x3e2ea154	0.1705373
52	0x3d42d580	0.04756689
53	0xbde560f8	-0.11200136
54	0x3c96fd06	0.018431198
55	0x3e212d7f	0.15740012
56	0xbe02e86f	-0.12783979
57	0xbd60a502	-0.054844864
58	0x3e8f0a16	0.27937382
59	0x3e29c5b4	0.16579324
60	0x3e79355c	0.24336761
61	0x3d10c009	0.03533939
62	0x3e901ad3	0.28145465
63	0xbbffd598	-0.007807445
64	0x3d0cb268	0.03434983
65	0x3e14679a	0.14492646
66	0x3dbdf624	0.09275463
67	0xbd896e7d	-0.06710527
68	0xbde725cd	-0.11286507
69	0x3dae63d3	0.08515134
70	0x3e0cc1c0	0.13745785
71	0xbd8cc448	-0.06873375
72	0xbdbc64fc	-0.09198949
73	0x3cd33304	0.025781162
74	0xbd0f6e55	-0.03501733
75	0xbe46a6c8	-0.1939956
76	0x3dcb1122	0.09915377
77	0x3bed8d7b	0.007249532
78	0x3e1345b2	0.14382055
79	0x3e7a6263	0.24451594
80	0x3e5e2a8a	0.21695915
81	0xbdde32ea	-0.10849555
82	0xbd27cf0a	-0.040968932
83	0xbcd9a308	-0.026566997

weight f4 [42, 84]
0	0xbdd20eca	-0.10256727
1	0xbe33cf97	-0.17559658
2	0x3de0eedf	0.10983061
3	0xbd2f551e	-0.042805783
4	0x3c89c6ac	0.016818367
5	0x3cca466b	0.024691781
6	0xbd11dea0	-0.035612702
7	0xbde8c77e	-0.11366175
8	0xbca96ffb	-0.02068328
9	0x3d98aa42	0.07454349
10	0x3a1cee3e	0.00059864286
11	0xbe0eb4a1	-0.13936092
12	0xbdbcf5a2	-0.09226538
13	0x3e3ce04b	0.18444936
14	0x3d98cce6	0.07460956
15	0xbc874d22	-0.016516272
16	0x3e813a11	0.25239614
17	0x3deb6f88	0.11495882
18	0xbe9735ad	-0.2953314
19	0xbaf4af26	-0.0018667921
20	0xbcf1b26b	-0.029504022
21	0x3e22f65b	0.1591429
22	0x3c722345	0.014778917
23	0xbecb45be	-0.39701647
24	0xbc40faef	-0.011778577
25	0xbc45f139	-0.012081438
26	0xbe19c164	-0.15015179
27	0x3d33538c	0.04378085
28	0x3e4fd978	0.20297801
29	0x3d65823c	0.056032404
30	0xbda35eed	-0.0797709
31	0xbe632c31	-0.22184826
32	0xbd668a5e	-0.0562843
33	0xbdf52bd6	-0.11971252
34	0x3c744e9d	0.014911321
35	0x3dab40a3	0.08361938
36	0x3deaf6d6	0.114728615
37	0x3ea32394	0.3186308
38	0x3e83bc6b	0.2572969
39	0xbd669d0d	-0.05630212
40	0xbd0eef73	-0.034896325
41	0xbe080977	-0.1328486
42	0x3d232160	0.03982675
43	0x3dda1101	0.106477745
44	0x3e101d29	0.14073624
45	0xbbcfdfa3	-0.0063437982
46	0xbd6ec546	-0.058293603
47	0xbed79adb	-0.42110333
48	0x3d450365	0.04809894
49	0xbde6a87d	-0.11262605
50	0x3ddd9410	0.10819256
51	0x3de65eb1	0.1124853
52	0xbd9bd2ed	-0.0760859
53	0xbdf7e44e	-0.121040925
54	0x3d6a8979	0.05726001
55	0xbd056da0	-0.03257525
56	0x3d185a60	0.037195563
57	0x3cf7e151	0.030258806
58	0xbdcdb4d0	-0.10044253
59	0x3d2c6cb8	0.04209587
60	0xbd0d3aad	-0.034479786
61	0xbe3b6404	-0.18299872
62	0xbcf91bd8	-0.030408785
63	0x3d175f1d	0.03695594
64	0x3dbc4d5c	0.09194443
65	0xbeaaca78	-0.33357596
66	0x3e6a86e4	0.22903019
67	0x3dc9d3f5	0.09854881
68	0x3d486e99	0.0489336
69	0x3dda91f2	0.10672368
70	0xbdeb4872	-0.11488427
71	0x3daa1986	0.083056495
72	0x3da65d10	0.08123219
73	0x3c196603	0.0093627
74	0xbc867d04	-0.016417034
75	0x3eac20f0	0.3361888
76	0xbdcee44f	-0.1010214
77	0x3d8de4db	0.06928416
78	0xbe8f9d0d	-0.28049508
79	0xbd6061ba	-0.0547807
80	0x3e5388e2	0.20657685
81	0x3e7a7b4a	0.24461094
82	0xbd084cd3	-0.03327639
83	0xbe42965e	-0.19002673
84	0xbcd02c99	-0.02541189
85	0x3d2911bc	0.04127668
86	0x3da7a934	0.0818657
87	0xbcea35c7	-0.028590096
88	0x3dba0298	0.09082526
89	0xbd03ea9b	-0.03220616
90	0x3c3f266f	0.011666878
91	0x3c04ee01	0.008113385
92	0xbd7212e0	-0.05910003
93	0xbe0251d0	-0.12726521
94	0xbce5e9ad	-0.028065527
95	0xbbf1b314	-0.007376084
96	0xbd6cf6ed	-0.057852674
97	0x3c8a7763	0.016902631
98	0xbd32f9ea	-0.043695368
99	0x3d2a3546	0.04155471
100	0x3d23e9d7	0.04001793
101	0xbb9af58e	-0.0047289794
102	0x3d749b82	0.059718616
103	0xbdad2fb1	-0.08456362
104	0x3cf9dffc	0.030502312
105	0xbd2c3d29	-0.042050514
106	0xbd9403d9	-0.072272964
107	0x3dbc7875	0.09202663
108	0xbdf1ec7f	-0.11812686
109	0xbcec77e1	-0.028865756
110	0xbe040254	-0.12891513
111	0xbda0eaee	-0.07857309
112	0x3d88cc30	0.06679571
113	0xbe1818fe	-0.14853284
114	0x3da87e71	0.08227242
115	0x3c571710	0.013128057
116	0x3d806097	0.06268423
117	0xbe27ad7a	-0.1637477
118	0x3d87dc90	0.06633866
119	0xbc4f8f48	-0.012668438
120	0xbe059d4e	-0.13048288
121	0xbdfcbb56	-0.12340419
122	0xbd8d7e31	-0.06908835
123	0x3c93fca4	0.018064804
124	0xbdc07686	-0.093976066
125	0xbdfcfc45	-0.12352804
126	0xbd831af7	-0.064016275
127	0x3d066e6b	0.032820147
128	0xbd932d2e	-0.07186352
129	0xbcd554de	-0.026041444
130	0x3d878ae3	0.066182874
131	0xbdb0d05e	-0.08633493
132	0xbd249e98	-0.04019031
133	0x3cc4dcd2	0.024031077
134	0xbceedbd6	-0.02915756
135	0xbdcf53d3	-0.1012341
136	0xbc1e97a2	-0.009679707
137	0xbdb33216	-0.087497875
138	0x3d92867a	0.071545556
139	0x3d451373	0.04811425
140	0xbc5fa7f0	-0.013650879
141	0x3d4584ac	0.04822223
142	0x3c0211ae	0.0079387855
143	0xbe04aa2c	-0.1295554
144	0xbdec4e5c	-0.11538383
145	0xbd9d4dcb	-0.076808535
146	0xbd9bc31f	-0.07605576
147	0x3d2e2173	0.04251237
148	0x3d89db73	0.0673131
149	0xbdfd68ab	-0.123734795
150	0xbda451d9	-0.08023424
151	0x3d685066	0.0567173
152	0x3cb39309	0.021920698
153	0xbd5a49dd	-0.053293098
154	0xbca820c7	-0.020523442
155	0xbd45a6be	-0.04825472
156	0x3d71ba99	0.059015844
157	0x3dc833e9	0.09775526
158	0xbbc3dde3	-0.0059773787
159	0xba762c98	-0.00093908
160	0xbd67ec45	-0.05662181
161	0x3bef9c61	0.007312343
162	0x3d861f63	0.06548955
163	0xbc581a13	-0.01318981
164	0xbe065ed6	-0.13122115
165	0xbd940f63	-0.07229497
166	0x3ce4f292	0.027947698
167	0xbd7372f5	-0.059435803
168	0x3e13250e	0.14369604
169	0xbd1a20a8	-0.0376288
170	0x3d5532db	0.052050453
171	0xbdb5d998	-0.08879393
172	0x3d557f10	0.05212313
173	0x3db503ea	0.08838637
174	0xbb903e33	-0.004401946
175	0xbe83566b	-0.2565187
176	0x3b91762e	0.004439137
177	0x3e75cfa1	0.24004985
178	0xbc08807e	-0.008331416
179	0x3e2fc807	0.17166148
180	0x3c74ecb6	0.014949014
181	0x3e5d7ffe	0.21630856
182	0xbdd34dda	-0.103175834
183	0xbd695f1c	-0.05697547
184	0x3dfad526	0.12247686
185	0xbc6a9312	-0.014317291
186	0xbe11bcbf	-0.14232157
187	0xbd6398e2	-0.055565722
188	0x3c7beb7e	0.01537597
189	0xbb3629e3	-0.0027795963
190	0xbea1910d	-0.31555977
191	0xbe1f0bf5	-0.15531905
192	0x3d9ae15e	0.07562517
193	0x3d08387d	0.033256996
194	0xbd6ce84c	-0.057838723
195	0xbd80f724	-0.06297138
196	0x3d6cbc58	0.057796806
197	0xbe05b83f	-0.13058566
198	0xbbc53f03	-0.0060194745
199	0x3e9ce270	0.30641508
200	0xbc959e6e	-0.018264022
201	0x3dc3f47a	0.095681146
202	0xbd457486	-0.04820683
203	0xbca0ef2e	-0.0196453
204	0x3d6ecf44	0.058303133
205	0x3e01a57a	0.1266078
206	0x3c31d4c1	0.010853947
207	0xbcbaa204	-0.022782333
208	0x3d5faf16	0.054610334
209	0xbe364b26	-0.17802104
210	0x3a235c2c	0.0006231691
211	0x3db830e1	0.08993698
212	0x3e3648c6	0.17801198
213	0xbd3f697d	-0.04673146
214	0x3d6eb4f6	0.058278047
215	0x3d28b988	0.04119256
216	0xbb96f273	-0.004606539
217	0x3e6f558b	0.23372476
218	0x3edb9185	0.4288446
219	0xbc261121	-0.01013592
220	0x3dd4b28e	0.10385619
221	0x3d60ca48	0.05488041
222	0x3db37634	0.0876278
223	0x3d79b3e5	0.060962576
224	0x3e03d057	0.12872444
225	0xbd884109	-0.066530295
226	0x3dc4f531	0.09617079
227	0xbe5ce952	-0.2157338
228	0xbdc6d620	-0.0970881
229	0xbc7c3b5f	-0.015395015
230	0x3d740309	0.059573207
231	0x3d81eb43	0.06343701
232	0x39fd8177	0.0004835238
233	0x3db17fac	0.086669296
234	0xbd9e7766	-0.07737617
235	0x3e808d4c	0.251078
236	0xbcc1eb5c	-0.023671798
237	0xbd87a323	-0.06622913
238	0x3c07dd75	0.008292546
239	0xbd9f0208	-0.07764059
240	0x3cbecc7c	0.023290865
241	0xbd46ae78	-0.04850623
242	0x3d992876	0.074784204
243	0x3d9d6bd7	0.076865844
244	0x3cf35413	0.029703176
245	0xbd44e23a	-0.04806731
246	0x3d6b6d8e	0.057477526
247	0xbbdb29e4	-0.0066883434
248	0x3db4bedb	0.08825465
249	0x3d86f4ca	0.065896586
250	0xbcfda543	-0.030962592
251	0xbe2f3e78	-0.17113674
252	0x3e193735	0.14962466
253	0x3d99aa74	0.075032145
254	0x3d76570a	0.0601416
255	0x3e3bd8a8	0.18344367

bias f4 [42]
0	0xbd43e6ac	-0.047827408
1	0x3ccfd9b3	0.025372362
2	0xbde4df5c	-0.11175415
3	0x3e7af618	0.2450794
4	0xbde326a5	-0.11091355
5	0x3e4a9287	0.19782458
6	0x3e8a7666	0.27043456
7	0x3e27811e	0.16357848
8	0xbd78e36f	-0.060763773
9	0x3d834f75	0.064116396
10	0xbd8829eb	-0.0664862
11	0x3da8a771	0.08235062
12	0xbdc42d77	-0.09578984
13	0x3da8df82	0.08245756
14	0x3e25cc61	0.16191246
15	0x3e06d98b	0.13168924
16	0x3e02ca19	0.12772407
17	0x3e9b21c9	0.30299214
18	0x3d71115e	0.058854453
19	0x3e80f908	0.25189996
20	0x3df55b85	0.119803466
21	0xbd5058f4	-0.050866082
22	0x3dc1e91f	0.094682924
23	0x3ddb26fd	0.10700796
24	0x3da1b6d0	0.07896197
25	0xbdc1a6a8	-0.09455615
26	0xbdf0a87e	-0.11750887
27	0xbde9901f	-0.11404442
28	0xbcdd0265	-0.02697868
29	0xbd158805	-0.03650667
30	0xbd574732	-0.05255813
31	0x3cdd9e6d	0.027053082
32	0x3de8c6b7	0.11366027
33	0xbeb3080c	-0.34967077
34	0x3ebf1a03	0.37324533
35	0x3dfbd757	0.12296932
36	0xbdc594e5	-0.0964754
37	0xbd951e5e	-0.07281183
38	0x3d289780	0.041160107
39	0x3cd8267f	0.026385544
40	0xbc2cad75	-0.010539402
41	0x3dd4ea26	0.10396223
