models/model.pt (torch, 165330 bytes, 12 tensors)

conv1.weight f4 [4, 1, 3, 3]
000000 ad c9 80 bf f2 06 2e be 58 2e 3c 3f bc 03 cd be
       -1.0061547 -0.16994837 0.73508215 -0.40041912
000010 1b a4 a3 3e 89 f6 03 3f 1e f4 02 3f 0b 79 67 3f
       0.3196114 0.5154806 0.51153743 0.9041907
000020 69 69 14 3f 79 c7 52 3f 75 f0 84 3f 79 3a 38 3f
       0.57973343 0.8233562 1.0385882 0.7196422
000030 80 89 fe 3e 24 c9 6a 3f db 48 0f be 45 bf 46 3f
       0.4971428 0.91713166 -0.13992636 0.77635604
000040 14 a6 b9 3e 0b b2 97 bf 55 90 2a be e4 2b 45 3f
       0.3625952 -1.1851209 -0.16656621 0.77020097
000050 17 27 85 3f 75 30 42 3f 0b 2c 57 3f 07 2a 3a 3f
       1.0402554 0.7585519 0.8405158 0.7272038
000060 c6 32 0e 3f 51 df 67 3f 68 f8 66 3e cd 85 de 3e
       0.55546224 0.9057513 0.22555697 0.43461457
000070 73 7b dd be 92 78 e5 be 8c fd 44 be 33 b1 7d be
       -0.43258247 -0.4481855 -0.19237345 -0.24774627
000080 97 e1 c6 be c1 1a ec 3e 69 ec 8c bd 8f 40 27 3f
       -0.38843986 0.46114162 -0.06881029 0.65332884

conv1.bias f4 [4]
000000 00 2e 72 bc 76 1d 5d bc 91 c9 4d be fc 9a f5 3e
       -0.014781475 -0.013495794 -0.20096423 0.47969806

conv2.weight f4 [2, 4, 3, 3]
000000 e0 61 f8 be cc 81 02 be 54 74 98 3e 34 d4 41 bf
       -0.48512173 -0.12744826 0.2977625 -0.7571442
000010 9d 8e d5 3e 23 2f f7 3e 96 05 f5 3d d1 41 b4 3e
       0.41710368 0.4827815 0.11963956 0.35206464
000020 15 6b 29 3d 8b 2c a0 3e 89 c2 b4 be ef 45 c5 3c
       0.041361887 0.31283984 -0.3530467 0.024081198
000030 64 ce c0 be 19 05 f2 be 97 98 b8 3e 84 81 2c bf
       -0.37657464 -0.47269514 0.36053917 -0.67385125
000040 ff 4c d1 3e ab 34 3b 3f 96 6d f5 3d 02 9f fb be
       0.40879056 0.7312724 0.119837925 -0.4914475
000050 0f 47 71 3d bd 38 47 bf 89 67 5c be 8b 71 b4 3e
       0.058905657 -0.7782095 -0.2152387 0.35242876
000060 28 7c 4b be b7 f2 cc 3e b5 07 83 3e 2f ca 5b 3d
       -0.1987158 0.40028927 0.25591817 0.053659614
000070 1f 41 84 3e ef 0e b5 be 91 c9 91 be 5d 41 aa bd
       0.25830933 -0.35362956 -0.28474095 -0.08313248
000080 bb 73 f0 be e1 75 2c 3d be 33 e7 bb 30 bf 58 be
       -0.46963295 0.042104606 -0.0070557287 -0.21166682
000090 09 37 2e 3c 65 83 25 3d 7c 56 32 bc df b0 81 b9
       0.010633239 0.04040851 -0.010884877 -0.00024736577
0000a0 ec c4 b4 3d 9e 08 20 bd 38 83 c9 3d e2 bc 1e be
       0.08826622 -0.039070718 0.09839481 -0.1550174
0000b0 6b 6a 3b be 66 ac 36 be bb 6e fb bd e3 05 37 3d
       -0.18302314 -0.17839202 -0.122769795 0.04468335
0000c0 69 b4 65 3d 9f 4f 42 be b4 1d 34 bd 2b fd 2c be
       0.056080256 -0.18975686 -0.04397364 -0.16893451
0000d0 af ea 44 3c b2 ea dc bd 37 ea 94 bb a3 4a de 3d
       0.012018844 -0.10786952 -0.004544522 0.108540796
0000e0 29 76 06 bd ca 50 5e bd 20 d5 0a 3e e1 16 11 be
       -0.03282753 -0.054276265 0.13557863 -0.14168884
0000f0 c5 0d 97 bc a6 94 c1 bd e6 55 4f bb 56 dd aa bd
       -0.018439183 -0.094521806 -0.0031636893 -0.08342998
000100 5b fe 3e bd 03 61 36 3d 32 47 27 3d a5 90 44 be
       -0.04662929 0.04452611 0.04083938 -0.19195803
000110 e6 bc e6 bd 0c 64 83 bc 70 de a4 bd af dd 84 bd
       -0.11266498 -0.016038917 -0.08050239 -0.06487595

conv2.bias f4 [2]
000000 3c 2a d6 bb 9d 74 96 bd
       -0.0065357964 -0.07346461

conv3.weight f4 [2, 2, 3, 3]
000000 98 0f 53 3e 61 86 d4 be 94 54 4b 3c 51 13 72 3e
       0.20611417 -0.41508773 0.012410302 0.23640181
000010 61 2a 63 be c4 73 31 3d 71 aa fa be 06 13 e8 3e
       -0.22184135 0.043323293 -0.4895816 0.45327014
000020 c0 89 6d 3e 95 27 0d bd f9 80 85 3d a5 73 0e be
       0.23197079 -0.034461576 0.0651874 -0.13911302
000030 e4 92 d3 bd 57 e4 00 3e 55 1d 51 be 48 c1 b8 bd
       -0.103307515 0.12587105 -0.20421346 -0.090212405
000040 af 90 2f 3e c9 76 4c be 83 ee 09 be e5 26 2c be
       0.17145036 -0.19967188 -0.13469891 -0.16811712
000050 84 af 05 bf ef 22 24 be 16 6c fc 3d 8d db 31 3f
       -0.5222094 -0.16028951 0.12325303 0.6947563
000060 08 4e 21 3e 1a ca fc be 2e 1c 5d be 10 83 60 be
       0.15752423 -0.4937294 -0.21592781 -0.21924996
000070 bd 11 54 3e cd 9e 6b bd 43 bb 1e 3e dc be 16 3e
       0.20709892 -0.05752449 0.15501122 0.14721245
000080 7d 0f 5a 3e e8 ba 13 3e 7f c5 c0 bc 3b 45 44 3e
       0.21294971 0.14426768 -0.023531673 0.19167034

conv3.bias f4 [2]
000000 70 d7 c3 be 4e 3e 24 bb
       -0.38250303 -0.002506155

fc1.weight f4 [120, 242]
000000 b2 75 31 bd bb 78 b1 bc 86 62 28 3d 47 4e 01 3d
       -0.043325134 -0.021664014 0.041109584 0.03156879
000010 cf 25 80 bd fb 2a c7 3c b7 ed 02 3d cd 69 b6 bd
       -0.062572114 0.024312487 0.031964984 -0.08906899
000020 29 00 1e 3c 52 eb f1 bc 5f 53 1d 3d 11 85 73 bd
       0.009643593 -0.029531155 0.038409587 -0.059453074
000030 69 99 a9 bd ab 5e a1 bb 88 9c 77 bc a0 fd 69 3c
       -0.08281214 -0.0049246154 -0.015113004 0.01428166
000040 4e 7b 43 bd ec 91 95 bd d4 1e 34 bd a7 68 b4 39
       -0.047725014 -0.07303223 -0.043974712 0.00034410247
000050 2c f1 c7 3c c7 4e f1 3c bb 9a e5 3c ca 6b aa bd
       0.024406992 0.02945651 0.028027883 -0.083213404
000060 e5 12 a3 bd cf 7f d9 3a c1 e9 a8 bb 66 ad 59 3c
       -0.07962588 0.0016593876 -0.0051548188 0.01328597
000070 bb e3 92 bd e2 80 93 3b 80 86 d0 bb e6 fb 24 bd
       -0.071723424 0.004501448 -0.00636369 -0.04027929
000080 a3 d9 43 bd eb 60 f5 bc e1 6b 8d bd e6 f2 9e bd
       -0.047814976 -0.02995344 -0.06905342 -0.07761173
000090 14 f6 12 3d 1e 1f b8 bd fc f3 8b bd 77 96 65 bd
       0.03587921 -0.0899031 -0.06833646 -0.056051698
0000a0 c5 32 30 bd 8b 1d ba 3c 67 e2 ad 3c e1 a1 b7 bd
       -0.043017168 0.022719165 0.021226121 -0.08966423
0000b0 01 3e 1b 3c bb b0 92 bc 7e 09 29 bd 62 ce e3 3c
       0.009475232 -0.017906537 -0.041268818 0.027808372
0000c0 0d 43 4f bd 55 d4 51 bd 96 33 71 3c 25 86 7b 3c
       -0.050601054 -0.051227886 0.014721772 0.015351807
0000d0 6b 37 98 bb 00 5f 9d ba 3b 50 84 3c c3 ea 50 bd
       -0.004645278 -0.0012006462 0.016151538 -0.051005136
0000e0 0d ec 9f bc bb 85 99 bd a0 ee 80 3c dd 18 df bc
       -0.019521737 -0.0749621 0.015738785 -0.027233535
0000f0 2a d0 80 bd bb dc 63 bd 26 0e 93 3c 1b 5f 10 bc
       -0.06289704 -0.055630427 0.017951082 -0.008811737
000100 f0 8d 77 bd 6d e3 0c 3d 68 1a aa bc 44 be 33 bd
       -0.060438097 0.034396578 -0.020764545 -0.043882623
000110 c3 7f 8c bc 08 0b 49 bd e5 83 71 ba a3 3e df 3c
       -0.017150765 -0.049082786 -0.0009213074 0.027251547
000120 d8 1c 60 bd 14 4a 0e 3d 0c e3 55 bd c7 80 e6 3b
       -0.054715008 0.034738615 -0.052218482 0.0070343944
000130 2d 8c b0 3c 89 0a 10 3d 23 a3 4b bd 10 a3 15 bd
       0.021551216 0.035166297 -0.049716126 -0.03653246
000140 a7 2d 55 bd 4a fa a1 bd e8 b2 d1 3c 88 9a 74 bc
       -0.05204549 -0.07909067 0.025598004 -0.014929421
000150 70 f5 4d bd 00 22 01 3d 07 6a c9 bc 6d 81 ea bc
       -0.050282896 0.031526566 -0.02458669 -0.028626168
000160 fe 29 2d 3c 38 c3 85 bd c7 37 25 bd 67 5c 9a bd
       0.010569094 -0.06531376 -0.040336397 -0.075371556
000170 43 97 a0 bd bd 2d 0f bd f7 c4 25 bd e6 65 88 bd
       -0.07841351 -0.03495573 -0.040471043 -0.066600606
000180 e0 a7 d6 bb 18 af a6 3b 58 4b 7c bd 7d 03 55 bc
       -0.006550774 0.005086791 -0.06159529 -0.01300132
000190 aa 32 9f bd e7 80 b1 3c bf a0 9d bd 1f 11 27 bd
       -0.07773335 0.02166791 -0.076966755 -0.040787812
0001a0 c6 a0 22 bd 0b 38 bb bc a5 7f c4 3c 20 af 72 bd
       -0.039704107 -0.022853872 0.023986647 -0.059249043
0001b0 17 6a 1d bd 3f e8 14 3b 18 76 1f 3d 51 3d 1c bd
       -0.038431253 0.0022721437 0.038930982 -0.038144413
0001c0 48 99 c7 bc 4c 08 51 bd e9 97 87 bd 1c 12 01 bd
       -0.024365082 -0.051033303 -0.066207714 -0.03151141
0001d0 96 8e ef ba 44 da 3c bc a5 ed a8 bd b3 b0 2d 3d
       -0.0018276747 -0.011526648 -0.08248452 0.04240484
0001e0 8b db 9e 3c f4 55 6d 3d c8 3c 19 bd bb 1e ca 39
       0.019391796 0.0579433 -0.03741148 0.00038551338
0001f0 7e be 4d bd be db 28 bd 43 13 4a bd 73 30 79 bd
       -0.050230496 -0.041225187 -0.049334776 -0.06083722
000200 f4 c4 99 bb b0 c9 c6 3c 34 9e 83 3d 86 04 75 3d
       -0.004692668 0.024266094 0.06426659 0.059818767
000210 52 04 13 3d 8f 5e bc bb cc 1f fe 3c 6a 7b e9 3c
       0.035892792 -0.005748577 0.031021021 0.028501231
000220 eb 3f 4e 3c c0 e9 f9 3c 72 54 00 3d 3b 74 b7 ba
       0.012588481 0.030506968 0.031330533 -0.0013996431
000230 d6 a2 df 3b 2e 20 c4 39 16 a7 3a 3d 77 71 c1 bc
       0.0068248315 0.0003740801 0.0455695 -0.023613675
000240 47 3b 63 3d d9 99 ce 3b 0f 84 33 3c a1 88 90 bc
       0.055476453 0.006304961 0.010956778 -0.017643275
000250 9f fd 4c bd 8d 48 0a 3d d6 ce 88 bc 0d 2c 8d bc
       -0.05004656 0.033760596 -0.01670019 -0.01723292
000260 5a 3c cb bc 8c 08 3f 3d ea 9b 15 bd 1d 5f c4 3b
       -0.024809051 0.04663901 -0.036525644 0.0059927837
000270 0c 6b e8 3a 36 6b 07 bd 18 01 f2 bb 0a 22 48 3d
       0.0017732098 -0.03306123 -0.0073853843 0.048860587
000280 b5 78 fc bc b0 39 b4 3b c4 fd f1 bc 57 29 5f 3d
       -0.030819276 0.005500041 -0.02953995 0.054482784
000290 e2 69 c5 bc 93 b4 c4 bc da b1 55 bd d7 46 0d 3a
       -0.02409834 -0.024011886 -0.052171566 0.0005389279
0002a0 5a 98 cd bc c0 c2 5d bd af 19 48 3d da 8e 39 3c
       -0.025097061 -0.054140806 0.04885262 0.011325562
0002b0 5e a9 15 3d 8d 3e 1a bd fe 28 74 3c 10 bd 26 3d
       0.036538474 -0.03765731 0.014902351 0.040707648
0002c0 63 4f 9a bc 2a 1a 91 3c c5 f0 90 3c 4e c8 1e 3d
       -0.018836683 0.017712671 0.017692933 0.038765244
0002d0 f9 eb 61 bd c1 fe e8 3c a5 ef bc ba 6e a5 f8 3b
       -0.05515668 0.028441789 -0.0014414681 0.00758808
0002e0 af db bc bc ee c1 ec bc 1b 1e b6 bc 22 19 49 3c
       -0.023053972 -0.028901067 -0.022231152 0.012274059
0002f0 0b c5 c3 3c e1 9f 6d bd f0 26 10 bd 4f 5b 42 bd
       0.023897668 -0.0580138 -0.035193384 -0.04745036
000300 df 02 48 3d 05 e4 52 3c 9f 7b e2 bc 6f 15 4f bc
       0.048830863 0.012871747 -0.027646838 -0.0126393875
000310 99 23 25 3b 20 f1 54 bd de d6 de bc 81 d3 97 bc
       0.002519822 -0.051987767 -0.027202066 -0.01853347
000320 4f d5 18 bc ee 59 64 3a f0 99 9d 3c dd d4 2b bd
       -0.0093282005 0.00087109103 0.019238442 -0.04195105
000330 df 7b ff 3c 9c ac 89 3c 80 42 69 3d 29 be 1a 3d
       0.031186996 0.01680594 0.056948185 0.037779007
000340 7d bb fa bc 5e 30 56 bc 82 13 1a bd bb 69 43 bd
       -0.03060698 -0.013073055 -0.03761626 -0.047708254
000350 85 90 58 bd df 81 91 3c 9b 06 0a 3d a1 d6 50 bd
       -0.0528722 0.017762123 0.033697706 -0.050985936
000360 6f c5 fd bc 54 e3 34 3c fa 7c 9d bc 46 c6 14 bd
       -0.030977933 0.011040527 -0.019224633 -0.0363219
000370 c7 ab dd bc 14 49 0b 3b ed 5e 18 3d 2f db 0b bd
       -0.027059449 0.0021253275 0.037199903 -0.034144577
000380 3b 12 70 bd 08 0a ec bc 25 fd 82 3d 05 c5 68 bd
       -0.058611136 -0.028813377 0.0639594 -0.056828517
000390 90 cd 1d 3d 60 f3 9b bc 62 d5 90 3c 3a 5d 48 bd
       0.038526118 -0.019036949 0.017679874 -0.048917033
0003a0 86 dd 35 3d 38 a6 6d 3d e5 17 fb bc 09 a2 63 bd
       0.044400714 0.058019847 -0.030651042 -0.05557445
0003b0 98 6f 0b bd b0 24 44 bd bc fe 86 bc 71 28 7a bd
       -0.03404197 -0.04788655 -0.016478889 -0.061073724
0003c0 74 66 de bc d1 9b 76 3d a0 1f 3d bb 6c 87 6e bd
       -0.027148463 0.06020719 -0.0028857961 -0.058234617
0003d0 72 ae 73 3e 7b 5e 27 3e cc 17 80 3e 56 40 03 3e
       0.23797014 0.16344635 0.25018156 0.12817511
0003e0 fe 93 b6 3d bc 1a ec 3d c3 17 22 3e 55 cb 1f 3e
       0.08914946 0.11528537 0.15829377 0.15604909
0003f0 4c 47 32 bd cd 93 f1 3d 6a 29 68 3d 64 a6 77 3c
       -0.043525025 0.11795769 0.05668012 0.015115354

fc1.bias f4 [120]
000000 55 59 89 bd f2 15 af be cc c2 3b be fc 8d a9 bd
       -0.06706492 -0.3419643 -0.18336028 -0.082790345
000010 78 c3 8c 3d 6d 7d d5 bd 8c 89 ba 3c 4c c0 03 bd
       0.0687322 -0.10424314 0.022770666 -0.03216581
000020 95 7c 06 bd 70 9f 79 bd 56 54 db 3e c1 33 a7 bd
       -0.032833654 -0.060943067 0.4283778 -0.08164168
000030 bc 0a 08 3d de 9e bd 3d f7 f9 41 bd a1 f8 b8 bb
       0.033213362 0.09258817 -0.047357526 -0.0056448733
000040 c4 e6 b9 bc 3b 9a 74 bd 87 2d a5 bc 00 6c 0e 3d
       -0.022693045 -0.059717398 -0.02016331 0.034770966
000050 87 53 cb 3d 35 19 df 3d c2 ad 7d 3e 11 ad 48 bd
       0.09928041 0.1089348 0.24773315 -0.048993174
000060 7a 13 3f bd 36 ef 97 3c 1b 99 c1 bd b9 6f 13 3c
       -0.046649434 0.018546682 -0.09453031 0.008998805
000070 f6 12 cc 3d 58 5e d6 bb ec b5 c0 bd 78 b1 a4 bd
       0.09964554 -0.0065420084 -0.09409699 -0.08041662
000080 94 2e 93 bd b5 6e 01 3e 2b 7b d1 3d dd 7b 03 3e
       -0.071866184 0.12639888 0.102285706 0.12840219
000090 47 3e e1 bd 28 70 c3 3e be d8 91 3e 0e 8b d5 bd
       -0.109982066 0.38171506 0.28485674 -0.10426913
0000a0 83 c8 07 3e 56 61 6e bd 03 bf 00 3e 1a b3 eb 3c
       0.13260083 -0.058198296 0.12572865 0.028771926
0000b0 5d d3 6b 3c e0 08 92 3d b2 bc 68 bd 5e c1 53 3c
       0.014393655 0.07130599 -0.05682058 0.01292452
0000c0 c2 94 59 3d 02 8a e3 3d 77 15 a7 bd 59 51 d3 3d
       0.053120382 0.11110307 -0.08158391 0.1031825
0000d0 b0 8f bf bd 08 a9 72 3d 73 de c3 3c d3 37 58 bd
       -0.09353578 0.059243232 0.023909783 -0.052787613
0000e0 6f c5 bc bc 74 97 3c bd cf 05 0a bd 6f 1e 83 bd
       -0.023043362 -0.046042874 -0.033696946 -0.06402289
0000f0 be c1 85 3d c5 12 1d bc 6a 0d 86 be 56 d5 cd 3d
       0.06531094 -0.009586995 -0.2618211 0.10050456
000100 a4 a2 97 3e 98 73 96 3e 54 b0 46 bd 9b 3f 1f 3b
       0.29616272 0.29385066 -0.048508003 0.0024299386
000110 9b af 01 bd 7c 59 a9 bc bb ca 93 bd 3f 9a b2 bd
       -0.03166161 -0.020672552 -0.07216402 -0.08720826
000120 0e 92 2d be bd 6c a0 3e c1 95 fb bc 91 73 d7 3c
       -0.16950247 0.3133296 -0.030711057 0.026300224
000130 29 20 c5 3b 14 1f 81 be e2 46 03 bd 5c 8e d4 3d
       0.0060157967 -0.25219023 -0.03205002 0.103787154
000140 b7 49 9b bc bd e9 2b 3e bc 1e 2f 3d b3 b8 9c bd
       -0.018956048 0.16788383 0.04275392 -0.07652416
000150 cd b5 6d 3e b5 a4 ae 3e 6e d3 b6 3d a4 d7 b0 bd
       0.23213883 0.34110036 0.08927046 -0.0863488
000160 06 01 d4 bc b3 b7 56 bd 82 90 9a bd b8 e5 8d 3c
       -0.025879394 -0.052421283 -0.07547094 0.017321452
000170 c1 8a 9a 3d 50 3a a8 bd 8a 85 e0 bc 6f 5a 1e 3d
       0.075459965 -0.08214247 -0.027407426 0.038660463
000180 31 6f 88 3e 80 0b 8c be c5 74 ab bd 2a 75 b2 3d
       0.26647332 -0.27352524 -0.083718814 0.087137535
000190 93 a3 87 be bd 67 ed 3d 0c a1 c2 bc 0a 73 75 bd
       -0.26491985 0.11592052 -0.023758434 -0.059924163
0001a0 1a e0 a7 3e 22 68 db bc cb 2e a6 3d 55 80 1d ba
       0.32788163 -0.026783053 0.08114394 -0.00060081977
0001b0 3e 3b 70 3d e4 c6 be 3c cc 5a 3b 3e fe 7a 69 bd
       0.058650248 0.023288198 0.18296355 -0.05700206
0001c0 77 7b 89 3d e0 cd 28 3c eb ed a0 bc 8e f6 64 3d
       0.06713002 0.010302991 -0.019644698 0.055899195
0001d0 5b 50 90 3e 6d 83 15 3d 28 d6 24 3a f3 70 14 bc
       0.28186306 0.03650229 0.0006288015 -0.009060132

fc2.weight f4 [84, 120]
000000 24 f5 ea bc 32 ff 88 bc 9b 0d 11 3e e3 ea 4a bc
       -0.028681345 -0.01672325 0.14165346 -0.012385103
000010 4e 9d 61 3e 84 4c b9 3b c4 38 ff 3b 3c f1 09 3e
       0.22032663 0.0056548733 0.0077887494 0.1347093
000020 98 71 4d bd 48 0b 5a bd ed ff 28 3e 35 9c 04 bd
       -0.05015716 -0.053233415 0.16503878 -0.032375533
000030 18 a0 8b bd e0 f2 29 3c 5e 80 09 bc 0b 9b e3 3d
       -0.06817645 0.010372847 -0.0083924215 0.111135565
000040 e3 1b 95 bd 66 12 2a bd 68 e1 ea 3c f0 18 7f 3d
       -0.072807096 -0.041521452 0.028671935 0.06227964
000050 57 d0 d3 3c 3e d0 da be b6 1f 24 3d 11 fe c8 bd
       0.02585618 -0.42737 0.040069304 -0.09814084
000060 c6 41 22 be c5 66 6f bd cc 23 a1 bd 32 55 7f 3d
       -0.15845403 -0.058447618 -0.07868156 0.062337108
000070 52 d0 0c 3c a5 32 4b be f3 50 12 3c dc dc 48 3d
       0.008594589 -0.19843538 0.008930433 0.049038753
000080 a2 c0 91 bd ff 15 1a 3e 70 bd 4d 3d 8a 8b ef bc
       -0.0711682 0.15047453 0.05022949 -0.029241342
000090 62 0b 5b 3d 2d 36 87 3e c8 48 3d bb 17 27 47 be
       0.053477652 0.2640852 -0.0028882492 -0.19448505
0000a0 ff 33 27 bc 87 2c b3 3b 08 45 39 3e 87 b6 cd bc
       -0.010205268 0.0054679546 0.1809274 -0.02511145
0000b0 7c 20 0d 3d c0 51 83 bd 25 bd 3c bc 76 8f 23 3e
       0.034454808 -0.06412077 -0.011519705 0.15972695
0000c0 a4 d8 e1 3d 0c 17 be 3d b1 16 43 3d 12 9a af be
       0.11027649 0.092817396 0.047629062 -0.34297234
0000d0 0c 22 ef bb fb 4b ad bd b8 21 44 3e 0d 4c 82 3d
       -0.00729776 -0.08461758 0.19153488 0.06362162
0000e0 0c 70 51 bd e1 53 15 bc 2f ef e6 3d c7 2b 76 bd
       -0.051132247 -0.009114237 0.112760894 -0.060100343
0000f0 76 f8 0d be 83 98 48 bc 3e 7f f0 3d 48 07 1a bd
       -0.13864312 -0.012243393 0.117430195 -0.0376046
000100 46 7b 6e bd d5 08 41 3e fe 86 ab bc b2 2d 01 3d
       -0.05822303 0.18851025 -0.020938393 0.03153772
000110 a4 1c ed 3e dd 80 8f bc 95 c8 49 bc 29 a8 c5 bd
       0.46310914 -0.017517501 -0.012315889 -0.09651215
000120 fb b7 a9 3d da f9 dd 3d 19 18 4e 3b 73 c6 e8 bd
       0.082870446 0.10838671 0.0031447469 -0.11365976
000130 04 9f fb 3c 50 35 67 be b4 f9 12 bd 60 75 15 be
       0.030715473 -0.22578931 -0.035882667 -0.14595556
000140 2d 6b 01 be 75 e0 56 3e 06 98 01 be 61 3b 0f 3e
       -0.1263854 0.20984061 -0.12655649 0.13987495
000150 a5 98 5d bd db 11 0d 3e f1 21 42 be 8c 28 00 3d
       -0.05410065 0.13776343 -0.1895826 0.03128867
000160 31 81 7c 3d 52 30 b1 bc 60 50 36 3c 70 65 2f 3d
       0.061646644 -0.021629486 0.011127561 0.042821348
000170 36 01 89 3e 55 99 3b 3d e2 ab 7a bb d8 79 29 3d
       0.26758736 0.045800526 -0.0038249423 0.041375965
000180 d4 41 16 3e c0 48 8e 3c 00 8d 86 bd 1d 9f b0 3d
       0.14673549 0.017368674 -0.06569862 0.086240984
000190 b1 26 20 3e 63 d1 6b bc eb f5 64 3b 87 84 a4 3d
       0.1563976 -0.014393183 0.0034936618 0.0803309
0001a0 58 c2 68 bd 6e 7a 3f be 53 23 5d be 22 e0 72 3d
       -0.056825966 -0.18699047 -0.21595506 0.05929578
0001b0 5b d1 88 3e 42 ec 39 be 4a 76 23 3e 30 f4 61 bd
       0.26722226 -0.18156531 0.15963092 -0.055164516
0001c0 2d 41 80 be 58 db 90 bc ce 4d 20 3c 7e 0e f7 be
       -0.25049725 -0.017682716 0.009784175 -0.48253244
0001d0 30 11 15 3e f1 86 d0 bc 17 25 86 bb cc 97 2e 3d
       0.14557338 -0.02545497 -0.004093777 0.042625234
0001e0 d8 92 c6 3c 2f 7b 42 3e 8f 9a 75 be 4d 81 cd bc
       0.024239942 0.18992303 -0.2398474 -0.02508607
0001f0 4b b0 12 bc 08 17 e9 bb 59 11 6c bc 96 26 b9 bd
       -0.008953164 -0.0071133412 -0.014408433 -0.09040563
000200 ca b3 30 bd ce 8f 40 bd 1a 05 9f bc e2 7a 05 bd
       -0.04314021 -0.047012143 -0.019411612 -0.032587893
000210 82 6d 5b 3b f3 2e 7a be 68 d6 e0 bd 07 e2 b8 bd
       0.003348202 -0.24431972 -0.10978395 -0.09027486
000220 67 14 22 3e 80 7c d9 bc f5 55 33 be fe 8c 3a bd
       0.15828095 -0.026548624 -0.17513259 -0.045544617
000230 e9 40 93 bd 8b 63 b9 3d ea 8d 77 3d 35 07 a8 bc
       -0.07190115 0.090521894 0.060438074 -0.02051125
000240 72 87 c1 3d 82 d7 ab bd e1 4d c4 bc de 8e d9 bd
       0.09449662 -0.08390714 -0.023962917 -0.10622953
000250 fa b3 ee 3d fd f8 27 3e 4d c8 cf 3d ec 28 a3 3d
       0.116554216 0.16403575 0.10145626 0.079667896
000260 a0 85 05 3d 16 17 8b 3e eb e4 61 3e c4 64 f2 bd
       0.032598138 0.2716605 0.22059982 -0.11835626
000270 c0 10 2a bd ce e1 d6 bc 5d b1 0c 3e d3 7e 3d 3d
       -0.04151988 -0.026230719 0.13739534 0.046263527
000280 9c 0e 8d bd f9 ae c1 bc b4 4d 53 3e 0f d3 c4 3c
       -0.06887552 -0.023643004 0.2063511 0.024026422
000290 c9 c6 fe 3c bb af 53 3e 19 f4 86 3d ce 33 5b be
       0.031100648 0.20672505 0.06589527 -0.2140648
0002a0 0a 95 31 be f4 e7 35 3c fe 7c 94 3d e1 50 5b 3e
       -0.1734201 0.011102665 0.07250403 0.21417572
0002b0 94 8d 86 3c 68 2d e1 3c 13 26 54 be f7 bd 39 bd
       0.016424932 0.027487472 -0.20717649 -0.04534718
0002c0 cb c1 13 bd 5f 3d da 3c 61 78 17 be 8e 1f 7f 3d
       -0.036073487 0.026640592 -0.14792015 0.062285952
0002d0 4c c0 0f 3e f8 a6 a8 bd 26 4e 28 be ef 9c 9e 3e
       0.14038199 -0.08234972 -0.16436061 0.30979106
0002e0 04 9a 54 3e 9c 10 09 bd 10 a4 a6 3d 59 8c 9b bc
       0.20761877 -0.033463106 0.08136761 -0.018987821
0002f0 d6 90 15 be 5d f3 eb bc 98 31 7c bb ae 10 20 3e
       -0.14606032 -0.028802568 -0.0038481709 0.15631363
000300 63 d4 0c 3e 31 43 40 be 51 29 2c bd 5c 8f 8f bd
       0.13752894 -0.18775631 -0.04203159 -0.070097655
000310 60 0c 6e bd c9 cb 0e 3e 78 a8 3d bd 1d 36 a7 bd
       -0.05811727 0.13944925 -0.046303242 -0.08164618
000320 39 98 12 bd 90 b7 7c bd 55 fb 24 3e ef a3 48 be
       -0.035789702 -0.061698496 0.161115 -0.19593786
000330 96 08 4f 3e 5f 89 c8 3d c9 2e 67 3e fd 8a 63 bd
       0.20218119 0.097918265 0.22576441 -0.05555247
000340 07 9c b7 3e ab ca c2 bb 20 23 7a bd 26 3d 50 3d
       0.35861227 -0.00594457 -0.061068654 0.050839566
000350 bd d0 aa be 61 d5 5d bd bf b9 ce bd 1d bb 0c bd
       -0.3336238 -0.054158572 -0.10094022 -0.034358133
000360 ff a8 f4 3d 97 c4 50 bd 81 a2 99 bb 3a f6 d1 be
       0.11946296 -0.050968733 -0.0046885614 -0.41008168
000370 f8 99 b6 3d 2a 4e 1b 3e 2a 88 86 bd cf 36 84 3c
       0.08916086 0.15166536 -0.0656894 0.016139416
000380 e1 4f a6 3e 86 20 75 3c 49 99 95 3e 7a 7c 9b 3c
       0.32482818 0.0149613675 0.2921851 0.018980253
000390 4e d5 07 3e a4 43 86 3e fd d7 3d 3c 9f 6f ea bd
       0.13264963 0.2622348 0.01158714 -0.11447071
0003a0 2b b6 e0 3d 0a 0b c8 bd d0 4d 2b 3d 29 36 c8 3e
       0.10972246 -0.097677305 0.041822255 0.3910382
0003b0 c4 32 69 bd 2a 74 2a 3e 85 90 c2 bd d8 aa 88 bd
       -0.05693318 0.16645876 -0.09500221 -0.06673211
0003c0 b8 eb a1 bd 23 51 c8 3d a0 da a3 3d 4e 3b f4 bc
       -0.07906288 0.097811006 0.08000684 -0.029813435
0003d0 f8 00 a0 bd c1 a8 fd bc 9f 2d 5d 3e 20 83 01 bc
       -0.07812685 -0.030964257 0.21599434 -0.007904798
0003e0 59 d3 34 3d f5 55 c3 bd 18 e1 08 bf 3b 3d 7a 3d
       0.04414687 -0.095378794 -0.53468466 0.06109355
0003f0 6d 9c 88 3c de ef ac 3e 32 11 1d bd be 29 12 3d
       0.016676152 0.33776754 -0.038346477 0.03568434

fc2.bias f4 [84]
000000 50 20 6b 3e 2b 69 cf 3d 35 8a a4 bd 9e 23 39 3d
       0.22961545 0.10127481 -0.080341734 0.045199983
000010 89 3c 0c be dd 54 02 be 69 e1 10 bd 60 26 3f be
       -0.13694967 -0.12727685 -0.035371218 -0.18666983
000020 1a 54 ab bd 7f e2 26 be 2c 11 0a be 5f 55 12 3d
       -0.083656505 -0.16297339 -0.13483113 0.035725947
000030 bb 01 8e bd 78 be 0d 3d df d6 33 be e8 f5 80 bd
       -0.06933924 0.034605473 -0.17562436 -0.06296903
000040 09 12 0f be 37 61 11 be a4 07 14 be b1 89 8a 3e
       -0.13971724 -0.14197241 -0.1445604 0.27058175
000050 15 e8 92 3d 98 e2 6a 3d 7f 38 76 3e e7 ff 6d bd
       0.071731724 0.057345003 0.24044989 -0.058105376
000060 7d cb 81 be fe a9 ba 3d f1 23 23 3c 3f 1a c8 3d
       -0.25350562 0.09114455 0.0099573 0.09770631
000070 fa 72 a2 3e 39 27 a1 3d 35 96 02 be e8 54 da 3c
       0.31728345 0.07868809 -0.12752612 0.026651815
000080 4c db 5d 3d 58 04 39 be f9 ae 82 3d e1 55 07 be
       0.054164216 -0.18068063 0.0638103 -0.13216354
000090 0b 36 a8 be e3 a3 b0 bd 6c b5 54 3e 40 f5 03 3e
       -0.32853732 -0.08625009 0.20772332 0.12886524
0000a0 84 5f 83 bd e2 c1 bc 3e f3 5f 29 be 95 f1 77 bc
       -0.064147025 0.3686667 -0.16540508 -0.015133281
0000b0 14 a8 49 be b7 da 7a bd 8e 90 4a bd c3 88 b3 3e
       -0.19693023 -0.06124374 -0.049454264 0.35065278
0000c0 01 b8 c7 bc e8 15 1e 3d 34 95 4a bc f7 b8 b4 3e
       -0.024379732 0.03859511 -0.012364674 0.35297367
0000d0 a0 ea d8 bd 7e 8d 11 be 03 a6 91 3e fd 6c f0 3d
       -0.10591626 -0.14214131 0.2844697 0.11739538
0000e0 9e 74 35 3d 1e 03 ff bd bc 60 b0 3e 9d b1 04 3d
       0.044300668 -0.124517664 0.34448802 0.032395948
0000f0 6f 2f c9 3e ab f8 2f bd ce 97 99 3e 90 56 94 bd
       0.39294 -0.042961758 0.2999863 -0.07243073
000100 8d 69 8a bd a4 94 cb 3b fd f0 d0 bd a5 ae 8c 3d
       -0.067584135 0.0062127877 -0.10202215 0.06869248
000110 d2 2a 7c 3d 81 cc 4f bc a0 c5 2e be 68 8f 27 3e
       0.061564274 -0.012683035 -0.17067575 0.16363299
000120 56 fc ee bd 02 a9 e1 3d f5 e0 97 bd 7d 1f 7a bd
       -0.11669223 0.11018564 -0.07415954 -0.061065186
000130 88 95 14 be 6b 57 8e be 30 9b 16 3e 3e f4 17 3d
       -0.14510167 -0.2780107 0.14707637 0.037098162
000140 47 02 0f 3e a4 87 82 3d 4c c6 c5 3d 58 20 74 bd
       0.13965712 0.06373528 0.09656963 -0.059601158

fc3.weight f4 [10, 84]
000000 94 d9 8b 3e 2b 4e d1 be e2 89 d5 be 05 31 61 3e
       0.27314436 -0.4087995 -0.4170676 0.21991356
000010 68 7b 03 be fe 88 81 bf dc b8 46 3d ef 7c b3 bd
       -0.12840044 -1.0119932 0.04851614 -0.087640636
000020 33 28 43 3d fc c0 4c be b1 58 7c 3e b7 ad 46 be
       0.04764576 -0.19995493 0.24643208 -0.19402204
000030 38 99 c8 be 4d 49 59 be ef 3a 92 be f0 9c 08 bf
       -0.39179397 -0.21219368 -0.28560588 -0.5336447
000040 51 2c 2f bd 7c 78 46 3e d8 2f ad bd 47 47 61 be
       -0.042766873 0.19381899 -0.08456391 -0.21999846
000050 d4 98 38 3b 72 06 2e 3e e9 6d 29 3d 5f ef d8 bd
       0.0028167265 0.16994646 0.041364584 -0.105925314
000060 97 cc 6e be 65 fa 33 be 8b a5 9f bd 9c fb 1f bf
       -0.23320232 -0.17575987 -0.07795247 -0.624933
000070 d2 7f c5 3e 70 57 a5 3d fe 78 ec be 11 ac 61 bc
       0.38574082 0.08073318 -0.4618606 -0.013773934
000080 45 bb 5c 3d 1c 4e d2 bd a2 aa b7 be 36 df 74 be
       0.05388953 -0.102688044 -0.3587237 -0.23913273
000090 79 bc ab 3d 32 13 ce bb 33 13 92 3e 0b 9c 71 3d
       0.08385558 -0.0062889094 0.28530273 0.058986705
0000a0 98 d9 a1 be c3 5b 90 3e 9e c5 02 be c5 f3 f4 3d
       -0.31611323 0.2819501 -0.12770697 0.11960558
0000b0 4e d5 34 bd 98 1a 3b 3d fe d9 c1 3d 46 79 4a bd
       -0.044148736 0.04567966 0.09465407 -0.04943206
0000c0 00 53 20 bf a2 8a bb be 08 84 f5 bc cb c4 91 3d
       -0.6262665 -0.36629206 -0.029970184 0.071176134
0000d0 22 33 c6 be 7f 79 85 3c 2c d6 9a bb 93 04 bb bd
       -0.38710886 0.016293285 -0.0047252383 -0.09131732
0000e0 3a f2 4a 3d 7f 18 00 3d 82 96 3f 3e d5 48 cb 3c
       0.04954741 0.03127336 0.18709758 0.024815002
0000f0 be a6 18 bd 4d 55 30 be 53 f3 b4 3d 85 e4 bf bd
       -0.037268393 -0.1722004 0.08835473 -0.093697585
000100 41 18 f3 bd 85 28 a1 bd be 7e 4f be 1c 00 d2 bd
       -0.118698604 -0.078690566 -0.20263192 -0.10253927
000110 24 7d a9 3e 39 d1 52 be bc f8 29 3d 58 54 38 be
       0.33103287 -0.20587625 0.041496977 -0.18000925
000120 ba ba e7 bc 22 da fd 3c a1 a4 6d 3d ca 5b 6c 3d
       -0.02828728 0.030987803 0.05801833 0.057704724
000130 87 98 62 bd 7d df a8 bc 02 7f 9c 3e 45 8e 46 be
       -0.055321243 -0.02061438 0.3056565 -0.19390209
000140 a1 e3 d1 be eb b3 6d bd c7 96 1b bf 27 a1 0d be
       -0.4099398 -0.05803291 -0.6077694 -0.13831006
000150 c9 0e 53 3e 41 8e 1a bf 2d 3d ea bc 4d ff a4 be
       0.20611109 -0.6037331 -0.028593624 -0.3222603
000160 95 3a 41 bd 5f 81 22 3e 16 f7 1e be 3d 11 00 be
       -0.04717501 0.15869664 -0.15523943 -0.12506576
000170 6a b9 20 3d 5d e9 2a bd 7b 77 52 3e 8b 50 84 be
       0.039239325 -0.04172646 0.2055339 -0.258427
000180 84 14 9c be 82 14 d2 be a2 99 d6 bd 10 4a 16 3e
       -0.30484402 -0.4103127 -0.10478522 0.1467669
000190 07 2d b3 bd e7 31 cd bd 49 88 eb be 58 c8 08 be
       -0.08748823 -0.10019284 -0.46002415 -0.13357675
0001a0 08 ed 43 be 3c 5d 0d bf 2c c9 89 3e de 81 8a 3d
       -0.19133389 -0.5522039 0.26911294 0.067630515
0001b0 20 7a dc bd c7 d4 1e be 0e 29 85 3d 1b 02 d4 3e
       -0.10765481 -0.15510856 0.06501971 0.41407856
0001c0 fc 4f 1b be 13 d6 7b 3d 0a 30 eb 3e e4 f9 07 be
       -0.1516723 0.061483454 0.45935088 -0.1327892
0001d0 0f 86 7a bd 9f 6a ab 3d ed ea 02 3e 0a e1 28 be
       -0.061163004 0.08369946 0.1278493 -0.16492096
0001e0 a5 18 18 be 8f 61 4b bd 51 20 8d 3d 87 57 71 be
       -0.14853151 -0.049653586 0.068909295 -0.23568545
0001f0 08 61 06 bf e7 9d 93 3b ea ec d8 3e 95 cf 5e 3e
       -0.5249181 0.0045049074 0.4236825 0.21758874
000200 d6 04 84 3d e7 a9 24 be 16 47 dd 3d 0c ad e0 3c
       0.06446235 -0.16080438 0.10804574 0.027426265
000210 65 69 16 be 40 3a 0e be f2 ed cb be 56 44 cd be
       -0.14688642 -0.13889408 -0.39829975 -0.400912
000220 2f 8a d9 3c 2b 0a d2 be bf ef 1b 3d 52 55 62 be
       0.026555149 -0.41023383 0.038070437 -0.2210286
000230 f8 c9 29 3e 96 46 f7 be 47 9d db 3c ec 22 d2 be
       0.16580951 -0.4829604 0.026808394 -0.41042268
000240 08 2c 5b be 42 b3 79 3d d9 31 6c 3e c4 77 0d be
       -0.21403515 0.06096197 0.2306589 -0.13815218
000250 7c f1 e4 bd 1f 5a c9 3d 53 00 84 be 18 39 50 be
       -0.11178872 0.09831642 -0.25781497 -0.2033428
000260 68 91 82 3c 58 4c a9 be 81 f5 45 bd 1a 54 34 be
       0.015938476 -0.33066058 -0.048329834 -0.17610207
000270 bd e7 61 3e 2a b3 dd 3c 77 d2 b2 3c 15 1e 47 be
       0.22061057 0.027062971 0.021828873 -0.19445069
000280 c4 17 54 3e b0 ff e9 be bc 57 1d be a0 a0 2f 3e
       0.20712191 -0.45702887 -0.153655 0.17151117
000290 85 13 16 3e a6 b1 1a 3e bb fe fe bb d0 14 e1 3d
       0.14655884 0.1510683 -0.007781831 0.10990298
0002a0 c0 05 45 be 07 4c 6d 3e 77 27 9a 3c 34 66 0d 3f
       -0.19240475 0.23173533 0.018817646 0.55234075
0002b0 5d 37 d8 3d 62 af 12 bd 2c 1f e8 bd 7c 78 5d 3e
       0.10557435 -0.03581179 -0.113340706 0.21627992
0002c0 7c 81 08 3d 11 da 18 3e 4d b8 48 3e a8 0b be bd
       0.03332661 0.14926936 0.19601555 -0.09279567
0002d0 d3 59 0f be 8e 7b 0e 3e 60 87 af be 25 d8 da 3d
       -0.13999109 0.1391432 -0.3428297 0.106857575
0002e0 67 74 d3 bb 8c bd 86 3c 94 aa cd be 11 69 c1 be
       -0.006453085 0.016447805 -0.40169203 -0.37775472
0002f0 a8 73 0d be 5a e8 fb 3d 90 a1 e1 be c0 2a 69 3e
       -0.1381365 0.12300177 -0.44068575 0.22770214
000300 f3 9e 4b be 41 4c 17 3e 7a 7c ba bd 08 69 ca 3e
       -0.19884853 0.14775182 -0.09105773 0.39533257
000310 d2 96 90 3e b0 2e 24 bc a9 8e 27 be 68 75 7a bd
       0.28240067 -0.010020897 -0.16363014 -0.061147124
000320 cc 0d c3 bd c9 f0 95 bd 7f cc 46 be b2 e3 f4 bd
       -0.09524116 -0.07321317 -0.19413947 -0.11957492
000330 9c c8 d6 3d d6 d4 9b bc ae 12 b1 3d 89 f4 b5 bd
       0.10487482 -0.019022387 0.08646141 -0.08884532
000340 7f b8 f3 3e a2 e5 84 ba 2c 18 97 be 81 36 03 bf
       0.47601697 -0.0010139237 -0.2951063 -0.5125504
000350 38 b0 02 be 39 2e 16 3d 65 ce 36 bc 9d c9 34 be
       -0.12762535 0.036665175 -0.011157607 -0.17655034
000360 29 bb fb be 63 c2 e4 3e 9d 94 ff 3d b0 be 5d be
       -0.4916623 0.44679555 0.124795176 -0.21654773
000370 85 ff 47 bf c0 5d d4 be 9f af 47 be b6 00 1d 3e
       -0.78124267 -0.41477776 -0.19500588 0.15332302
000380 bf 6c 15 bc 25 10 9d 3e 8d 27 aa 3c 69 14 d3 be
       -0.009120165 0.3067638 0.020770812 -0.4122651
000390 a6 05 05 bf 7c 78 2d bd 9c bc b4 be 5b 70 17 be
       -0.51961744 -0.04235123 -0.35300148 -0.14788954
0003a0 49 f6 8d 3c 9d c5 6d 3d 7e b8 3e be 8f 77 1f bd
       0.017329352 0.058049787 -0.18625066 -0.03893238
0003b0 1a 18 59 be 22 95 e0 bd 27 62 91 bd f3 a4 77 3e
       -0.212006 -0.10965945 -0.07098799 0.24184017
0003c0 1d 95 7a be ba 99 de bd 7c be c2 3c b1 6c d0 bd
       -0.24470945 -0.10869165 0.02377247 -0.10176981
0003d0 4e e5 ff 3d 81 0d 9a 3d 0d 9b 93 bd 8b 77 26 3e
       0.12494908 0.07522107 -0.07207308 0.1625654
0003e0 17 6e 9e 3d c2 ee 0a 3e b1 dc 2f 3c c4 f3 58 3c
       0.07735842 0.13567641 0.010733769 0.013241712
0003f0 73 05 2b be a0 70 3e 3d a3 bf b2 bb 43 9e 55 be
       -0.16701297 0.046494126 -0.005454974 -0.20861153

fc3.bias f4 [10]
000000 13 29 55 3d fb db a8 3d 05 d4 ed bd 0f 8d a4 bb
       0.052041125 0.08245083 -0.11612705 -0.0050216983
000010 3d 47 dc 3d ee 73 62 be 08 5e 17 3d be 91 2d bc
       0.10755775 -0.22114536 0.03695491 -0.01059383
000020 79 e2 49 be bf 2b 10 3e
       -0.19715299 0.14079188
